{"format": "graph-model", "generatedBy": "1.14.0", "convertedBy": "TensorFlow.js Converter v1.2.6", "modelTopology": {"node": [{"name": "input.1", "op": "Placeholder", "attr": {"dtype": {"type": "DT_FLOAT"}, "shape": {"shape": {"dim": [{"size": "1"}, {"size": "3"}, {"size": "224"}, {"size": "224"}]}}}}, {"name": "mul_1", "op": "Const", "attr": {"value": {"tensor": {"dtype": "DT_FLOAT", "tensorShape": {"dim": [{"size": "14"}]}}}, "dtype": {"type": "DT_FLOAT"}}}, {"name": "transpose_370", "op": "Const", "attr": {"dtype": {"type": "DT_FLOAT"}, "value": {"tensor": {"dtype": "DT_FLOAT", "tensorShape": {"dim": [{"size": "1024"}, {"size": "14"}]}}}}}, {"name": "flatten/Reshape/shape", "op": "Const", "attr": {"value": {"tensor": {"dtype": "DT_INT32", "tensorShape": {"dim": [{"size": "2"}]}}}, "dtype": {"type": "DT_INT32"}}}, {"name": "transpose_2/perm", "op": "Const", "attr": {"value": {"tensor": {"dtype": "DT_INT32", "tensorShape": {"dim": [{"size": "4"}]}}}, "dtype": {"type": "DT_INT32"}}}, {"name": "transpose_1/perm", "op": "Const", "attr": {"value": {"tensor": {"dtype": "DT_INT32", "tensorShape": {"dim": [{"size": "4"}]}}}, "dtype": {"type": "DT_INT32"}}}, {"name": "batchnorm_120/sub", "op": "Const", "attr": {"dtype": {"type": "DT_FLOAT"}, "value": {"tensor": {"dtype": "DT_FLOAT", "tensorShape": {"dim": [{"size": "1"}, {"size": "1024"}, {"size": "1"}, {"size": "1"}]}}}}}, {"name": "concat_4/axis", "op": "Const", "attr": {"value": {"tensor": {"dtype": "DT_INT32", "tensorShape": {}}}, "dtype": {"type": "DT_INT32"}}}, {"name": "split_238", "op": "Const", "attr": {"value": {"tensor": {"dtype": "DT_FLOAT", "tensorShape": {"dim": [{"size": "3"}, {"size": "3"}, {"size": "128"}, {"size": "32"}]}}}, "dtype": {"type": "DT_FLOAT"}}}, {"name": "Const_730", "op": "Const", "attr": {"value": {"tensor": {"dtype": "DT_INT32", "tensorShape": {"dim": [{"size": "4"}, {"size": "2"}]}}}, "dtype": {"type": "DT_INT32"}}}, {"name": "batchnorm_119/sub", "op": "Const", "attr": {"dtype": {"type": "DT_FLOAT"}, "value": {"tensor": {"dtype": "DT_FLOAT", "tensorShape": {"dim": [{"size": "1"}, {"size": "128"}, {"size": "1"}, {"size": "1"}]}}}}}, {"name": "split_236", "op": "Const", "attr": {"value": {"tensor": {"dtype": "DT_FLOAT", "tensorShape": {"dim": [{"size": "1"}, {"size": "1"}, {"size": "992"}, {"size": "128"}]}}}, "dtype": {"type": "DT_FLOAT"}}}, {"name": "batchnorm_118/sub", "op": "Const", "attr": {"value": {"tensor": {"dtype": "DT_FLOAT", "tensorShape": {"dim": [{"size": "1"}, {"size": "992"}, {"size": "1"}, {"size": "1"}]}}}, "dtype": {"type": "DT_FLOAT"}}}, {"name": "split_234", "op": "Const", "attr": {"value": {"tensor": {"dtype": "DT_FLOAT", "tensorShape": {"dim": [{"size": "3"}, {"size": "3"}, {"size": "128"}, {"size": "32"}]}}}, "dtype": {"type": "DT_FLOAT"}}}, {"name": "batchnorm_117/sub", "op": "Const", "attr": {"value": {"tensor": {"dtype": "DT_FLOAT", "tensorShape": {"dim": [{"size": "1"}, {"size": "128"}, {"size": "1"}, {"size": "1"}]}}}, "dtype": {"type": "DT_FLOAT"}}}, {"name": "split_232", "op": "Const", "attr": {"value": {"tensor": {"dtype": "DT_FLOAT", "tensorShape": {"dim": [{"size": "1"}, {"size": "1"}, {"size": "960"}, {"size": "128"}]}}}, "dtype": {"type": "DT_FLOAT"}}}, {"name": "batchnorm_116/sub", "op": "Const", "attr": {"value": {"tensor": {"dtype": "DT_FLOAT", "tensorShape": {"dim": [{"size": "1"}, {"size": "960"}, {"size": "1"}, {"size": "1"}]}}}, "dtype": {"type": "DT_FLOAT"}}}, {"name": "split_230", "op": "Const", "attr": {"dtype": {"type": "DT_FLOAT"}, "value": {"tensor": {"dtype": "DT_FLOAT", "tensorShape": {"dim": [{"size": "3"}, {"size": "3"}, {"size": "128"}, {"size": "32"}]}}}}}, {"name": "batchnorm_115/sub", "op": "Const", "attr": {"value": {"tensor": {"dtype": "DT_FLOAT", "tensorShape": {"dim": [{"size": "1"}, {"size": "128"}, {"size": "1"}, {"size": "1"}]}}}, "dtype": {"type": "DT_FLOAT"}}}, {"name": "split_228", "op": "Const", "attr": {"value": {"tensor": {"dtype": "DT_FLOAT", "tensorShape": {"dim": [{"size": "1"}, {"size": "1"}, {"size": "928"}, {"size": "128"}]}}}, "dtype": {"type": "DT_FLOAT"}}}, {"name": "batchnorm_114/sub", "op": "Const", "attr": {"dtype": {"type": "DT_FLOAT"}, "value": {"tensor": {"dtype": "DT_FLOAT", "tensorShape": {"dim": [{"size": "1"}, {"size": "928"}, {"size": "1"}, {"size": "1"}]}}}}}, {"name": "split_226", "op": "Const", "attr": {"value": {"tensor": {"dtype": "DT_FLOAT", "tensorShape": {"dim": [{"size": "3"}, {"size": "3"}, {"size": "128"}, {"size": "32"}]}}}, "dtype": {"type": "DT_FLOAT"}}}, {"name": "batchnorm_113/sub", "op": "Const", "attr": {"dtype": {"type": "DT_FLOAT"}, "value": {"tensor": {"dtype": "DT_FLOAT", "tensorShape": {"dim": [{"size": "1"}, {"size": "128"}, {"size": "1"}, {"size": "1"}]}}}}}, {"name": "split_224", "op": "Const", "attr": {"value": {"tensor": {"dtype": "DT_FLOAT", "tensorShape": {"dim": [{"size": "1"}, {"size": "1"}, {"size": "896"}, {"size": "128"}]}}}, "dtype": {"type": "DT_FLOAT"}}}, {"name": "batchnorm_112/sub", "op": "Const", "attr": {"value": {"tensor": {"dtype": "DT_FLOAT", "tensorShape": {"dim": [{"size": "1"}, {"size": "896"}, {"size": "1"}, {"size": "1"}]}}}, "dtype": {"type": "DT_FLOAT"}}}, {"name": "split_222", "op": "Const", "attr": {"dtype": {"type": "DT_FLOAT"}, "value": {"tensor": {"dtype": "DT_FLOAT", "tensorShape": {"dim": [{"size": "3"}, {"size": "3"}, {"size": "128"}, {"size": "32"}]}}}}}, {"name": "batchnorm_111/sub", "op": "Const", "attr": {"value": {"tensor": {"dtype": "DT_FLOAT", "tensorShape": {"dim": [{"size": "1"}, {"size": "128"}, {"size": "1"}, {"size": "1"}]}}}, "dtype": {"type": "DT_FLOAT"}}}, {"name": "split_220", "op": "Const", "attr": {"value": {"tensor": {"dtype": "DT_FLOAT", "tensorShape": {"dim": [{"size": "1"}, {"size": "1"}, {"size": "864"}, {"size": "128"}]}}}, "dtype": {"type": "DT_FLOAT"}}}, {"name": "batchnorm_110/sub", "op": "Const", "attr": {"value": {"tensor": {"dtype": "DT_FLOAT", "tensorShape": {"dim": [{"size": "1"}, {"size": "864"}, {"size": "1"}, {"size": "1"}]}}}, "dtype": {"type": "DT_FLOAT"}}}, {"name": "split_218", "op": "Const", "attr": {"value": {"tensor": {"dtype": "DT_FLOAT", "tensorShape": {"dim": [{"size": "3"}, {"size": "3"}, {"size": "128"}, {"size": "32"}]}}}, "dtype": {"type": "DT_FLOAT"}}}, {"name": "batchnorm_109/sub", "op": "Const", "attr": {"value": {"tensor": {"dtype": "DT_FLOAT", "tensorShape": {"dim": [{"size": "1"}, {"size": "128"}, {"size": "1"}, {"size": "1"}]}}}, "dtype": {"type": "DT_FLOAT"}}}, {"name": "split_216", "op": "Const", "attr": {"dtype": {"type": "DT_FLOAT"}, "value": {"tensor": {"dtype": "DT_FLOAT", "tensorShape": {"dim": [{"size": "1"}, {"size": "1"}, {"size": "832"}, {"size": "128"}]}}}}}, {"name": "batchnorm_108/sub", "op": "Const", "attr": {"value": {"tensor": {"dtype": "DT_FLOAT", "tensorShape": {"dim": [{"size": "1"}, {"size": "832"}, {"size": "1"}, {"size": "1"}]}}}, "dtype": {"type": "DT_FLOAT"}}}, {"name": "split_214", "op": "Const", "attr": {"value": {"tensor": {"dtype": "DT_FLOAT", "tensorShape": {"dim": [{"size": "3"}, {"size": "3"}, {"size": "128"}, {"size": "32"}]}}}, "dtype": {"type": "DT_FLOAT"}}}, {"name": "batchnorm_107/sub", "op": "Const", "attr": {"value": {"tensor": {"dtype": "DT_FLOAT", "tensorShape": {"dim": [{"size": "1"}, {"size": "128"}, {"size": "1"}, {"size": "1"}]}}}, "dtype": {"type": "DT_FLOAT"}}}, {"name": "split_212", "op": "Const", "attr": {"value": {"tensor": {"dtype": "DT_FLOAT", "tensorShape": {"dim": [{"size": "1"}, {"size": "1"}, {"size": "800"}, {"size": "128"}]}}}, "dtype": {"type": "DT_FLOAT"}}}, {"name": "batchnorm_106/sub", "op": "Const", "attr": {"value": {"tensor": {"dtype": "DT_FLOAT", "tensorShape": {"dim": [{"size": "1"}, {"size": "800"}, {"size": "1"}, {"size": "1"}]}}}, "dtype": {"type": "DT_FLOAT"}}}, {"name": "split_210", "op": "Const", "attr": {"value": {"tensor": {"dtype": "DT_FLOAT", "tensorShape": {"dim": [{"size": "3"}, {"size": "3"}, {"size": "128"}, {"size": "32"}]}}}, "dtype": {"type": "DT_FLOAT"}}}, {"name": "batchnorm_105/sub", "op": "Const", "attr": {"value": {"tensor": {"dtype": "DT_FLOAT", "tensorShape": {"dim": [{"size": "1"}, {"size": "128"}, {"size": "1"}, {"size": "1"}]}}}, "dtype": {"type": "DT_FLOAT"}}}, {"name": "split_208", "op": "Const", "attr": {"value": {"tensor": {"dtype": "DT_FLOAT", "tensorShape": {"dim": [{"size": "1"}, {"size": "1"}, {"size": "768"}, {"size": "128"}]}}}, "dtype": {"type": "DT_FLOAT"}}}, {"name": "batchnorm_104/sub", "op": "Const", "attr": {"value": {"tensor": {"dtype": "DT_FLOAT", "tensorShape": {"dim": [{"size": "1"}, {"size": "768"}, {"size": "1"}, {"size": "1"}]}}}, "dtype": {"type": "DT_FLOAT"}}}, {"name": "split_206", "op": "Const", "attr": {"dtype": {"type": "DT_FLOAT"}, "value": {"tensor": {"dtype": "DT_FLOAT", "tensorShape": {"dim": [{"size": "3"}, {"size": "3"}, {"size": "128"}, {"size": "32"}]}}}}}, {"name": "batchnorm_103/sub", "op": "Const", "attr": {"value": {"tensor": {"dtype": "DT_FLOAT", "tensorShape": {"dim": [{"size": "1"}, {"size": "128"}, {"size": "1"}, {"size": "1"}]}}}, "dtype": {"type": "DT_FLOAT"}}}, {"name": "split_204", "op": "Const", "attr": {"value": {"tensor": {"dtype": "DT_FLOAT", "tensorShape": {"dim": [{"size": "1"}, {"size": "1"}, {"size": "736"}, {"size": "128"}]}}}, "dtype": {"type": "DT_FLOAT"}}}, {"name": "batchnorm_102/sub", "op": "Const", "attr": {"value": {"tensor": {"dtype": "DT_FLOAT", "tensorShape": {"dim": [{"size": "1"}, {"size": "736"}, {"size": "1"}, {"size": "1"}]}}}, "dtype": {"type": "DT_FLOAT"}}}, {"name": "split_202", "op": "Const", "attr": {"value": {"tensor": {"dtype": "DT_FLOAT", "tensorShape": {"dim": [{"size": "3"}, {"size": "3"}, {"size": "128"}, {"size": "32"}]}}}, "dtype": {"type": "DT_FLOAT"}}}, {"name": "batchnorm_101/sub", "op": "Const", "attr": {"value": {"tensor": {"dtype": "DT_FLOAT", "tensorShape": {"dim": [{"size": "1"}, {"size": "128"}, {"size": "1"}, {"size": "1"}]}}}, "dtype": {"type": "DT_FLOAT"}}}, {"name": "split_200", "op": "Const", "attr": {"value": {"tensor": {"dtype": "DT_FLOAT", "tensorShape": {"dim": [{"size": "1"}, {"size": "1"}, {"size": "704"}, {"size": "128"}]}}}, "dtype": {"type": "DT_FLOAT"}}}, {"name": "batchnorm_100/sub", "op": "Const", "attr": {"value": {"tensor": {"dtype": "DT_FLOAT", "tensorShape": {"dim": [{"size": "1"}, {"size": "704"}, {"size": "1"}, {"size": "1"}]}}}, "dtype": {"type": "DT_FLOAT"}}}, {"name": "split_198", "op": "Const", "attr": {"value": {"tensor": {"dtype": "DT_FLOAT", "tensorShape": {"dim": [{"size": "3"}, {"size": "3"}, {"size": "128"}, {"size": "32"}]}}}, "dtype": {"type": "DT_FLOAT"}}}, {"name": "batchnorm_99/sub", "op": "Const", "attr": {"dtype": {"type": "DT_FLOAT"}, "value": {"tensor": {"dtype": "DT_FLOAT", "tensorShape": {"dim": [{"size": "1"}, {"size": "128"}, {"size": "1"}, {"size": "1"}]}}}}}, {"name": "split_196", "op": "Const", "attr": {"value": {"tensor": {"dtype": "DT_FLOAT", "tensorShape": {"dim": [{"size": "1"}, {"size": "1"}, {"size": "672"}, {"size": "128"}]}}}, "dtype": {"type": "DT_FLOAT"}}}, {"name": "batchnorm_98/sub", "op": "Const", "attr": {"value": {"tensor": {"dtype": "DT_FLOAT", "tensorShape": {"dim": [{"size": "1"}, {"size": "672"}, {"size": "1"}, {"size": "1"}]}}}, "dtype": {"type": "DT_FLOAT"}}}, {"name": "split_194", "op": "Const", "attr": {"value": {"tensor": {"dtype": "DT_FLOAT", "tensorShape": {"dim": [{"size": "3"}, {"size": "3"}, {"size": "128"}, {"size": "32"}]}}}, "dtype": {"type": "DT_FLOAT"}}}, {"name": "batchnorm_97/sub", "op": "Const", "attr": {"value": {"tensor": {"dtype": "DT_FLOAT", "tensorShape": {"dim": [{"size": "1"}, {"size": "128"}, {"size": "1"}, {"size": "1"}]}}}, "dtype": {"type": "DT_FLOAT"}}}, {"name": "split_192", "op": "Const", "attr": {"value": {"tensor": {"dtype": "DT_FLOAT", "tensorShape": {"dim": [{"size": "1"}, {"size": "1"}, {"size": "640"}, {"size": "128"}]}}}, "dtype": {"type": "DT_FLOAT"}}}, {"name": "batchnorm_96/sub", "op": "Const", "attr": {"value": {"tensor": {"dtype": "DT_FLOAT", "tensorShape": {"dim": [{"size": "1"}, {"size": "640"}, {"size": "1"}, {"size": "1"}]}}}, "dtype": {"type": "DT_FLOAT"}}}, {"name": "split_190", "op": "Const", "attr": {"value": {"tensor": {"dtype": "DT_FLOAT", "tensorShape": {"dim": [{"size": "3"}, {"size": "3"}, {"size": "128"}, {"size": "32"}]}}}, "dtype": {"type": "DT_FLOAT"}}}, {"name": "batchnorm_95/sub", "op": "Const", "attr": {"value": {"tensor": {"dtype": "DT_FLOAT", "tensorShape": {"dim": [{"size": "1"}, {"size": "128"}, {"size": "1"}, {"size": "1"}]}}}, "dtype": {"type": "DT_FLOAT"}}}, {"name": "split_188", "op": "Const", "attr": {"dtype": {"type": "DT_FLOAT"}, "value": {"tensor": {"dtype": "DT_FLOAT", "tensorShape": {"dim": [{"size": "1"}, {"size": "1"}, {"size": "608"}, {"size": "128"}]}}}}}, {"name": "batchnorm_94/sub", "op": "Const", "attr": {"value": {"tensor": {"dtype": "DT_FLOAT", "tensorShape": {"dim": [{"size": "1"}, {"size": "608"}, {"size": "1"}, {"size": "1"}]}}}, "dtype": {"type": "DT_FLOAT"}}}, {"name": "split_186", "op": "Const", "attr": {"dtype": {"type": "DT_FLOAT"}, "value": {"tensor": {"dtype": "DT_FLOAT", "tensorShape": {"dim": [{"size": "3"}, {"size": "3"}, {"size": "128"}, {"size": "32"}]}}}}}, {"name": "batchnorm_93/sub", "op": "Const", "attr": {"value": {"tensor": {"dtype": "DT_FLOAT", "tensorShape": {"dim": [{"size": "1"}, {"size": "128"}, {"size": "1"}, {"size": "1"}]}}}, "dtype": {"type": "DT_FLOAT"}}}, {"name": "split_184", "op": "Const", "attr": {"value": {"tensor": {"dtype": "DT_FLOAT", "tensorShape": {"dim": [{"size": "1"}, {"size": "1"}, {"size": "576"}, {"size": "128"}]}}}, "dtype": {"type": "DT_FLOAT"}}}, {"name": "batchnorm_92/sub", "op": "Const", "attr": {"value": {"tensor": {"dtype": "DT_FLOAT", "tensorShape": {"dim": [{"size": "1"}, {"size": "576"}, {"size": "1"}, {"size": "1"}]}}}, "dtype": {"type": "DT_FLOAT"}}}, {"name": "split_182", "op": "Const", "attr": {"value": {"tensor": {"dtype": "DT_FLOAT", "tensorShape": {"dim": [{"size": "3"}, {"size": "3"}, {"size": "128"}, {"size": "32"}]}}}, "dtype": {"type": "DT_FLOAT"}}}, {"name": "batchnorm_91/sub", "op": "Const", "attr": {"value": {"tensor": {"dtype": "DT_FLOAT", "tensorShape": {"dim": [{"size": "1"}, {"size": "128"}, {"size": "1"}, {"size": "1"}]}}}, "dtype": {"type": "DT_FLOAT"}}}, {"name": "split_180", "op": "Const", "attr": {"value": {"tensor": {"dtype": "DT_FLOAT", "tensorShape": {"dim": [{"size": "1"}, {"size": "1"}, {"size": "544"}, {"size": "128"}]}}}, "dtype": {"type": "DT_FLOAT"}}}, {"name": "batchnorm_90/sub", "op": "Const", "attr": {"value": {"tensor": {"dtype": "DT_FLOAT", "tensorShape": {"dim": [{"size": "1"}, {"size": "544"}, {"size": "1"}, {"size": "1"}]}}}, "dtype": {"type": "DT_FLOAT"}}}, {"name": "split_178", "op": "Const", "attr": {"dtype": {"type": "DT_FLOAT"}, "value": {"tensor": {"dtype": "DT_FLOAT", "tensorShape": {"dim": [{"size": "3"}, {"size": "3"}, {"size": "128"}, {"size": "32"}]}}}}}, {"name": "batchnorm_89/sub", "op": "Const", "attr": {"value": {"tensor": {"dtype": "DT_FLOAT", "tensorShape": {"dim": [{"size": "1"}, {"size": "128"}, {"size": "1"}, {"size": "1"}]}}}, "dtype": {"type": "DT_FLOAT"}}}, {"name": "split_176", "op": "Const", "attr": {"value": {"tensor": {"dtype": "DT_FLOAT", "tensorShape": {"dim": [{"size": "1"}, {"size": "1"}, {"size": "512"}, {"size": "128"}]}}}, "dtype": {"type": "DT_FLOAT"}}}, {"name": "batchnorm_88/sub", "op": "Const", "attr": {"value": {"tensor": {"dtype": "DT_FLOAT", "tensorShape": {"dim": [{"size": "1"}, {"size": "512"}, {"size": "1"}, {"size": "1"}]}}}, "dtype": {"type": "DT_FLOAT"}}}, {"name": "split_174", "op": "Const", "attr": {"value": {"tensor": {"dtype": "DT_FLOAT", "tensorShape": {"dim": [{"size": "1"}, {"size": "1"}, {"size": "1024"}, {"size": "512"}]}}}, "dtype": {"type": "DT_FLOAT"}}}, {"name": "batchnorm_87/sub", "op": "Const", "attr": {"value": {"tensor": {"dtype": "DT_FLOAT", "tensorShape": {"dim": [{"size": "1"}, {"size": "1024"}, {"size": "1"}, {"size": "1"}]}}}, "dtype": {"type": "DT_FLOAT"}}}, {"name": "split_172", "op": "Const", "attr": {"value": {"tensor": {"dtype": "DT_FLOAT", "tensorShape": {"dim": [{"size": "3"}, {"size": "3"}, {"size": "128"}, {"size": "32"}]}}}, "dtype": {"type": "DT_FLOAT"}}}, {"name": "batchnorm_86/sub", "op": "Const", "attr": {"dtype": {"type": "DT_FLOAT"}, "value": {"tensor": {"dtype": "DT_FLOAT", "tensorShape": {"dim": [{"size": "1"}, {"size": "128"}, {"size": "1"}, {"size": "1"}]}}}}}, {"name": "split_170", "op": "Const", "attr": {"value": {"tensor": {"dtype": "DT_FLOAT", "tensorShape": {"dim": [{"size": "1"}, {"size": "1"}, {"size": "992"}, {"size": "128"}]}}}, "dtype": {"type": "DT_FLOAT"}}}, {"name": "batchnorm_85/sub", "op": "Const", "attr": {"value": {"tensor": {"dtype": "DT_FLOAT", "tensorShape": {"dim": [{"size": "1"}, {"size": "992"}, {"size": "1"}, {"size": "1"}]}}}, "dtype": {"type": "DT_FLOAT"}}}, {"name": "split_168", "op": "Const", "attr": {"value": {"tensor": {"dtype": "DT_FLOAT", "tensorShape": {"dim": [{"size": "3"}, {"size": "3"}, {"size": "128"}, {"size": "32"}]}}}, "dtype": {"type": "DT_FLOAT"}}}, {"name": "batchnorm_84/sub", "op": "Const", "attr": {"value": {"tensor": {"dtype": "DT_FLOAT", "tensorShape": {"dim": [{"size": "1"}, {"size": "128"}, {"size": "1"}, {"size": "1"}]}}}, "dtype": {"type": "DT_FLOAT"}}}, {"name": "split_166", "op": "Const", "attr": {"value": {"tensor": {"dtype": "DT_FLOAT", "tensorShape": {"dim": [{"size": "1"}, {"size": "1"}, {"size": "960"}, {"size": "128"}]}}}, "dtype": {"type": "DT_FLOAT"}}}, {"name": "batchnorm_83/sub", "op": "Const", "attr": {"dtype": {"type": "DT_FLOAT"}, "value": {"tensor": {"dtype": "DT_FLOAT", "tensorShape": {"dim": [{"size": "1"}, {"size": "960"}, {"size": "1"}, {"size": "1"}]}}}}}, {"name": "split_164", "op": "Const", "attr": {"value": {"tensor": {"dtype": "DT_FLOAT", "tensorShape": {"dim": [{"size": "3"}, {"size": "3"}, {"size": "128"}, {"size": "32"}]}}}, "dtype": {"type": "DT_FLOAT"}}}, {"name": "batchnorm_82/sub", "op": "Const", "attr": {"value": {"tensor": {"dtype": "DT_FLOAT", "tensorShape": {"dim": [{"size": "1"}, {"size": "128"}, {"size": "1"}, {"size": "1"}]}}}, "dtype": {"type": "DT_FLOAT"}}}, {"name": "split_162", "op": "Const", "attr": {"dtype": {"type": "DT_FLOAT"}, "value": {"tensor": {"dtype": "DT_FLOAT", "tensorShape": {"dim": [{"size": "1"}, {"size": "1"}, {"size": "928"}, {"size": "128"}]}}}}}, {"name": "batchnorm_81/sub", "op": "Const", "attr": {"dtype": {"type": "DT_FLOAT"}, "value": {"tensor": {"dtype": "DT_FLOAT", "tensorShape": {"dim": [{"size": "1"}, {"size": "928"}, {"size": "1"}, {"size": "1"}]}}}}}, {"name": "split_160", "op": "Const", "attr": {"value": {"tensor": {"dtype": "DT_FLOAT", "tensorShape": {"dim": [{"size": "3"}, {"size": "3"}, {"size": "128"}, {"size": "32"}]}}}, "dtype": {"type": "DT_FLOAT"}}}, {"name": "batchnorm_80/sub", "op": "Const", "attr": {"value": {"tensor": {"dtype": "DT_FLOAT", "tensorShape": {"dim": [{"size": "1"}, {"size": "128"}, {"size": "1"}, {"size": "1"}]}}}, "dtype": {"type": "DT_FLOAT"}}}, {"name": "split_158", "op": "Const", "attr": {"value": {"tensor": {"dtype": "DT_FLOAT", "tensorShape": {"dim": [{"size": "1"}, {"size": "1"}, {"size": "896"}, {"size": "128"}]}}}, "dtype": {"type": "DT_FLOAT"}}}, {"name": "batchnorm_79/sub", "op": "Const", "attr": {"dtype": {"type": "DT_FLOAT"}, "value": {"tensor": {"dtype": "DT_FLOAT", "tensorShape": {"dim": [{"size": "1"}, {"size": "896"}, {"size": "1"}, {"size": "1"}]}}}}}, {"name": "split_156", "op": "Const", "attr": {"value": {"tensor": {"dtype": "DT_FLOAT", "tensorShape": {"dim": [{"size": "3"}, {"size": "3"}, {"size": "128"}, {"size": "32"}]}}}, "dtype": {"type": "DT_FLOAT"}}}, {"name": "batchnorm_78/sub", "op": "Const", "attr": {"value": {"tensor": {"dtype": "DT_FLOAT", "tensorShape": {"dim": [{"size": "1"}, {"size": "128"}, {"size": "1"}, {"size": "1"}]}}}, "dtype": {"type": "DT_FLOAT"}}}, {"name": "split_154", "op": "Const", "attr": {"value": {"tensor": {"dtype": "DT_FLOAT", "tensorShape": {"dim": [{"size": "1"}, {"size": "1"}, {"size": "864"}, {"size": "128"}]}}}, "dtype": {"type": "DT_FLOAT"}}}, {"name": "batchnorm_77/sub", "op": "Const", "attr": {"value": {"tensor": {"dtype": "DT_FLOAT", "tensorShape": {"dim": [{"size": "1"}, {"size": "864"}, {"size": "1"}, {"size": "1"}]}}}, "dtype": {"type": "DT_FLOAT"}}}, {"name": "split_152", "op": "Const", "attr": {"value": {"tensor": {"dtype": "DT_FLOAT", "tensorShape": {"dim": [{"size": "3"}, {"size": "3"}, {"size": "128"}, {"size": "32"}]}}}, "dtype": {"type": "DT_FLOAT"}}}, {"name": "batchnorm_76/sub", "op": "Const", "attr": {"value": {"tensor": {"dtype": "DT_FLOAT", "tensorShape": {"dim": [{"size": "1"}, {"size": "128"}, {"size": "1"}, {"size": "1"}]}}}, "dtype": {"type": "DT_FLOAT"}}}, {"name": "split_150", "op": "Const", "attr": {"value": {"tensor": {"dtype": "DT_FLOAT", "tensorShape": {"dim": [{"size": "1"}, {"size": "1"}, {"size": "832"}, {"size": "128"}]}}}, "dtype": {"type": "DT_FLOAT"}}}, {"name": "batchnorm_75/sub", "op": "Const", "attr": {"value": {"tensor": {"dtype": "DT_FLOAT", "tensorShape": {"dim": [{"size": "1"}, {"size": "832"}, {"size": "1"}, {"size": "1"}]}}}, "dtype": {"type": "DT_FLOAT"}}}, {"name": "split_148", "op": "Const", "attr": {"value": {"tensor": {"dtype": "DT_FLOAT", "tensorShape": {"dim": [{"size": "3"}, {"size": "3"}, {"size": "128"}, {"size": "32"}]}}}, "dtype": {"type": "DT_FLOAT"}}}, {"name": "batchnorm_74/sub", "op": "Const", "attr": {"value": {"tensor": {"dtype": "DT_FLOAT", "tensorShape": {"dim": [{"size": "1"}, {"size": "128"}, {"size": "1"}, {"size": "1"}]}}}, "dtype": {"type": "DT_FLOAT"}}}, {"name": "split_146", "op": "Const", "attr": {"value": {"tensor": {"dtype": "DT_FLOAT", "tensorShape": {"dim": [{"size": "1"}, {"size": "1"}, {"size": "800"}, {"size": "128"}]}}}, "dtype": {"type": "DT_FLOAT"}}}, {"name": "batchnorm_73/sub", "op": "Const", "attr": {"value": {"tensor": {"dtype": "DT_FLOAT", "tensorShape": {"dim": [{"size": "1"}, {"size": "800"}, {"size": "1"}, {"size": "1"}]}}}, "dtype": {"type": "DT_FLOAT"}}}, {"name": "split_144", "op": "Const", "attr": {"value": {"tensor": {"dtype": "DT_FLOAT", "tensorShape": {"dim": [{"size": "3"}, {"size": "3"}, {"size": "128"}, {"size": "32"}]}}}, "dtype": {"type": "DT_FLOAT"}}}, {"name": "batchnorm_72/sub", "op": "Const", "attr": {"dtype": {"type": "DT_FLOAT"}, "value": {"tensor": {"dtype": "DT_FLOAT", "tensorShape": {"dim": [{"size": "1"}, {"size": "128"}, {"size": "1"}, {"size": "1"}]}}}}}, {"name": "split_142", "op": "Const", "attr": {"value": {"tensor": {"dtype": "DT_FLOAT", "tensorShape": {"dim": [{"size": "1"}, {"size": "1"}, {"size": "768"}, {"size": "128"}]}}}, "dtype": {"type": "DT_FLOAT"}}}, {"name": "batchnorm_71/sub", "op": "Const", "attr": {"value": {"tensor": {"dtype": "DT_FLOAT", "tensorShape": {"dim": [{"size": "1"}, {"size": "768"}, {"size": "1"}, {"size": "1"}]}}}, "dtype": {"type": "DT_FLOAT"}}}, {"name": "split_140", "op": "Const", "attr": {"value": {"tensor": {"dtype": "DT_FLOAT", "tensorShape": {"dim": [{"size": "3"}, {"size": "3"}, {"size": "128"}, {"size": "32"}]}}}, "dtype": {"type": "DT_FLOAT"}}}, {"name": "batchnorm_70/sub", "op": "Const", "attr": {"value": {"tensor": {"dtype": "DT_FLOAT", "tensorShape": {"dim": [{"size": "1"}, {"size": "128"}, {"size": "1"}, {"size": "1"}]}}}, "dtype": {"type": "DT_FLOAT"}}}, {"name": "split_138", "op": "Const", "attr": {"value": {"tensor": {"dtype": "DT_FLOAT", "tensorShape": {"dim": [{"size": "1"}, {"size": "1"}, {"size": "736"}, {"size": "128"}]}}}, "dtype": {"type": "DT_FLOAT"}}}, {"name": "batchnorm_69/sub", "op": "Const", "attr": {"value": {"tensor": {"dtype": "DT_FLOAT", "tensorShape": {"dim": [{"size": "1"}, {"size": "736"}, {"size": "1"}, {"size": "1"}]}}}, "dtype": {"type": "DT_FLOAT"}}}, {"name": "split_136", "op": "Const", "attr": {"value": {"tensor": {"dtype": "DT_FLOAT", "tensorShape": {"dim": [{"size": "3"}, {"size": "3"}, {"size": "128"}, {"size": "32"}]}}}, "dtype": {"type": "DT_FLOAT"}}}, {"name": "batchnorm_68/sub", "op": "Const", "attr": {"value": {"tensor": {"dtype": "DT_FLOAT", "tensorShape": {"dim": [{"size": "1"}, {"size": "128"}, {"size": "1"}, {"size": "1"}]}}}, "dtype": {"type": "DT_FLOAT"}}}, {"name": "split_134", "op": "Const", "attr": {"dtype": {"type": "DT_FLOAT"}, "value": {"tensor": {"dtype": "DT_FLOAT", "tensorShape": {"dim": [{"size": "1"}, {"size": "1"}, {"size": "704"}, {"size": "128"}]}}}}}, {"name": "batchnorm_67/sub", "op": "Const", "attr": {"dtype": {"type": "DT_FLOAT"}, "value": {"tensor": {"dtype": "DT_FLOAT", "tensorShape": {"dim": [{"size": "1"}, {"size": "704"}, {"size": "1"}, {"size": "1"}]}}}}}, {"name": "split_132", "op": "Const", "attr": {"value": {"tensor": {"dtype": "DT_FLOAT", "tensorShape": {"dim": [{"size": "3"}, {"size": "3"}, {"size": "128"}, {"size": "32"}]}}}, "dtype": {"type": "DT_FLOAT"}}}, {"name": "batchnorm_66/sub", "op": "Const", "attr": {"value": {"tensor": {"dtype": "DT_FLOAT", "tensorShape": {"dim": [{"size": "1"}, {"size": "128"}, {"size": "1"}, {"size": "1"}]}}}, "dtype": {"type": "DT_FLOAT"}}}, {"name": "split_130", "op": "Const", "attr": {"value": {"tensor": {"dtype": "DT_FLOAT", "tensorShape": {"dim": [{"size": "1"}, {"size": "1"}, {"size": "672"}, {"size": "128"}]}}}, "dtype": {"type": "DT_FLOAT"}}}, {"name": "batchnorm_65/sub", "op": "Const", "attr": {"value": {"tensor": {"dtype": "DT_FLOAT", "tensorShape": {"dim": [{"size": "1"}, {"size": "672"}, {"size": "1"}, {"size": "1"}]}}}, "dtype": {"type": "DT_FLOAT"}}}, {"name": "split_128", "op": "Const", "attr": {"value": {"tensor": {"dtype": "DT_FLOAT", "tensorShape": {"dim": [{"size": "3"}, {"size": "3"}, {"size": "128"}, {"size": "32"}]}}}, "dtype": {"type": "DT_FLOAT"}}}, {"name": "batchnorm_64/sub", "op": "Const", "attr": {"value": {"tensor": {"dtype": "DT_FLOAT", "tensorShape": {"dim": [{"size": "1"}, {"size": "128"}, {"size": "1"}, {"size": "1"}]}}}, "dtype": {"type": "DT_FLOAT"}}}, {"name": "split_126", "op": "Const", "attr": {"value": {"tensor": {"dtype": "DT_FLOAT", "tensorShape": {"dim": [{"size": "1"}, {"size": "1"}, {"size": "640"}, {"size": "128"}]}}}, "dtype": {"type": "DT_FLOAT"}}}, {"name": "batchnorm_63/sub", "op": "Const", "attr": {"value": {"tensor": {"dtype": "DT_FLOAT", "tensorShape": {"dim": [{"size": "1"}, {"size": "640"}, {"size": "1"}, {"size": "1"}]}}}, "dtype": {"type": "DT_FLOAT"}}}, {"name": "split_124", "op": "Const", "attr": {"value": {"tensor": {"dtype": "DT_FLOAT", "tensorShape": {"dim": [{"size": "3"}, {"size": "3"}, {"size": "128"}, {"size": "32"}]}}}, "dtype": {"type": "DT_FLOAT"}}}, {"name": "batchnorm_62/sub", "op": "Const", "attr": {"value": {"tensor": {"dtype": "DT_FLOAT", "tensorShape": {"dim": [{"size": "1"}, {"size": "128"}, {"size": "1"}, {"size": "1"}]}}}, "dtype": {"type": "DT_FLOAT"}}}, {"name": "split_122", "op": "Const", "attr": {"value": {"tensor": {"dtype": "DT_FLOAT", "tensorShape": {"dim": [{"size": "1"}, {"size": "1"}, {"size": "608"}, {"size": "128"}]}}}, "dtype": {"type": "DT_FLOAT"}}}, {"name": "batchnorm_61/sub", "op": "Const", "attr": {"value": {"tensor": {"dtype": "DT_FLOAT", "tensorShape": {"dim": [{"size": "1"}, {"size": "608"}, {"size": "1"}, {"size": "1"}]}}}, "dtype": {"type": "DT_FLOAT"}}}, {"name": "split_120", "op": "Const", "attr": {"value": {"tensor": {"dtype": "DT_FLOAT", "tensorShape": {"dim": [{"size": "3"}, {"size": "3"}, {"size": "128"}, {"size": "32"}]}}}, "dtype": {"type": "DT_FLOAT"}}}, {"name": "batchnorm_60/sub", "op": "Const", "attr": {"value": {"tensor": {"dtype": "DT_FLOAT", "tensorShape": {"dim": [{"size": "1"}, {"size": "128"}, {"size": "1"}, {"size": "1"}]}}}, "dtype": {"type": "DT_FLOAT"}}}, {"name": "split_118", "op": "Const", "attr": {"value": {"tensor": {"dtype": "DT_FLOAT", "tensorShape": {"dim": [{"size": "1"}, {"size": "1"}, {"size": "576"}, {"size": "128"}]}}}, "dtype": {"type": "DT_FLOAT"}}}, {"name": "batchnorm_59/sub", "op": "Const", "attr": {"dtype": {"type": "DT_FLOAT"}, "value": {"tensor": {"dtype": "DT_FLOAT", "tensorShape": {"dim": [{"size": "1"}, {"size": "576"}, {"size": "1"}, {"size": "1"}]}}}}}, {"name": "split_116", "op": "Const", "attr": {"value": {"tensor": {"dtype": "DT_FLOAT", "tensorShape": {"dim": [{"size": "3"}, {"size": "3"}, {"size": "128"}, {"size": "32"}]}}}, "dtype": {"type": "DT_FLOAT"}}}, {"name": "batchnorm_58/sub", "op": "Const", "attr": {"value": {"tensor": {"dtype": "DT_FLOAT", "tensorShape": {"dim": [{"size": "1"}, {"size": "128"}, {"size": "1"}, {"size": "1"}]}}}, "dtype": {"type": "DT_FLOAT"}}}, {"name": "split_114", "op": "Const", "attr": {"dtype": {"type": "DT_FLOAT"}, "value": {"tensor": {"dtype": "DT_FLOAT", "tensorShape": {"dim": [{"size": "1"}, {"size": "1"}, {"size": "544"}, {"size": "128"}]}}}}}, {"name": "batchnorm_57/sub", "op": "Const", "attr": {"dtype": {"type": "DT_FLOAT"}, "value": {"tensor": {"dtype": "DT_FLOAT", "tensorShape": {"dim": [{"size": "1"}, {"size": "544"}, {"size": "1"}, {"size": "1"}]}}}}}, {"name": "split_112", "op": "Const", "attr": {"dtype": {"type": "DT_FLOAT"}, "value": {"tensor": {"dtype": "DT_FLOAT", "tensorShape": {"dim": [{"size": "3"}, {"size": "3"}, {"size": "128"}, {"size": "32"}]}}}}}, {"name": "batchnorm_56/sub", "op": "Const", "attr": {"dtype": {"type": "DT_FLOAT"}, "value": {"tensor": {"dtype": "DT_FLOAT", "tensorShape": {"dim": [{"size": "1"}, {"size": "128"}, {"size": "1"}, {"size": "1"}]}}}}}, {"name": "split_110", "op": "Const", "attr": {"value": {"tensor": {"dtype": "DT_FLOAT", "tensorShape": {"dim": [{"size": "1"}, {"size": "1"}, {"size": "512"}, {"size": "128"}]}}}, "dtype": {"type": "DT_FLOAT"}}}, {"name": "batchnorm_55/sub", "op": "Const", "attr": {"dtype": {"type": "DT_FLOAT"}, "value": {"tensor": {"dtype": "DT_FLOAT", "tensorShape": {"dim": [{"size": "1"}, {"size": "512"}, {"size": "1"}, {"size": "1"}]}}}}}, {"name": "split_108", "op": "Const", "attr": {"value": {"tensor": {"dtype": "DT_FLOAT", "tensorShape": {"dim": [{"size": "3"}, {"size": "3"}, {"size": "128"}, {"size": "32"}]}}}, "dtype": {"type": "DT_FLOAT"}}}, {"name": "batchnorm_54/sub", "op": "Const", "attr": {"dtype": {"type": "DT_FLOAT"}, "value": {"tensor": {"dtype": "DT_FLOAT", "tensorShape": {"dim": [{"size": "1"}, {"size": "128"}, {"size": "1"}, {"size": "1"}]}}}}}, {"name": "split_106", "op": "Const", "attr": {"dtype": {"type": "DT_FLOAT"}, "value": {"tensor": {"dtype": "DT_FLOAT", "tensorShape": {"dim": [{"size": "1"}, {"size": "1"}, {"size": "480"}, {"size": "128"}]}}}}}, {"name": "batchnorm_53/sub", "op": "Const", "attr": {"value": {"tensor": {"dtype": "DT_FLOAT", "tensorShape": {"dim": [{"size": "1"}, {"size": "480"}, {"size": "1"}, {"size": "1"}]}}}, "dtype": {"type": "DT_FLOAT"}}}, {"name": "split_104", "op": "Const", "attr": {"dtype": {"type": "DT_FLOAT"}, "value": {"tensor": {"dtype": "DT_FLOAT", "tensorShape": {"dim": [{"size": "3"}, {"size": "3"}, {"size": "128"}, {"size": "32"}]}}}}}, {"name": "batchnorm_52/sub", "op": "Const", "attr": {"value": {"tensor": {"dtype": "DT_FLOAT", "tensorShape": {"dim": [{"size": "1"}, {"size": "128"}, {"size": "1"}, {"size": "1"}]}}}, "dtype": {"type": "DT_FLOAT"}}}, {"name": "split_102", "op": "Const", "attr": {"value": {"tensor": {"dtype": "DT_FLOAT", "tensorShape": {"dim": [{"size": "1"}, {"size": "1"}, {"size": "448"}, {"size": "128"}]}}}, "dtype": {"type": "DT_FLOAT"}}}, {"name": "batchnorm_51/sub", "op": "Const", "attr": {"value": {"tensor": {"dtype": "DT_FLOAT", "tensorShape": {"dim": [{"size": "1"}, {"size": "448"}, {"size": "1"}, {"size": "1"}]}}}, "dtype": {"type": "DT_FLOAT"}}}, {"name": "split_100", "op": "Const", "attr": {"value": {"tensor": {"dtype": "DT_FLOAT", "tensorShape": {"dim": [{"size": "3"}, {"size": "3"}, {"size": "128"}, {"size": "32"}]}}}, "dtype": {"type": "DT_FLOAT"}}}, {"name": "batchnorm_50/sub", "op": "Const", "attr": {"value": {"tensor": {"dtype": "DT_FLOAT", "tensorShape": {"dim": [{"size": "1"}, {"size": "128"}, {"size": "1"}, {"size": "1"}]}}}, "dtype": {"type": "DT_FLOAT"}}}, {"name": "split_98", "op": "Const", "attr": {"dtype": {"type": "DT_FLOAT"}, "value": {"tensor": {"dtype": "DT_FLOAT", "tensorShape": {"dim": [{"size": "1"}, {"size": "1"}, {"size": "416"}, {"size": "128"}]}}}}}, {"name": "batchnorm_49/sub", "op": "Const", "attr": {"value": {"tensor": {"dtype": "DT_FLOAT", "tensorShape": {"dim": [{"size": "1"}, {"size": "416"}, {"size": "1"}, {"size": "1"}]}}}, "dtype": {"type": "DT_FLOAT"}}}, {"name": "split_96", "op": "Const", "attr": {"value": {"tensor": {"dtype": "DT_FLOAT", "tensorShape": {"dim": [{"size": "3"}, {"size": "3"}, {"size": "128"}, {"size": "32"}]}}}, "dtype": {"type": "DT_FLOAT"}}}, {"name": "batchnorm_48/sub", "op": "Const", "attr": {"value": {"tensor": {"dtype": "DT_FLOAT", "tensorShape": {"dim": [{"size": "1"}, {"size": "128"}, {"size": "1"}, {"size": "1"}]}}}, "dtype": {"type": "DT_FLOAT"}}}, {"name": "split_94", "op": "Const", "attr": {"dtype": {"type": "DT_FLOAT"}, "value": {"tensor": {"dtype": "DT_FLOAT", "tensorShape": {"dim": [{"size": "1"}, {"size": "1"}, {"size": "384"}, {"size": "128"}]}}}}}, {"name": "batchnorm_47/sub", "op": "Const", "attr": {"dtype": {"type": "DT_FLOAT"}, "value": {"tensor": {"dtype": "DT_FLOAT", "tensorShape": {"dim": [{"size": "1"}, {"size": "384"}, {"size": "1"}, {"size": "1"}]}}}}}, {"name": "split_92", "op": "Const", "attr": {"dtype": {"type": "DT_FLOAT"}, "value": {"tensor": {"dtype": "DT_FLOAT", "tensorShape": {"dim": [{"size": "3"}, {"size": "3"}, {"size": "128"}, {"size": "32"}]}}}}}, {"name": "batchnorm_46/sub", "op": "Const", "attr": {"value": {"tensor": {"dtype": "DT_FLOAT", "tensorShape": {"dim": [{"size": "1"}, {"size": "128"}, {"size": "1"}, {"size": "1"}]}}}, "dtype": {"type": "DT_FLOAT"}}}, {"name": "split_90", "op": "Const", "attr": {"value": {"tensor": {"dtype": "DT_FLOAT", "tensorShape": {"dim": [{"size": "1"}, {"size": "1"}, {"size": "352"}, {"size": "128"}]}}}, "dtype": {"type": "DT_FLOAT"}}}, {"name": "batchnorm_45/sub", "op": "Const", "attr": {"value": {"tensor": {"dtype": "DT_FLOAT", "tensorShape": {"dim": [{"size": "1"}, {"size": "352"}, {"size": "1"}, {"size": "1"}]}}}, "dtype": {"type": "DT_FLOAT"}}}, {"name": "split_88", "op": "Const", "attr": {"value": {"tensor": {"dtype": "DT_FLOAT", "tensorShape": {"dim": [{"size": "3"}, {"size": "3"}, {"size": "128"}, {"size": "32"}]}}}, "dtype": {"type": "DT_FLOAT"}}}, {"name": "batchnorm_44/sub", "op": "Const", "attr": {"value": {"tensor": {"dtype": "DT_FLOAT", "tensorShape": {"dim": [{"size": "1"}, {"size": "128"}, {"size": "1"}, {"size": "1"}]}}}, "dtype": {"type": "DT_FLOAT"}}}, {"name": "split_86", "op": "Const", "attr": {"value": {"tensor": {"dtype": "DT_FLOAT", "tensorShape": {"dim": [{"size": "1"}, {"size": "1"}, {"size": "320"}, {"size": "128"}]}}}, "dtype": {"type": "DT_FLOAT"}}}, {"name": "batchnorm_43/sub", "op": "Const", "attr": {"value": {"tensor": {"dtype": "DT_FLOAT", "tensorShape": {"dim": [{"size": "1"}, {"size": "320"}, {"size": "1"}, {"size": "1"}]}}}, "dtype": {"type": "DT_FLOAT"}}}, {"name": "split_84", "op": "Const", "attr": {"dtype": {"type": "DT_FLOAT"}, "value": {"tensor": {"dtype": "DT_FLOAT", "tensorShape": {"dim": [{"size": "3"}, {"size": "3"}, {"size": "128"}, {"size": "32"}]}}}}}, {"name": "batchnorm_42/sub", "op": "Const", "attr": {"value": {"tensor": {"dtype": "DT_FLOAT", "tensorShape": {"dim": [{"size": "1"}, {"size": "128"}, {"size": "1"}, {"size": "1"}]}}}, "dtype": {"type": "DT_FLOAT"}}}, {"name": "split_82", "op": "Const", "attr": {"dtype": {"type": "DT_FLOAT"}, "value": {"tensor": {"dtype": "DT_FLOAT", "tensorShape": {"dim": [{"size": "1"}, {"size": "1"}, {"size": "288"}, {"size": "128"}]}}}}}, {"name": "batchnorm_41/sub", "op": "Const", "attr": {"value": {"tensor": {"dtype": "DT_FLOAT", "tensorShape": {"dim": [{"size": "1"}, {"size": "288"}, {"size": "1"}, {"size": "1"}]}}}, "dtype": {"type": "DT_FLOAT"}}}, {"name": "split_80", "op": "Const", "attr": {"value": {"tensor": {"dtype": "DT_FLOAT", "tensorShape": {"dim": [{"size": "3"}, {"size": "3"}, {"size": "128"}, {"size": "32"}]}}}, "dtype": {"type": "DT_FLOAT"}}}, {"name": "batchnorm_40/sub", "op": "Const", "attr": {"value": {"tensor": {"dtype": "DT_FLOAT", "tensorShape": {"dim": [{"size": "1"}, {"size": "128"}, {"size": "1"}, {"size": "1"}]}}}, "dtype": {"type": "DT_FLOAT"}}}, {"name": "split_78", "op": "Const", "attr": {"value": {"tensor": {"dtype": "DT_FLOAT", "tensorShape": {"dim": [{"size": "1"}, {"size": "1"}, {"size": "256"}, {"size": "128"}]}}}, "dtype": {"type": "DT_FLOAT"}}}, {"name": "batchnorm_39/sub", "op": "Const", "attr": {"value": {"tensor": {"dtype": "DT_FLOAT", "tensorShape": {"dim": [{"size": "1"}, {"size": "256"}, {"size": "1"}, {"size": "1"}]}}}, "dtype": {"type": "DT_FLOAT"}}}, {"name": "split_76", "op": "Const", "attr": {"value": {"tensor": {"dtype": "DT_FLOAT", "tensorShape": {"dim": [{"size": "1"}, {"size": "1"}, {"size": "512"}, {"size": "256"}]}}}, "dtype": {"type": "DT_FLOAT"}}}, {"name": "batchnorm_38/sub", "op": "Const", "attr": {"dtype": {"type": "DT_FLOAT"}, "value": {"tensor": {"dtype": "DT_FLOAT", "tensorShape": {"dim": [{"size": "1"}, {"size": "512"}, {"size": "1"}, {"size": "1"}]}}}}}, {"name": "split_74", "op": "Const", "attr": {"value": {"tensor": {"dtype": "DT_FLOAT", "tensorShape": {"dim": [{"size": "3"}, {"size": "3"}, {"size": "128"}, {"size": "32"}]}}}, "dtype": {"type": "DT_FLOAT"}}}, {"name": "batchnorm_37/sub", "op": "Const", "attr": {"dtype": {"type": "DT_FLOAT"}, "value": {"tensor": {"dtype": "DT_FLOAT", "tensorShape": {"dim": [{"size": "1"}, {"size": "128"}, {"size": "1"}, {"size": "1"}]}}}}}, {"name": "split_72", "op": "Const", "attr": {"dtype": {"type": "DT_FLOAT"}, "value": {"tensor": {"dtype": "DT_FLOAT", "tensorShape": {"dim": [{"size": "1"}, {"size": "1"}, {"size": "480"}, {"size": "128"}]}}}}}, {"name": "batchnorm_36/sub", "op": "Const", "attr": {"value": {"tensor": {"dtype": "DT_FLOAT", "tensorShape": {"dim": [{"size": "1"}, {"size": "480"}, {"size": "1"}, {"size": "1"}]}}}, "dtype": {"type": "DT_FLOAT"}}}, {"name": "split_70", "op": "Const", "attr": {"dtype": {"type": "DT_FLOAT"}, "value": {"tensor": {"dtype": "DT_FLOAT", "tensorShape": {"dim": [{"size": "3"}, {"size": "3"}, {"size": "128"}, {"size": "32"}]}}}}}, {"name": "batchnorm_35/sub", "op": "Const", "attr": {"dtype": {"type": "DT_FLOAT"}, "value": {"tensor": {"dtype": "DT_FLOAT", "tensorShape": {"dim": [{"size": "1"}, {"size": "128"}, {"size": "1"}, {"size": "1"}]}}}}}, {"name": "split_68", "op": "Const", "attr": {"value": {"tensor": {"dtype": "DT_FLOAT", "tensorShape": {"dim": [{"size": "1"}, {"size": "1"}, {"size": "448"}, {"size": "128"}]}}}, "dtype": {"type": "DT_FLOAT"}}}, {"name": "batchnorm_34/sub", "op": "Const", "attr": {"value": {"tensor": {"dtype": "DT_FLOAT", "tensorShape": {"dim": [{"size": "1"}, {"size": "448"}, {"size": "1"}, {"size": "1"}]}}}, "dtype": {"type": "DT_FLOAT"}}}, {"name": "split_66", "op": "Const", "attr": {"value": {"tensor": {"dtype": "DT_FLOAT", "tensorShape": {"dim": [{"size": "3"}, {"size": "3"}, {"size": "128"}, {"size": "32"}]}}}, "dtype": {"type": "DT_FLOAT"}}}, {"name": "batchnorm_33/sub", "op": "Const", "attr": {"value": {"tensor": {"dtype": "DT_FLOAT", "tensorShape": {"dim": [{"size": "1"}, {"size": "128"}, {"size": "1"}, {"size": "1"}]}}}, "dtype": {"type": "DT_FLOAT"}}}, {"name": "split_64", "op": "Const", "attr": {"dtype": {"type": "DT_FLOAT"}, "value": {"tensor": {"dtype": "DT_FLOAT", "tensorShape": {"dim": [{"size": "1"}, {"size": "1"}, {"size": "416"}, {"size": "128"}]}}}}}, {"name": "batchnorm_32/sub", "op": "Const", "attr": {"value": {"tensor": {"dtype": "DT_FLOAT", "tensorShape": {"dim": [{"size": "1"}, {"size": "416"}, {"size": "1"}, {"size": "1"}]}}}, "dtype": {"type": "DT_FLOAT"}}}, {"name": "split_62", "op": "Const", "attr": {"value": {"tensor": {"dtype": "DT_FLOAT", "tensorShape": {"dim": [{"size": "3"}, {"size": "3"}, {"size": "128"}, {"size": "32"}]}}}, "dtype": {"type": "DT_FLOAT"}}}, {"name": "batchnorm_31/sub", "op": "Const", "attr": {"dtype": {"type": "DT_FLOAT"}, "value": {"tensor": {"dtype": "DT_FLOAT", "tensorShape": {"dim": [{"size": "1"}, {"size": "128"}, {"size": "1"}, {"size": "1"}]}}}}}, {"name": "split_60", "op": "Const", "attr": {"value": {"tensor": {"dtype": "DT_FLOAT", "tensorShape": {"dim": [{"size": "1"}, {"size": "1"}, {"size": "384"}, {"size": "128"}]}}}, "dtype": {"type": "DT_FLOAT"}}}, {"name": "batchnorm_30/sub", "op": "Const", "attr": {"dtype": {"type": "DT_FLOAT"}, "value": {"tensor": {"dtype": "DT_FLOAT", "tensorShape": {"dim": [{"size": "1"}, {"size": "384"}, {"size": "1"}, {"size": "1"}]}}}}}, {"name": "split_58", "op": "Const", "attr": {"dtype": {"type": "DT_FLOAT"}, "value": {"tensor": {"dtype": "DT_FLOAT", "tensorShape": {"dim": [{"size": "3"}, {"size": "3"}, {"size": "128"}, {"size": "32"}]}}}}}, {"name": "batchnorm_29/sub", "op": "Const", "attr": {"dtype": {"type": "DT_FLOAT"}, "value": {"tensor": {"dtype": "DT_FLOAT", "tensorShape": {"dim": [{"size": "1"}, {"size": "128"}, {"size": "1"}, {"size": "1"}]}}}}}, {"name": "split_56", "op": "Const", "attr": {"value": {"tensor": {"dtype": "DT_FLOAT", "tensorShape": {"dim": [{"size": "1"}, {"size": "1"}, {"size": "352"}, {"size": "128"}]}}}, "dtype": {"type": "DT_FLOAT"}}}, {"name": "batchnorm_28/sub", "op": "Const", "attr": {"dtype": {"type": "DT_FLOAT"}, "value": {"tensor": {"dtype": "DT_FLOAT", "tensorShape": {"dim": [{"size": "1"}, {"size": "352"}, {"size": "1"}, {"size": "1"}]}}}}}, {"name": "split_54", "op": "Const", "attr": {"value": {"tensor": {"dtype": "DT_FLOAT", "tensorShape": {"dim": [{"size": "3"}, {"size": "3"}, {"size": "128"}, {"size": "32"}]}}}, "dtype": {"type": "DT_FLOAT"}}}, {"name": "batchnorm_27/sub", "op": "Const", "attr": {"dtype": {"type": "DT_FLOAT"}, "value": {"tensor": {"dtype": "DT_FLOAT", "tensorShape": {"dim": [{"size": "1"}, {"size": "128"}, {"size": "1"}, {"size": "1"}]}}}}}, {"name": "split_52", "op": "Const", "attr": {"value": {"tensor": {"dtype": "DT_FLOAT", "tensorShape": {"dim": [{"size": "1"}, {"size": "1"}, {"size": "320"}, {"size": "128"}]}}}, "dtype": {"type": "DT_FLOAT"}}}, {"name": "batchnorm_26/sub", "op": "Const", "attr": {"value": {"tensor": {"dtype": "DT_FLOAT", "tensorShape": {"dim": [{"size": "1"}, {"size": "320"}, {"size": "1"}, {"size": "1"}]}}}, "dtype": {"type": "DT_FLOAT"}}}, {"name": "split_50", "op": "Const", "attr": {"value": {"tensor": {"dtype": "DT_FLOAT", "tensorShape": {"dim": [{"size": "3"}, {"size": "3"}, {"size": "128"}, {"size": "32"}]}}}, "dtype": {"type": "DT_FLOAT"}}}, {"name": "batchnorm_25/sub", "op": "Const", "attr": {"value": {"tensor": {"dtype": "DT_FLOAT", "tensorShape": {"dim": [{"size": "1"}, {"size": "128"}, {"size": "1"}, {"size": "1"}]}}}, "dtype": {"type": "DT_FLOAT"}}}, {"name": "split_48", "op": "Const", "attr": {"value": {"tensor": {"dtype": "DT_FLOAT", "tensorShape": {"dim": [{"size": "1"}, {"size": "1"}, {"size": "288"}, {"size": "128"}]}}}, "dtype": {"type": "DT_FLOAT"}}}, {"name": "batchnorm_24/sub", "op": "Const", "attr": {"value": {"tensor": {"dtype": "DT_FLOAT", "tensorShape": {"dim": [{"size": "1"}, {"size": "288"}, {"size": "1"}, {"size": "1"}]}}}, "dtype": {"type": "DT_FLOAT"}}}, {"name": "split_46", "op": "Const", "attr": {"value": {"tensor": {"dtype": "DT_FLOAT", "tensorShape": {"dim": [{"size": "3"}, {"size": "3"}, {"size": "128"}, {"size": "32"}]}}}, "dtype": {"type": "DT_FLOAT"}}}, {"name": "batchnorm_23/sub", "op": "Const", "attr": {"value": {"tensor": {"dtype": "DT_FLOAT", "tensorShape": {"dim": [{"size": "1"}, {"size": "128"}, {"size": "1"}, {"size": "1"}]}}}, "dtype": {"type": "DT_FLOAT"}}}, {"name": "split_44", "op": "Const", "attr": {"value": {"tensor": {"dtype": "DT_FLOAT", "tensorShape": {"dim": [{"size": "1"}, {"size": "1"}, {"size": "256"}, {"size": "128"}]}}}, "dtype": {"type": "DT_FLOAT"}}}, {"name": "batchnorm_22/sub", "op": "Const", "attr": {"value": {"tensor": {"dtype": "DT_FLOAT", "tensorShape": {"dim": [{"size": "1"}, {"size": "256"}, {"size": "1"}, {"size": "1"}]}}}, "dtype": {"type": "DT_FLOAT"}}}, {"name": "split_42", "op": "Const", "attr": {"value": {"tensor": {"dtype": "DT_FLOAT", "tensorShape": {"dim": [{"size": "3"}, {"size": "3"}, {"size": "128"}, {"size": "32"}]}}}, "dtype": {"type": "DT_FLOAT"}}}, {"name": "batchnorm_21/sub", "op": "Const", "attr": {"value": {"tensor": {"dtype": "DT_FLOAT", "tensorShape": {"dim": [{"size": "1"}, {"size": "128"}, {"size": "1"}, {"size": "1"}]}}}, "dtype": {"type": "DT_FLOAT"}}}, {"name": "split_40", "op": "Const", "attr": {"value": {"tensor": {"dtype": "DT_FLOAT", "tensorShape": {"dim": [{"size": "1"}, {"size": "1"}, {"size": "224"}, {"size": "128"}]}}}, "dtype": {"type": "DT_FLOAT"}}}, {"name": "batchnorm_20/sub", "op": "Const", "attr": {"value": {"tensor": {"dtype": "DT_FLOAT", "tensorShape": {"dim": [{"size": "1"}, {"size": "224"}, {"size": "1"}, {"size": "1"}]}}}, "dtype": {"type": "DT_FLOAT"}}}, {"name": "split_38", "op": "Const", "attr": {"value": {"tensor": {"dtype": "DT_FLOAT", "tensorShape": {"dim": [{"size": "3"}, {"size": "3"}, {"size": "128"}, {"size": "32"}]}}}, "dtype": {"type": "DT_FLOAT"}}}, {"name": "batchnorm_19/sub", "op": "Const", "attr": {"dtype": {"type": "DT_FLOAT"}, "value": {"tensor": {"dtype": "DT_FLOAT", "tensorShape": {"dim": [{"size": "1"}, {"size": "128"}, {"size": "1"}, {"size": "1"}]}}}}}, {"name": "split_36", "op": "Const", "attr": {"value": {"tensor": {"dtype": "DT_FLOAT", "tensorShape": {"dim": [{"size": "1"}, {"size": "1"}, {"size": "192"}, {"size": "128"}]}}}, "dtype": {"type": "DT_FLOAT"}}}, {"name": "batchnorm_18/sub", "op": "Const", "attr": {"value": {"tensor": {"dtype": "DT_FLOAT", "tensorShape": {"dim": [{"size": "1"}, {"size": "192"}, {"size": "1"}, {"size": "1"}]}}}, "dtype": {"type": "DT_FLOAT"}}}, {"name": "split_34", "op": "Const", "attr": {"value": {"tensor": {"dtype": "DT_FLOAT", "tensorShape": {"dim": [{"size": "3"}, {"size": "3"}, {"size": "128"}, {"size": "32"}]}}}, "dtype": {"type": "DT_FLOAT"}}}, {"name": "batchnorm_17/sub", "op": "Const", "attr": {"value": {"tensor": {"dtype": "DT_FLOAT", "tensorShape": {"dim": [{"size": "1"}, {"size": "128"}, {"size": "1"}, {"size": "1"}]}}}, "dtype": {"type": "DT_FLOAT"}}}, {"name": "split_32", "op": "Const", "attr": {"value": {"tensor": {"dtype": "DT_FLOAT", "tensorShape": {"dim": [{"size": "1"}, {"size": "1"}, {"size": "160"}, {"size": "128"}]}}}, "dtype": {"type": "DT_FLOAT"}}}, {"name": "batchnorm_16/sub", "op": "Const", "attr": {"value": {"tensor": {"dtype": "DT_FLOAT", "tensorShape": {"dim": [{"size": "1"}, {"size": "160"}, {"size": "1"}, {"size": "1"}]}}}, "dtype": {"type": "DT_FLOAT"}}}, {"name": "split_30", "op": "Const", "attr": {"value": {"tensor": {"dtype": "DT_FLOAT", "tensorShape": {"dim": [{"size": "3"}, {"size": "3"}, {"size": "128"}, {"size": "32"}]}}}, "dtype": {"type": "DT_FLOAT"}}}, {"name": "batchnorm_15/sub", "op": "Const", "attr": {"dtype": {"type": "DT_FLOAT"}, "value": {"tensor": {"dtype": "DT_FLOAT", "tensorShape": {"dim": [{"size": "1"}, {"size": "128"}, {"size": "1"}, {"size": "1"}]}}}}}, {"name": "split_28", "op": "Const", "attr": {"dtype": {"type": "DT_FLOAT"}, "value": {"tensor": {"dtype": "DT_FLOAT", "tensorShape": {"dim": [{"size": "1"}, {"size": "1"}, {"size": "128"}, {"size": "128"}]}}}}}, {"name": "batchnorm_14/sub", "op": "Const", "attr": {"value": {"tensor": {"dtype": "DT_FLOAT", "tensorShape": {"dim": [{"size": "1"}, {"size": "128"}, {"size": "1"}, {"size": "1"}]}}}, "dtype": {"type": "DT_FLOAT"}}}, {"name": "split_26", "op": "Const", "attr": {"dtype": {"type": "DT_FLOAT"}, "value": {"tensor": {"dtype": "DT_FLOAT", "tensorShape": {"dim": [{"size": "1"}, {"size": "1"}, {"size": "256"}, {"size": "128"}]}}}}}, {"name": "batchnorm_13/sub", "op": "Const", "attr": {"value": {"tensor": {"dtype": "DT_FLOAT", "tensorShape": {"dim": [{"size": "1"}, {"size": "256"}, {"size": "1"}, {"size": "1"}]}}}, "dtype": {"type": "DT_FLOAT"}}}, {"name": "split_24", "op": "Const", "attr": {"value": {"tensor": {"dtype": "DT_FLOAT", "tensorShape": {"dim": [{"size": "3"}, {"size": "3"}, {"size": "128"}, {"size": "32"}]}}}, "dtype": {"type": "DT_FLOAT"}}}, {"name": "batchnorm_12/sub", "op": "Const", "attr": {"dtype": {"type": "DT_FLOAT"}, "value": {"tensor": {"dtype": "DT_FLOAT", "tensorShape": {"dim": [{"size": "1"}, {"size": "128"}, {"size": "1"}, {"size": "1"}]}}}}}, {"name": "split_22", "op": "Const", "attr": {"value": {"tensor": {"dtype": "DT_FLOAT", "tensorShape": {"dim": [{"size": "1"}, {"size": "1"}, {"size": "224"}, {"size": "128"}]}}}, "dtype": {"type": "DT_FLOAT"}}}, {"name": "batchnorm_11/sub", "op": "Const", "attr": {"dtype": {"type": "DT_FLOAT"}, "value": {"tensor": {"dtype": "DT_FLOAT", "tensorShape": {"dim": [{"size": "1"}, {"size": "224"}, {"size": "1"}, {"size": "1"}]}}}}}, {"name": "split_20", "op": "Const", "attr": {"value": {"tensor": {"dtype": "DT_FLOAT", "tensorShape": {"dim": [{"size": "3"}, {"size": "3"}, {"size": "128"}, {"size": "32"}]}}}, "dtype": {"type": "DT_FLOAT"}}}, {"name": "batchnorm_10/sub", "op": "Const", "attr": {"value": {"tensor": {"dtype": "DT_FLOAT", "tensorShape": {"dim": [{"size": "1"}, {"size": "128"}, {"size": "1"}, {"size": "1"}]}}}, "dtype": {"type": "DT_FLOAT"}}}, {"name": "split_18", "op": "Const", "attr": {"value": {"tensor": {"dtype": "DT_FLOAT", "tensorShape": {"dim": [{"size": "1"}, {"size": "1"}, {"size": "192"}, {"size": "128"}]}}}, "dtype": {"type": "DT_FLOAT"}}}, {"name": "batchnorm_9/sub", "op": "Const", "attr": {"value": {"tensor": {"dtype": "DT_FLOAT", "tensorShape": {"dim": [{"size": "1"}, {"size": "192"}, {"size": "1"}, {"size": "1"}]}}}, "dtype": {"type": "DT_FLOAT"}}}, {"name": "split_16", "op": "Const", "attr": {"value": {"tensor": {"dtype": "DT_FLOAT", "tensorShape": {"dim": [{"size": "3"}, {"size": "3"}, {"size": "128"}, {"size": "32"}]}}}, "dtype": {"type": "DT_FLOAT"}}}, {"name": "batchnorm_8/sub", "op": "Const", "attr": {"value": {"tensor": {"dtype": "DT_FLOAT", "tensorShape": {"dim": [{"size": "1"}, {"size": "128"}, {"size": "1"}, {"size": "1"}]}}}, "dtype": {"type": "DT_FLOAT"}}}, {"name": "split_14", "op": "Const", "attr": {"value": {"tensor": {"dtype": "DT_FLOAT", "tensorShape": {"dim": [{"size": "1"}, {"size": "1"}, {"size": "160"}, {"size": "128"}]}}}, "dtype": {"type": "DT_FLOAT"}}}, {"name": "batchnorm_7/sub", "op": "Const", "attr": {"value": {"tensor": {"dtype": "DT_FLOAT", "tensorShape": {"dim": [{"size": "1"}, {"size": "160"}, {"size": "1"}, {"size": "1"}]}}}, "dtype": {"type": "DT_FLOAT"}}}, {"name": "split_12", "op": "Const", "attr": {"dtype": {"type": "DT_FLOAT"}, "value": {"tensor": {"dtype": "DT_FLOAT", "tensorShape": {"dim": [{"size": "3"}, {"size": "3"}, {"size": "128"}, {"size": "32"}]}}}}}, {"name": "batchnorm_6/sub", "op": "Const", "attr": {"value": {"tensor": {"dtype": "DT_FLOAT", "tensorShape": {"dim": [{"size": "1"}, {"size": "128"}, {"size": "1"}, {"size": "1"}]}}}, "dtype": {"type": "DT_FLOAT"}}}, {"name": "split_10", "op": "Const", "attr": {"value": {"tensor": {"dtype": "DT_FLOAT", "tensorShape": {"dim": [{"size": "1"}, {"size": "1"}, {"size": "128"}, {"size": "128"}]}}}, "dtype": {"type": "DT_FLOAT"}}}, {"name": "batchnorm_5/sub", "op": "Const", "attr": {"value": {"tensor": {"dtype": "DT_FLOAT", "tensorShape": {"dim": [{"size": "1"}, {"size": "128"}, {"size": "1"}, {"size": "1"}]}}}, "dtype": {"type": "DT_FLOAT"}}}, {"name": "split_8", "op": "Const", "attr": {"value": {"tensor": {"dtype": "DT_FLOAT", "tensorShape": {"dim": [{"size": "3"}, {"size": "3"}, {"size": "128"}, {"size": "32"}]}}}, "dtype": {"type": "DT_FLOAT"}}}, {"name": "batchnorm_4/sub", "op": "Const", "attr": {"dtype": {"type": "DT_FLOAT"}, "value": {"tensor": {"dtype": "DT_FLOAT", "tensorShape": {"dim": [{"size": "1"}, {"size": "128"}, {"size": "1"}, {"size": "1"}]}}}}}, {"name": "split_6", "op": "Const", "attr": {"value": {"tensor": {"dtype": "DT_FLOAT", "tensorShape": {"dim": [{"size": "1"}, {"size": "1"}, {"size": "96"}, {"size": "128"}]}}}, "dtype": {"type": "DT_FLOAT"}}}, {"name": "batchnorm_3/sub", "op": "Const", "attr": {"dtype": {"type": "DT_FLOAT"}, "value": {"tensor": {"dtype": "DT_FLOAT", "tensorShape": {"dim": [{"size": "1"}, {"size": "96"}, {"size": "1"}, {"size": "1"}]}}}}}, {"name": "split_4", "op": "Const", "attr": {"value": {"tensor": {"dtype": "DT_FLOAT", "tensorShape": {"dim": [{"size": "3"}, {"size": "3"}, {"size": "128"}, {"size": "32"}]}}}, "dtype": {"type": "DT_FLOAT"}}}, {"name": "batchnorm_2/sub", "op": "Const", "attr": {"value": {"tensor": {"dtype": "DT_FLOAT", "tensorShape": {"dim": [{"size": "1"}, {"size": "128"}, {"size": "1"}, {"size": "1"}]}}}, "dtype": {"type": "DT_FLOAT"}}}, {"name": "split_2", "op": "Const", "attr": {"value": {"tensor": {"dtype": "DT_FLOAT", "tensorShape": {"dim": [{"size": "1"}, {"size": "1"}, {"size": "64"}, {"size": "128"}]}}}, "dtype": {"type": "DT_FLOAT"}}}, {"name": "batchnorm_1/sub", "op": "Const", "attr": {"value": {"tensor": {"dtype": "DT_FLOAT", "tensorShape": {"dim": [{"size": "1"}, {"size": "64"}, {"size": "1"}, {"size": "1"}]}}}, "dtype": {"type": "DT_FLOAT"}}}, {"name": "batchnorm/sub", "op": "Const", "attr": {"value": {"tensor": {"dtype": "DT_FLOAT", "tensorShape": {"dim": [{"size": "1"}, {"size": "64"}, {"size": "1"}, {"size": "1"}]}}}, "dtype": {"type": "DT_FLOAT"}}}, {"name": "split", "op": "Const", "attr": {"dtype": {"type": "DT_FLOAT"}, "value": {"tensor": {"dtype": "DT_FLOAT", "tensorShape": {"dim": [{"size": "7"}, {"size": "7"}, {"size": "3"}, {"size": "64"}]}}}}}, {"name": "Const_727", "op": "Const", "attr": {"value": {"tensor": {"dtype": "DT_INT32", "tensorShape": {"dim": [{"size": "4"}, {"size": "2"}]}}}, "dtype": {"type": "DT_INT32"}}}, {"name": "batchnorm/mul", "op": "Const", "attr": {"dtype": {"type": "DT_FLOAT"}, "value": {"tensor": {"dtype": "DT_FLOAT", "tensorShape": {"dim": [{"size": "1"}, {"size": "64"}, {"size": "1"}, {"size": "1"}]}}}}}, {"name": "batchnorm_1/mul", "op": "Const", "attr": {"value": {"tensor": {"dtype": "DT_FLOAT", "tensorShape": {"dim": [{"size": "1"}, {"size": "64"}, {"size": "1"}, {"size": "1"}]}}}, "dtype": {"type": "DT_FLOAT"}}}, {"name": "batchnorm_2/mul", "op": "Const", "attr": {"value": {"tensor": {"dtype": "DT_FLOAT", "tensorShape": {"dim": [{"size": "1"}, {"size": "128"}, {"size": "1"}, {"size": "1"}]}}}, "dtype": {"type": "DT_FLOAT"}}}, {"name": "batchnorm_3/mul", "op": "Const", "attr": {"value": {"tensor": {"dtype": "DT_FLOAT", "tensorShape": {"dim": [{"size": "1"}, {"size": "96"}, {"size": "1"}, {"size": "1"}]}}}, "dtype": {"type": "DT_FLOAT"}}}, {"name": "batchnorm_4/mul", "op": "Const", "attr": {"value": {"tensor": {"dtype": "DT_FLOAT", "tensorShape": {"dim": [{"size": "1"}, {"size": "128"}, {"size": "1"}, {"size": "1"}]}}}, "dtype": {"type": "DT_FLOAT"}}}, {"name": "batchnorm_5/mul", "op": "Const", "attr": {"value": {"tensor": {"dtype": "DT_FLOAT", "tensorShape": {"dim": [{"size": "1"}, {"size": "128"}, {"size": "1"}, {"size": "1"}]}}}, "dtype": {"type": "DT_FLOAT"}}}, {"name": "batchnorm_6/mul", "op": "Const", "attr": {"dtype": {"type": "DT_FLOAT"}, "value": {"tensor": {"dtype": "DT_FLOAT", "tensorShape": {"dim": [{"size": "1"}, {"size": "128"}, {"size": "1"}, {"size": "1"}]}}}}}, {"name": "batchnorm_7/mul", "op": "Const", "attr": {"value": {"tensor": {"dtype": "DT_FLOAT", "tensorShape": {"dim": [{"size": "1"}, {"size": "160"}, {"size": "1"}, {"size": "1"}]}}}, "dtype": {"type": "DT_FLOAT"}}}, {"name": "batchnorm_8/mul", "op": "Const", "attr": {"value": {"tensor": {"dtype": "DT_FLOAT", "tensorShape": {"dim": [{"size": "1"}, {"size": "128"}, {"size": "1"}, {"size": "1"}]}}}, "dtype": {"type": "DT_FLOAT"}}}, {"name": "batchnorm_9/mul", "op": "Const", "attr": {"value": {"tensor": {"dtype": "DT_FLOAT", "tensorShape": {"dim": [{"size": "1"}, {"size": "192"}, {"size": "1"}, {"size": "1"}]}}}, "dtype": {"type": "DT_FLOAT"}}}, {"name": "batchnorm_10/mul", "op": "Const", "attr": {"value": {"tensor": {"dtype": "DT_FLOAT", "tensorShape": {"dim": [{"size": "1"}, {"size": "128"}, {"size": "1"}, {"size": "1"}]}}}, "dtype": {"type": "DT_FLOAT"}}}, {"name": "batchnorm_11/mul", "op": "Const", "attr": {"value": {"tensor": {"dtype": "DT_FLOAT", "tensorShape": {"dim": [{"size": "1"}, {"size": "224"}, {"size": "1"}, {"size": "1"}]}}}, "dtype": {"type": "DT_FLOAT"}}}, {"name": "batchnorm_12/mul", "op": "Const", "attr": {"value": {"tensor": {"dtype": "DT_FLOAT", "tensorShape": {"dim": [{"size": "1"}, {"size": "128"}, {"size": "1"}, {"size": "1"}]}}}, "dtype": {"type": "DT_FLOAT"}}}, {"name": "batchnorm_13/mul", "op": "Const", "attr": {"value": {"tensor": {"dtype": "DT_FLOAT", "tensorShape": {"dim": [{"size": "1"}, {"size": "256"}, {"size": "1"}, {"size": "1"}]}}}, "dtype": {"type": "DT_FLOAT"}}}, {"name": "batchnorm_14/mul", "op": "Const", "attr": {"value": {"tensor": {"dtype": "DT_FLOAT", "tensorShape": {"dim": [{"size": "1"}, {"size": "128"}, {"size": "1"}, {"size": "1"}]}}}, "dtype": {"type": "DT_FLOAT"}}}, {"name": "batchnorm_15/mul", "op": "Const", "attr": {"value": {"tensor": {"dtype": "DT_FLOAT", "tensorShape": {"dim": [{"size": "1"}, {"size": "128"}, {"size": "1"}, {"size": "1"}]}}}, "dtype": {"type": "DT_FLOAT"}}}, {"name": "batchnorm_16/mul", "op": "Const", "attr": {"dtype": {"type": "DT_FLOAT"}, "value": {"tensor": {"dtype": "DT_FLOAT", "tensorShape": {"dim": [{"size": "1"}, {"size": "160"}, {"size": "1"}, {"size": "1"}]}}}}}, {"name": "batchnorm_17/mul", "op": "Const", "attr": {"value": {"tensor": {"dtype": "DT_FLOAT", "tensorShape": {"dim": [{"size": "1"}, {"size": "128"}, {"size": "1"}, {"size": "1"}]}}}, "dtype": {"type": "DT_FLOAT"}}}, {"name": "batchnorm_18/mul", "op": "Const", "attr": {"dtype": {"type": "DT_FLOAT"}, "value": {"tensor": {"dtype": "DT_FLOAT", "tensorShape": {"dim": [{"size": "1"}, {"size": "192"}, {"size": "1"}, {"size": "1"}]}}}}}, {"name": "batchnorm_19/mul", "op": "Const", "attr": {"dtype": {"type": "DT_FLOAT"}, "value": {"tensor": {"dtype": "DT_FLOAT", "tensorShape": {"dim": [{"size": "1"}, {"size": "128"}, {"size": "1"}, {"size": "1"}]}}}}}, {"name": "batchnorm_20/mul", "op": "Const", "attr": {"value": {"tensor": {"dtype": "DT_FLOAT", "tensorShape": {"dim": [{"size": "1"}, {"size": "224"}, {"size": "1"}, {"size": "1"}]}}}, "dtype": {"type": "DT_FLOAT"}}}, {"name": "batchnorm_21/mul", "op": "Const", "attr": {"dtype": {"type": "DT_FLOAT"}, "value": {"tensor": {"dtype": "DT_FLOAT", "tensorShape": {"dim": [{"size": "1"}, {"size": "128"}, {"size": "1"}, {"size": "1"}]}}}}}, {"name": "batchnorm_22/mul", "op": "Const", "attr": {"value": {"tensor": {"dtype": "DT_FLOAT", "tensorShape": {"dim": [{"size": "1"}, {"size": "256"}, {"size": "1"}, {"size": "1"}]}}}, "dtype": {"type": "DT_FLOAT"}}}, {"name": "batchnorm_23/mul", "op": "Const", "attr": {"value": {"tensor": {"dtype": "DT_FLOAT", "tensorShape": {"dim": [{"size": "1"}, {"size": "128"}, {"size": "1"}, {"size": "1"}]}}}, "dtype": {"type": "DT_FLOAT"}}}, {"name": "batchnorm_24/mul", "op": "Const", "attr": {"value": {"tensor": {"dtype": "DT_FLOAT", "tensorShape": {"dim": [{"size": "1"}, {"size": "288"}, {"size": "1"}, {"size": "1"}]}}}, "dtype": {"type": "DT_FLOAT"}}}, {"name": "batchnorm_25/mul", "op": "Const", "attr": {"value": {"tensor": {"dtype": "DT_FLOAT", "tensorShape": {"dim": [{"size": "1"}, {"size": "128"}, {"size": "1"}, {"size": "1"}]}}}, "dtype": {"type": "DT_FLOAT"}}}, {"name": "batchnorm_26/mul", "op": "Const", "attr": {"value": {"tensor": {"dtype": "DT_FLOAT", "tensorShape": {"dim": [{"size": "1"}, {"size": "320"}, {"size": "1"}, {"size": "1"}]}}}, "dtype": {"type": "DT_FLOAT"}}}, {"name": "batchnorm_27/mul", "op": "Const", "attr": {"value": {"tensor": {"dtype": "DT_FLOAT", "tensorShape": {"dim": [{"size": "1"}, {"size": "128"}, {"size": "1"}, {"size": "1"}]}}}, "dtype": {"type": "DT_FLOAT"}}}, {"name": "batchnorm_28/mul", "op": "Const", "attr": {"value": {"tensor": {"dtype": "DT_FLOAT", "tensorShape": {"dim": [{"size": "1"}, {"size": "352"}, {"size": "1"}, {"size": "1"}]}}}, "dtype": {"type": "DT_FLOAT"}}}, {"name": "batchnorm_29/mul", "op": "Const", "attr": {"value": {"tensor": {"dtype": "DT_FLOAT", "tensorShape": {"dim": [{"size": "1"}, {"size": "128"}, {"size": "1"}, {"size": "1"}]}}}, "dtype": {"type": "DT_FLOAT"}}}, {"name": "batchnorm_30/mul", "op": "Const", "attr": {"value": {"tensor": {"dtype": "DT_FLOAT", "tensorShape": {"dim": [{"size": "1"}, {"size": "384"}, {"size": "1"}, {"size": "1"}]}}}, "dtype": {"type": "DT_FLOAT"}}}, {"name": "batchnorm_31/mul", "op": "Const", "attr": {"value": {"tensor": {"dtype": "DT_FLOAT", "tensorShape": {"dim": [{"size": "1"}, {"size": "128"}, {"size": "1"}, {"size": "1"}]}}}, "dtype": {"type": "DT_FLOAT"}}}, {"name": "batchnorm_32/mul", "op": "Const", "attr": {"value": {"tensor": {"dtype": "DT_FLOAT", "tensorShape": {"dim": [{"size": "1"}, {"size": "416"}, {"size": "1"}, {"size": "1"}]}}}, "dtype": {"type": "DT_FLOAT"}}}, {"name": "batchnorm_33/mul", "op": "Const", "attr": {"value": {"tensor": {"dtype": "DT_FLOAT", "tensorShape": {"dim": [{"size": "1"}, {"size": "128"}, {"size": "1"}, {"size": "1"}]}}}, "dtype": {"type": "DT_FLOAT"}}}, {"name": "batchnorm_34/mul", "op": "Const", "attr": {"value": {"tensor": {"dtype": "DT_FLOAT", "tensorShape": {"dim": [{"size": "1"}, {"size": "448"}, {"size": "1"}, {"size": "1"}]}}}, "dtype": {"type": "DT_FLOAT"}}}, {"name": "batchnorm_35/mul", "op": "Const", "attr": {"value": {"tensor": {"dtype": "DT_FLOAT", "tensorShape": {"dim": [{"size": "1"}, {"size": "128"}, {"size": "1"}, {"size": "1"}]}}}, "dtype": {"type": "DT_FLOAT"}}}, {"name": "batchnorm_36/mul", "op": "Const", "attr": {"value": {"tensor": {"dtype": "DT_FLOAT", "tensorShape": {"dim": [{"size": "1"}, {"size": "480"}, {"size": "1"}, {"size": "1"}]}}}, "dtype": {"type": "DT_FLOAT"}}}, {"name": "batchnorm_37/mul", "op": "Const", "attr": {"value": {"tensor": {"dtype": "DT_FLOAT", "tensorShape": {"dim": [{"size": "1"}, {"size": "128"}, {"size": "1"}, {"size": "1"}]}}}, "dtype": {"type": "DT_FLOAT"}}}, {"name": "batchnorm_38/mul", "op": "Const", "attr": {"value": {"tensor": {"dtype": "DT_FLOAT", "tensorShape": {"dim": [{"size": "1"}, {"size": "512"}, {"size": "1"}, {"size": "1"}]}}}, "dtype": {"type": "DT_FLOAT"}}}, {"name": "batchnorm_39/mul", "op": "Const", "attr": {"value": {"tensor": {"dtype": "DT_FLOAT", "tensorShape": {"dim": [{"size": "1"}, {"size": "256"}, {"size": "1"}, {"size": "1"}]}}}, "dtype": {"type": "DT_FLOAT"}}}, {"name": "batchnorm_40/mul", "op": "Const", "attr": {"value": {"tensor": {"dtype": "DT_FLOAT", "tensorShape": {"dim": [{"size": "1"}, {"size": "128"}, {"size": "1"}, {"size": "1"}]}}}, "dtype": {"type": "DT_FLOAT"}}}, {"name": "batchnorm_41/mul", "op": "Const", "attr": {"value": {"tensor": {"dtype": "DT_FLOAT", "tensorShape": {"dim": [{"size": "1"}, {"size": "288"}, {"size": "1"}, {"size": "1"}]}}}, "dtype": {"type": "DT_FLOAT"}}}, {"name": "batchnorm_42/mul", "op": "Const", "attr": {"value": {"tensor": {"dtype": "DT_FLOAT", "tensorShape": {"dim": [{"size": "1"}, {"size": "128"}, {"size": "1"}, {"size": "1"}]}}}, "dtype": {"type": "DT_FLOAT"}}}, {"name": "batchnorm_43/mul", "op": "Const", "attr": {"value": {"tensor": {"dtype": "DT_FLOAT", "tensorShape": {"dim": [{"size": "1"}, {"size": "320"}, {"size": "1"}, {"size": "1"}]}}}, "dtype": {"type": "DT_FLOAT"}}}, {"name": "batchnorm_44/mul", "op": "Const", "attr": {"dtype": {"type": "DT_FLOAT"}, "value": {"tensor": {"dtype": "DT_FLOAT", "tensorShape": {"dim": [{"size": "1"}, {"size": "128"}, {"size": "1"}, {"size": "1"}]}}}}}, {"name": "batchnorm_45/mul", "op": "Const", "attr": {"value": {"tensor": {"dtype": "DT_FLOAT", "tensorShape": {"dim": [{"size": "1"}, {"size": "352"}, {"size": "1"}, {"size": "1"}]}}}, "dtype": {"type": "DT_FLOAT"}}}, {"name": "batchnorm_46/mul", "op": "Const", "attr": {"value": {"tensor": {"dtype": "DT_FLOAT", "tensorShape": {"dim": [{"size": "1"}, {"size": "128"}, {"size": "1"}, {"size": "1"}]}}}, "dtype": {"type": "DT_FLOAT"}}}, {"name": "batchnorm_47/mul", "op": "Const", "attr": {"value": {"tensor": {"dtype": "DT_FLOAT", "tensorShape": {"dim": [{"size": "1"}, {"size": "384"}, {"size": "1"}, {"size": "1"}]}}}, "dtype": {"type": "DT_FLOAT"}}}, {"name": "batchnorm_48/mul", "op": "Const", "attr": {"dtype": {"type": "DT_FLOAT"}, "value": {"tensor": {"dtype": "DT_FLOAT", "tensorShape": {"dim": [{"size": "1"}, {"size": "128"}, {"size": "1"}, {"size": "1"}]}}}}}, {"name": "batchnorm_49/mul", "op": "Const", "attr": {"dtype": {"type": "DT_FLOAT"}, "value": {"tensor": {"dtype": "DT_FLOAT", "tensorShape": {"dim": [{"size": "1"}, {"size": "416"}, {"size": "1"}, {"size": "1"}]}}}}}, {"name": "batchnorm_50/mul", "op": "Const", "attr": {"value": {"tensor": {"dtype": "DT_FLOAT", "tensorShape": {"dim": [{"size": "1"}, {"size": "128"}, {"size": "1"}, {"size": "1"}]}}}, "dtype": {"type": "DT_FLOAT"}}}, {"name": "batchnorm_51/mul", "op": "Const", "attr": {"value": {"tensor": {"dtype": "DT_FLOAT", "tensorShape": {"dim": [{"size": "1"}, {"size": "448"}, {"size": "1"}, {"size": "1"}]}}}, "dtype": {"type": "DT_FLOAT"}}}, {"name": "batchnorm_52/mul", "op": "Const", "attr": {"value": {"tensor": {"dtype": "DT_FLOAT", "tensorShape": {"dim": [{"size": "1"}, {"size": "128"}, {"size": "1"}, {"size": "1"}]}}}, "dtype": {"type": "DT_FLOAT"}}}, {"name": "batchnorm_53/mul", "op": "Const", "attr": {"value": {"tensor": {"dtype": "DT_FLOAT", "tensorShape": {"dim": [{"size": "1"}, {"size": "480"}, {"size": "1"}, {"size": "1"}]}}}, "dtype": {"type": "DT_FLOAT"}}}, {"name": "batchnorm_54/mul", "op": "Const", "attr": {"value": {"tensor": {"dtype": "DT_FLOAT", "tensorShape": {"dim": [{"size": "1"}, {"size": "128"}, {"size": "1"}, {"size": "1"}]}}}, "dtype": {"type": "DT_FLOAT"}}}, {"name": "batchnorm_55/mul", "op": "Const", "attr": {"value": {"tensor": {"dtype": "DT_FLOAT", "tensorShape": {"dim": [{"size": "1"}, {"size": "512"}, {"size": "1"}, {"size": "1"}]}}}, "dtype": {"type": "DT_FLOAT"}}}, {"name": "batchnorm_56/mul", "op": "Const", "attr": {"value": {"tensor": {"dtype": "DT_FLOAT", "tensorShape": {"dim": [{"size": "1"}, {"size": "128"}, {"size": "1"}, {"size": "1"}]}}}, "dtype": {"type": "DT_FLOAT"}}}, {"name": "batchnorm_57/mul", "op": "Const", "attr": {"dtype": {"type": "DT_FLOAT"}, "value": {"tensor": {"dtype": "DT_FLOAT", "tensorShape": {"dim": [{"size": "1"}, {"size": "544"}, {"size": "1"}, {"size": "1"}]}}}}}, {"name": "batchnorm_58/mul", "op": "Const", "attr": {"value": {"tensor": {"dtype": "DT_FLOAT", "tensorShape": {"dim": [{"size": "1"}, {"size": "128"}, {"size": "1"}, {"size": "1"}]}}}, "dtype": {"type": "DT_FLOAT"}}}, {"name": "batchnorm_59/mul", "op": "Const", "attr": {"dtype": {"type": "DT_FLOAT"}, "value": {"tensor": {"dtype": "DT_FLOAT", "tensorShape": {"dim": [{"size": "1"}, {"size": "576"}, {"size": "1"}, {"size": "1"}]}}}}}, {"name": "batchnorm_60/mul", "op": "Const", "attr": {"value": {"tensor": {"dtype": "DT_FLOAT", "tensorShape": {"dim": [{"size": "1"}, {"size": "128"}, {"size": "1"}, {"size": "1"}]}}}, "dtype": {"type": "DT_FLOAT"}}}, {"name": "batchnorm_61/mul", "op": "Const", "attr": {"value": {"tensor": {"dtype": "DT_FLOAT", "tensorShape": {"dim": [{"size": "1"}, {"size": "608"}, {"size": "1"}, {"size": "1"}]}}}, "dtype": {"type": "DT_FLOAT"}}}, {"name": "batchnorm_62/mul", "op": "Const", "attr": {"value": {"tensor": {"dtype": "DT_FLOAT", "tensorShape": {"dim": [{"size": "1"}, {"size": "128"}, {"size": "1"}, {"size": "1"}]}}}, "dtype": {"type": "DT_FLOAT"}}}, {"name": "batchnorm_63/mul", "op": "Const", "attr": {"value": {"tensor": {"dtype": "DT_FLOAT", "tensorShape": {"dim": [{"size": "1"}, {"size": "640"}, {"size": "1"}, {"size": "1"}]}}}, "dtype": {"type": "DT_FLOAT"}}}, {"name": "batchnorm_64/mul", "op": "Const", "attr": {"dtype": {"type": "DT_FLOAT"}, "value": {"tensor": {"dtype": "DT_FLOAT", "tensorShape": {"dim": [{"size": "1"}, {"size": "128"}, {"size": "1"}, {"size": "1"}]}}}}}, {"name": "batchnorm_65/mul", "op": "Const", "attr": {"value": {"tensor": {"dtype": "DT_FLOAT", "tensorShape": {"dim": [{"size": "1"}, {"size": "672"}, {"size": "1"}, {"size": "1"}]}}}, "dtype": {"type": "DT_FLOAT"}}}, {"name": "batchnorm_66/mul", "op": "Const", "attr": {"value": {"tensor": {"dtype": "DT_FLOAT", "tensorShape": {"dim": [{"size": "1"}, {"size": "128"}, {"size": "1"}, {"size": "1"}]}}}, "dtype": {"type": "DT_FLOAT"}}}, {"name": "batchnorm_67/mul", "op": "Const", "attr": {"value": {"tensor": {"dtype": "DT_FLOAT", "tensorShape": {"dim": [{"size": "1"}, {"size": "704"}, {"size": "1"}, {"size": "1"}]}}}, "dtype": {"type": "DT_FLOAT"}}}, {"name": "batchnorm_68/mul", "op": "Const", "attr": {"value": {"tensor": {"dtype": "DT_FLOAT", "tensorShape": {"dim": [{"size": "1"}, {"size": "128"}, {"size": "1"}, {"size": "1"}]}}}, "dtype": {"type": "DT_FLOAT"}}}, {"name": "batchnorm_69/mul", "op": "Const", "attr": {"dtype": {"type": "DT_FLOAT"}, "value": {"tensor": {"dtype": "DT_FLOAT", "tensorShape": {"dim": [{"size": "1"}, {"size": "736"}, {"size": "1"}, {"size": "1"}]}}}}}, {"name": "batchnorm_70/mul", "op": "Const", "attr": {"value": {"tensor": {"dtype": "DT_FLOAT", "tensorShape": {"dim": [{"size": "1"}, {"size": "128"}, {"size": "1"}, {"size": "1"}]}}}, "dtype": {"type": "DT_FLOAT"}}}, {"name": "batchnorm_71/mul", "op": "Const", "attr": {"value": {"tensor": {"dtype": "DT_FLOAT", "tensorShape": {"dim": [{"size": "1"}, {"size": "768"}, {"size": "1"}, {"size": "1"}]}}}, "dtype": {"type": "DT_FLOAT"}}}, {"name": "batchnorm_72/mul", "op": "Const", "attr": {"value": {"tensor": {"dtype": "DT_FLOAT", "tensorShape": {"dim": [{"size": "1"}, {"size": "128"}, {"size": "1"}, {"size": "1"}]}}}, "dtype": {"type": "DT_FLOAT"}}}, {"name": "batchnorm_73/mul", "op": "Const", "attr": {"value": {"tensor": {"dtype": "DT_FLOAT", "tensorShape": {"dim": [{"size": "1"}, {"size": "800"}, {"size": "1"}, {"size": "1"}]}}}, "dtype": {"type": "DT_FLOAT"}}}, {"name": "batchnorm_74/mul", "op": "Const", "attr": {"dtype": {"type": "DT_FLOAT"}, "value": {"tensor": {"dtype": "DT_FLOAT", "tensorShape": {"dim": [{"size": "1"}, {"size": "128"}, {"size": "1"}, {"size": "1"}]}}}}}, {"name": "batchnorm_75/mul", "op": "Const", "attr": {"dtype": {"type": "DT_FLOAT"}, "value": {"tensor": {"dtype": "DT_FLOAT", "tensorShape": {"dim": [{"size": "1"}, {"size": "832"}, {"size": "1"}, {"size": "1"}]}}}}}, {"name": "batchnorm_76/mul", "op": "Const", "attr": {"dtype": {"type": "DT_FLOAT"}, "value": {"tensor": {"dtype": "DT_FLOAT", "tensorShape": {"dim": [{"size": "1"}, {"size": "128"}, {"size": "1"}, {"size": "1"}]}}}}}, {"name": "batchnorm_77/mul", "op": "Const", "attr": {"value": {"tensor": {"dtype": "DT_FLOAT", "tensorShape": {"dim": [{"size": "1"}, {"size": "864"}, {"size": "1"}, {"size": "1"}]}}}, "dtype": {"type": "DT_FLOAT"}}}, {"name": "batchnorm_78/mul", "op": "Const", "attr": {"value": {"tensor": {"dtype": "DT_FLOAT", "tensorShape": {"dim": [{"size": "1"}, {"size": "128"}, {"size": "1"}, {"size": "1"}]}}}, "dtype": {"type": "DT_FLOAT"}}}, {"name": "batchnorm_79/mul", "op": "Const", "attr": {"value": {"tensor": {"dtype": "DT_FLOAT", "tensorShape": {"dim": [{"size": "1"}, {"size": "896"}, {"size": "1"}, {"size": "1"}]}}}, "dtype": {"type": "DT_FLOAT"}}}, {"name": "batchnorm_80/mul", "op": "Const", "attr": {"value": {"tensor": {"dtype": "DT_FLOAT", "tensorShape": {"dim": [{"size": "1"}, {"size": "128"}, {"size": "1"}, {"size": "1"}]}}}, "dtype": {"type": "DT_FLOAT"}}}, {"name": "batchnorm_81/mul", "op": "Const", "attr": {"dtype": {"type": "DT_FLOAT"}, "value": {"tensor": {"dtype": "DT_FLOAT", "tensorShape": {"dim": [{"size": "1"}, {"size": "928"}, {"size": "1"}, {"size": "1"}]}}}}}, {"name": "batchnorm_82/mul", "op": "Const", "attr": {"value": {"tensor": {"dtype": "DT_FLOAT", "tensorShape": {"dim": [{"size": "1"}, {"size": "128"}, {"size": "1"}, {"size": "1"}]}}}, "dtype": {"type": "DT_FLOAT"}}}, {"name": "batchnorm_83/mul", "op": "Const", "attr": {"value": {"tensor": {"dtype": "DT_FLOAT", "tensorShape": {"dim": [{"size": "1"}, {"size": "960"}, {"size": "1"}, {"size": "1"}]}}}, "dtype": {"type": "DT_FLOAT"}}}, {"name": "batchnorm_84/mul", "op": "Const", "attr": {"value": {"tensor": {"dtype": "DT_FLOAT", "tensorShape": {"dim": [{"size": "1"}, {"size": "128"}, {"size": "1"}, {"size": "1"}]}}}, "dtype": {"type": "DT_FLOAT"}}}, {"name": "batchnorm_85/mul", "op": "Const", "attr": {"value": {"tensor": {"dtype": "DT_FLOAT", "tensorShape": {"dim": [{"size": "1"}, {"size": "992"}, {"size": "1"}, {"size": "1"}]}}}, "dtype": {"type": "DT_FLOAT"}}}, {"name": "batchnorm_86/mul", "op": "Const", "attr": {"dtype": {"type": "DT_FLOAT"}, "value": {"tensor": {"dtype": "DT_FLOAT", "tensorShape": {"dim": [{"size": "1"}, {"size": "128"}, {"size": "1"}, {"size": "1"}]}}}}}, {"name": "batchnorm_87/mul", "op": "Const", "attr": {"value": {"tensor": {"dtype": "DT_FLOAT", "tensorShape": {"dim": [{"size": "1"}, {"size": "1024"}, {"size": "1"}, {"size": "1"}]}}}, "dtype": {"type": "DT_FLOAT"}}}, {"name": "batchnorm_88/mul", "op": "Const", "attr": {"value": {"tensor": {"dtype": "DT_FLOAT", "tensorShape": {"dim": [{"size": "1"}, {"size": "512"}, {"size": "1"}, {"size": "1"}]}}}, "dtype": {"type": "DT_FLOAT"}}}, {"name": "batchnorm_89/mul", "op": "Const", "attr": {"value": {"tensor": {"dtype": "DT_FLOAT", "tensorShape": {"dim": [{"size": "1"}, {"size": "128"}, {"size": "1"}, {"size": "1"}]}}}, "dtype": {"type": "DT_FLOAT"}}}, {"name": "batchnorm_90/mul", "op": "Const", "attr": {"value": {"tensor": {"dtype": "DT_FLOAT", "tensorShape": {"dim": [{"size": "1"}, {"size": "544"}, {"size": "1"}, {"size": "1"}]}}}, "dtype": {"type": "DT_FLOAT"}}}, {"name": "batchnorm_91/mul", "op": "Const", "attr": {"value": {"tensor": {"dtype": "DT_FLOAT", "tensorShape": {"dim": [{"size": "1"}, {"size": "128"}, {"size": "1"}, {"size": "1"}]}}}, "dtype": {"type": "DT_FLOAT"}}}, {"name": "batchnorm_92/mul", "op": "Const", "attr": {"value": {"tensor": {"dtype": "DT_FLOAT", "tensorShape": {"dim": [{"size": "1"}, {"size": "576"}, {"size": "1"}, {"size": "1"}]}}}, "dtype": {"type": "DT_FLOAT"}}}, {"name": "batchnorm_93/mul", "op": "Const", "attr": {"dtype": {"type": "DT_FLOAT"}, "value": {"tensor": {"dtype": "DT_FLOAT", "tensorShape": {"dim": [{"size": "1"}, {"size": "128"}, {"size": "1"}, {"size": "1"}]}}}}}, {"name": "batchnorm_94/mul", "op": "Const", "attr": {"value": {"tensor": {"dtype": "DT_FLOAT", "tensorShape": {"dim": [{"size": "1"}, {"size": "608"}, {"size": "1"}, {"size": "1"}]}}}, "dtype": {"type": "DT_FLOAT"}}}, {"name": "batchnorm_95/mul", "op": "Const", "attr": {"value": {"tensor": {"dtype": "DT_FLOAT", "tensorShape": {"dim": [{"size": "1"}, {"size": "128"}, {"size": "1"}, {"size": "1"}]}}}, "dtype": {"type": "DT_FLOAT"}}}, {"name": "batchnorm_96/mul", "op": "Const", "attr": {"value": {"tensor": {"dtype": "DT_FLOAT", "tensorShape": {"dim": [{"size": "1"}, {"size": "640"}, {"size": "1"}, {"size": "1"}]}}}, "dtype": {"type": "DT_FLOAT"}}}, {"name": "batchnorm_97/mul", "op": "Const", "attr": {"value": {"tensor": {"dtype": "DT_FLOAT", "tensorShape": {"dim": [{"size": "1"}, {"size": "128"}, {"size": "1"}, {"size": "1"}]}}}, "dtype": {"type": "DT_FLOAT"}}}, {"name": "batchnorm_98/mul", "op": "Const", "attr": {"value": {"tensor": {"dtype": "DT_FLOAT", "tensorShape": {"dim": [{"size": "1"}, {"size": "672"}, {"size": "1"}, {"size": "1"}]}}}, "dtype": {"type": "DT_FLOAT"}}}, {"name": "batchnorm_99/mul", "op": "Const", "attr": {"value": {"tensor": {"dtype": "DT_FLOAT", "tensorShape": {"dim": [{"size": "1"}, {"size": "128"}, {"size": "1"}, {"size": "1"}]}}}, "dtype": {"type": "DT_FLOAT"}}}, {"name": "batchnorm_100/mul", "op": "Const", "attr": {"dtype": {"type": "DT_FLOAT"}, "value": {"tensor": {"dtype": "DT_FLOAT", "tensorShape": {"dim": [{"size": "1"}, {"size": "704"}, {"size": "1"}, {"size": "1"}]}}}}}, {"name": "batchnorm_101/mul", "op": "Const", "attr": {"dtype": {"type": "DT_FLOAT"}, "value": {"tensor": {"dtype": "DT_FLOAT", "tensorShape": {"dim": [{"size": "1"}, {"size": "128"}, {"size": "1"}, {"size": "1"}]}}}}}, {"name": "batchnorm_102/mul", "op": "Const", "attr": {"value": {"tensor": {"dtype": "DT_FLOAT", "tensorShape": {"dim": [{"size": "1"}, {"size": "736"}, {"size": "1"}, {"size": "1"}]}}}, "dtype": {"type": "DT_FLOAT"}}}, {"name": "batchnorm_103/mul", "op": "Const", "attr": {"value": {"tensor": {"dtype": "DT_FLOAT", "tensorShape": {"dim": [{"size": "1"}, {"size": "128"}, {"size": "1"}, {"size": "1"}]}}}, "dtype": {"type": "DT_FLOAT"}}}, {"name": "batchnorm_104/mul", "op": "Const", "attr": {"value": {"tensor": {"dtype": "DT_FLOAT", "tensorShape": {"dim": [{"size": "1"}, {"size": "768"}, {"size": "1"}, {"size": "1"}]}}}, "dtype": {"type": "DT_FLOAT"}}}, {"name": "batchnorm_105/mul", "op": "Const", "attr": {"value": {"tensor": {"dtype": "DT_FLOAT", "tensorShape": {"dim": [{"size": "1"}, {"size": "128"}, {"size": "1"}, {"size": "1"}]}}}, "dtype": {"type": "DT_FLOAT"}}}, {"name": "batchnorm_106/mul", "op": "Const", "attr": {"value": {"tensor": {"dtype": "DT_FLOAT", "tensorShape": {"dim": [{"size": "1"}, {"size": "800"}, {"size": "1"}, {"size": "1"}]}}}, "dtype": {"type": "DT_FLOAT"}}}, {"name": "batchnorm_107/mul", "op": "Const", "attr": {"value": {"tensor": {"dtype": "DT_FLOAT", "tensorShape": {"dim": [{"size": "1"}, {"size": "128"}, {"size": "1"}, {"size": "1"}]}}}, "dtype": {"type": "DT_FLOAT"}}}, {"name": "batchnorm_108/mul", "op": "Const", "attr": {"value": {"tensor": {"dtype": "DT_FLOAT", "tensorShape": {"dim": [{"size": "1"}, {"size": "832"}, {"size": "1"}, {"size": "1"}]}}}, "dtype": {"type": "DT_FLOAT"}}}, {"name": "batchnorm_109/mul", "op": "Const", "attr": {"value": {"tensor": {"dtype": "DT_FLOAT", "tensorShape": {"dim": [{"size": "1"}, {"size": "128"}, {"size": "1"}, {"size": "1"}]}}}, "dtype": {"type": "DT_FLOAT"}}}, {"name": "batchnorm_110/mul", "op": "Const", "attr": {"value": {"tensor": {"dtype": "DT_FLOAT", "tensorShape": {"dim": [{"size": "1"}, {"size": "864"}, {"size": "1"}, {"size": "1"}]}}}, "dtype": {"type": "DT_FLOAT"}}}, {"name": "batchnorm_111/mul", "op": "Const", "attr": {"value": {"tensor": {"dtype": "DT_FLOAT", "tensorShape": {"dim": [{"size": "1"}, {"size": "128"}, {"size": "1"}, {"size": "1"}]}}}, "dtype": {"type": "DT_FLOAT"}}}, {"name": "batchnorm_112/mul", "op": "Const", "attr": {"value": {"tensor": {"dtype": "DT_FLOAT", "tensorShape": {"dim": [{"size": "1"}, {"size": "896"}, {"size": "1"}, {"size": "1"}]}}}, "dtype": {"type": "DT_FLOAT"}}}, {"name": "batchnorm_113/mul", "op": "Const", "attr": {"value": {"tensor": {"dtype": "DT_FLOAT", "tensorShape": {"dim": [{"size": "1"}, {"size": "128"}, {"size": "1"}, {"size": "1"}]}}}, "dtype": {"type": "DT_FLOAT"}}}, {"name": "batchnorm_114/mul", "op": "Const", "attr": {"dtype": {"type": "DT_FLOAT"}, "value": {"tensor": {"dtype": "DT_FLOAT", "tensorShape": {"dim": [{"size": "1"}, {"size": "928"}, {"size": "1"}, {"size": "1"}]}}}}}, {"name": "batchnorm_115/mul", "op": "Const", "attr": {"dtype": {"type": "DT_FLOAT"}, "value": {"tensor": {"dtype": "DT_FLOAT", "tensorShape": {"dim": [{"size": "1"}, {"size": "128"}, {"size": "1"}, {"size": "1"}]}}}}}, {"name": "batchnorm_116/mul", "op": "Const", "attr": {"value": {"tensor": {"dtype": "DT_FLOAT", "tensorShape": {"dim": [{"size": "1"}, {"size": "960"}, {"size": "1"}, {"size": "1"}]}}}, "dtype": {"type": "DT_FLOAT"}}}, {"name": "batchnorm_117/mul", "op": "Const", "attr": {"value": {"tensor": {"dtype": "DT_FLOAT", "tensorShape": {"dim": [{"size": "1"}, {"size": "128"}, {"size": "1"}, {"size": "1"}]}}}, "dtype": {"type": "DT_FLOAT"}}}, {"name": "batchnorm_118/mul", "op": "Const", "attr": {"value": {"tensor": {"dtype": "DT_FLOAT", "tensorShape": {"dim": [{"size": "1"}, {"size": "992"}, {"size": "1"}, {"size": "1"}]}}}, "dtype": {"type": "DT_FLOAT"}}}, {"name": "batchnorm_119/mul", "op": "Const", "attr": {"value": {"tensor": {"dtype": "DT_FLOAT", "tensorShape": {"dim": [{"size": "1"}, {"size": "128"}, {"size": "1"}, {"size": "1"}]}}}, "dtype": {"type": "DT_FLOAT"}}}, {"name": "batchnorm_120/mul", "op": "Const", "attr": {"value": {"tensor": {"dtype": "DT_FLOAT", "tensorShape": {"dim": [{"size": "1"}, {"size": "1024"}, {"size": "1"}, {"size": "1"}]}}}, "dtype": {"type": "DT_FLOAT"}}}, {"name": "Pad", "op": "Pad", "input": ["input.1", "Const_727"], "attr": {"T": {"type": "DT_FLOAT"}, "Tpaddings": {"type": "DT_INT32"}}}, {"name": "transpose_1", "op": "Transpose", "input": ["Pad", "transpose_1/perm"], "attr": {"T": {"type": "DT_FLOAT"}, "Tperm": {"type": "DT_INT32"}}}, {"name": "convolution", "op": "Conv2D", "input": ["transpose_1", "split"], "attr": {"padding": {"s": "VkFMSUQ="}, "dilations": {"list": {"i": ["1", "1", "1", "1"]}}, "T": {"type": "DT_FLOAT"}, "strides": {"list": {"i": ["1", "2", "2", "1"]}}, "data_format": {"s": "TkhXQw=="}, "use_cudnn_on_gpu": {"b": true}, "explicit_paddings": {"list": {}}}}, {"name": "transpose_2", "op": "Transpose", "input": ["convolution", "transpose_2/perm"], "attr": {"Tperm": {"type": "DT_INT32"}, "T": {"type": "DT_FLOAT"}}}, {"name": "batchnorm/mul_1", "op": "Mul", "input": ["batchnorm/mul", "transpose_2"], "attr": {"T": {"type": "DT_FLOAT"}}}, {"name": "batchnorm/add_1", "op": "Add", "input": ["batchnorm/mul_1", "batchnorm/sub"], "attr": {"T": {"type": "DT_FLOAT"}}}, {"name": "Relu", "op": "Relu", "input": ["batchnorm/add_1"], "attr": {"T": {"type": "DT_FLOAT"}}}, {"name": "Pad_1", "op": "Pad", "input": ["Relu", "Const_730"], "attr": {"T": {"type": "DT_FLOAT"}, "Tpaddings": {"type": "DT_INT32"}}}, {"name": "transpose_3", "op": "Transpose", "input": ["Pad_1", "transpose_1/perm"], "attr": {"Tperm": {"type": "DT_INT32"}, "T": {"type": "DT_FLOAT"}}}, {"name": "max_pool", "op": "MaxPool", "input": ["transpose_3"], "attr": {"data_format": {"s": "TkhXQw=="}, "strides": {"list": {"i": ["1", "2", "2", "1"]}}, "ksize": {"list": {"i": ["1", "3", "3", "1"]}}, "padding": {"s": "VkFMSUQ="}, "T": {"type": "DT_FLOAT"}}}, {"name": "transpose_4", "op": "Transpose", "input": ["max_pool", "transpose_2/perm"], "attr": {"Tperm": {"type": "DT_INT32"}, "T": {"type": "DT_FLOAT"}}}, {"name": "batchnorm_1/mul_1", "op": "Mul", "input": ["batchnorm_1/mul", "transpose_4"], "attr": {"T": {"type": "DT_FLOAT"}}}, {"name": "batchnorm_1/add_1", "op": "Add", "input": ["batchnorm_1/mul_1", "batchnorm_1/sub"], "attr": {"T": {"type": "DT_FLOAT"}}}, {"name": "Relu_1", "op": "Relu", "input": ["batchnorm_1/add_1"], "attr": {"T": {"type": "DT_FLOAT"}}}, {"name": "transpose_6", "op": "Transpose", "input": ["Relu_1", "transpose_1/perm"], "attr": {"T": {"type": "DT_FLOAT"}, "Tperm": {"type": "DT_INT32"}}}, {"name": "convolution_1", "op": "Conv2D", "input": ["transpose_6", "split_2"], "attr": {"dilations": {"list": {"i": ["1", "1", "1", "1"]}}, "T": {"type": "DT_FLOAT"}, "data_format": {"s": "TkhXQw=="}, "strides": {"list": {"i": ["1", "1", "1", "1"]}}, "use_cudnn_on_gpu": {"b": true}, "explicit_paddings": {"list": {}}, "padding": {"s": "VkFMSUQ="}}}, {"name": "transpose_7", "op": "Transpose", "input": ["convolution_1", "transpose_2/perm"], "attr": {"Tperm": {"type": "DT_INT32"}, "T": {"type": "DT_FLOAT"}}}, {"name": "batchnorm_2/mul_1", "op": "Mul", "input": ["batchnorm_2/mul", "transpose_7"], "attr": {"T": {"type": "DT_FLOAT"}}}, {"name": "batchnorm_2/add_1", "op": "Add", "input": ["batchnorm_2/mul_1", "batchnorm_2/sub"], "attr": {"T": {"type": "DT_FLOAT"}}}, {"name": "Relu_2", "op": "Relu", "input": ["batchnorm_2/add_1"], "attr": {"T": {"type": "DT_FLOAT"}}}, {"name": "Pad_3", "op": "Pad", "input": ["Relu_2", "Const_730"], "attr": {"T": {"type": "DT_FLOAT"}, "Tpaddings": {"type": "DT_INT32"}}}, {"name": "transpose_9", "op": "Transpose", "input": ["Pad_3", "transpose_1/perm"], "attr": {"T": {"type": "DT_FLOAT"}, "Tperm": {"type": "DT_INT32"}}}, {"name": "convolution_2", "op": "Conv2D", "input": ["transpose_9", "split_4"], "attr": {"dilations": {"list": {"i": ["1", "1", "1", "1"]}}, "T": {"type": "DT_FLOAT"}, "strides": {"list": {"i": ["1", "1", "1", "1"]}}, "data_format": {"s": "TkhXQw=="}, "explicit_paddings": {"list": {}}, "use_cudnn_on_gpu": {"b": true}, "padding": {"s": "VkFMSUQ="}}}, {"name": "transpose_10", "op": "Transpose", "input": ["convolution_2", "transpose_2/perm"], "attr": {"T": {"type": "DT_FLOAT"}, "Tperm": {"type": "DT_INT32"}}}, {"name": "concat_4", "op": "ConcatV2", "input": ["transpose_4", "transpose_10", "concat_4/axis"], "attr": {"T": {"type": "DT_FLOAT"}, "N": {"i": "2"}, "Tidx": {"type": "DT_INT32"}}}, {"name": "batchnorm_3/mul_1", "op": "Mul", "input": ["batchnorm_3/mul", "concat_4"], "attr": {"T": {"type": "DT_FLOAT"}}}, {"name": "batchnorm_3/add_1", "op": "Add", "input": ["batchnorm_3/mul_1", "batchnorm_3/sub"], "attr": {"T": {"type": "DT_FLOAT"}}}, {"name": "Relu_3", "op": "Relu", "input": ["batchnorm_3/add_1"], "attr": {"T": {"type": "DT_FLOAT"}}}, {"name": "transpose_12", "op": "Transpose", "input": ["Relu_3", "transpose_1/perm"], "attr": {"Tperm": {"type": "DT_INT32"}, "T": {"type": "DT_FLOAT"}}}, {"name": "convolution_3", "op": "Conv2D", "input": ["transpose_12", "split_6"], "attr": {"dilations": {"list": {"i": ["1", "1", "1", "1"]}}, "T": {"type": "DT_FLOAT"}, "strides": {"list": {"i": ["1", "1", "1", "1"]}}, "data_format": {"s": "TkhXQw=="}, "explicit_paddings": {"list": {}}, "use_cudnn_on_gpu": {"b": true}, "padding": {"s": "VkFMSUQ="}}}, {"name": "transpose_13", "op": "Transpose", "input": ["convolution_3", "transpose_2/perm"], "attr": {"Tperm": {"type": "DT_INT32"}, "T": {"type": "DT_FLOAT"}}}, {"name": "batchnorm_4/mul_1", "op": "Mul", "input": ["batchnorm_4/mul", "transpose_13"], "attr": {"T": {"type": "DT_FLOAT"}}}, {"name": "batchnorm_4/add_1", "op": "Add", "input": ["batchnorm_4/mul_1", "batchnorm_4/sub"], "attr": {"T": {"type": "DT_FLOAT"}}}, {"name": "Relu_4", "op": "Relu", "input": ["batchnorm_4/add_1"], "attr": {"T": {"type": "DT_FLOAT"}}}, {"name": "Pad_5", "op": "Pad", "input": ["Relu_4", "Const_730"], "attr": {"T": {"type": "DT_FLOAT"}, "Tpaddings": {"type": "DT_INT32"}}}, {"name": "transpose_15", "op": "Transpose", "input": ["Pad_5", "transpose_1/perm"], "attr": {"Tperm": {"type": "DT_INT32"}, "T": {"type": "DT_FLOAT"}}}, {"name": "convolution_4", "op": "Conv2D", "input": ["transpose_15", "split_8"], "attr": {"padding": {"s": "VkFMSUQ="}, "dilations": {"list": {"i": ["1", "1", "1", "1"]}}, "T": {"type": "DT_FLOAT"}, "strides": {"list": {"i": ["1", "1", "1", "1"]}}, "data_format": {"s": "TkhXQw=="}, "explicit_paddings": {"list": {}}, "use_cudnn_on_gpu": {"b": true}}}, {"name": "transpose_16", "op": "Transpose", "input": ["convolution_4", "transpose_2/perm"], "attr": {"Tperm": {"type": "DT_INT32"}, "T": {"type": "DT_FLOAT"}}}, {"name": "concat_7", "op": "ConcatV2", "input": ["transpose_4", "transpose_10", "transpose_16", "concat_4/axis"], "attr": {"Tidx": {"type": "DT_INT32"}, "T": {"type": "DT_FLOAT"}, "N": {"i": "3"}}}, {"name": "batchnorm_5/mul_1", "op": "Mul", "input": ["batchnorm_5/mul", "concat_7"], "attr": {"T": {"type": "DT_FLOAT"}}}, {"name": "batchnorm_5/add_1", "op": "Add", "input": ["batchnorm_5/mul_1", "batchnorm_5/sub"], "attr": {"T": {"type": "DT_FLOAT"}}}, {"name": "Relu_5", "op": "Relu", "input": ["batchnorm_5/add_1"], "attr": {"T": {"type": "DT_FLOAT"}}}, {"name": "transpose_18", "op": "Transpose", "input": ["Relu_5", "transpose_1/perm"], "attr": {"T": {"type": "DT_FLOAT"}, "Tperm": {"type": "DT_INT32"}}}, {"name": "convolution_5", "op": "Conv2D", "input": ["transpose_18", "split_10"], "attr": {"padding": {"s": "VkFMSUQ="}, "dilations": {"list": {"i": ["1", "1", "1", "1"]}}, "T": {"type": "DT_FLOAT"}, "strides": {"list": {"i": ["1", "1", "1", "1"]}}, "data_format": {"s": "TkhXQw=="}, "explicit_paddings": {"list": {}}, "use_cudnn_on_gpu": {"b": true}}}, {"name": "transpose_19", "op": "Transpose", "input": ["convolution_5", "transpose_2/perm"], "attr": {"T": {"type": "DT_FLOAT"}, "Tperm": {"type": "DT_INT32"}}}, {"name": "batchnorm_6/mul_1", "op": "Mul", "input": ["batchnorm_6/mul", "transpose_19"], "attr": {"T": {"type": "DT_FLOAT"}}}, {"name": "batchnorm_6/add_1", "op": "Add", "input": ["batchnorm_6/mul_1", "batchnorm_6/sub"], "attr": {"T": {"type": "DT_FLOAT"}}}, {"name": "Relu_6", "op": "Relu", "input": ["batchnorm_6/add_1"], "attr": {"T": {"type": "DT_FLOAT"}}}, {"name": "Pad_7", "op": "Pad", "input": ["Relu_6", "Const_730"], "attr": {"T": {"type": "DT_FLOAT"}, "Tpaddings": {"type": "DT_INT32"}}}, {"name": "transpose_21", "op": "Transpose", "input": ["Pad_7", "transpose_1/perm"], "attr": {"T": {"type": "DT_FLOAT"}, "Tperm": {"type": "DT_INT32"}}}, {"name": "convolution_6", "op": "Conv2D", "input": ["transpose_21", "split_12"], "attr": {"dilations": {"list": {"i": ["1", "1", "1", "1"]}}, "T": {"type": "DT_FLOAT"}, "data_format": {"s": "TkhXQw=="}, "strides": {"list": {"i": ["1", "1", "1", "1"]}}, "use_cudnn_on_gpu": {"b": true}, "explicit_paddings": {"list": {}}, "padding": {"s": "VkFMSUQ="}}}, {"name": "transpose_22", "op": "Transpose", "input": ["convolution_6", "transpose_2/perm"], "attr": {"T": {"type": "DT_FLOAT"}, "Tperm": {"type": "DT_INT32"}}}, {"name": "concat_10", "op": "ConcatV2", "input": ["transpose_4", "transpose_10", "transpose_16", "transpose_22", "concat_4/axis"], "attr": {"T": {"type": "DT_FLOAT"}, "N": {"i": "4"}, "Tidx": {"type": "DT_INT32"}}}, {"name": "batchnorm_7/mul_1", "op": "Mul", "input": ["batchnorm_7/mul", "concat_10"], "attr": {"T": {"type": "DT_FLOAT"}}}, {"name": "batchnorm_7/add_1", "op": "Add", "input": ["batchnorm_7/mul_1", "batchnorm_7/sub"], "attr": {"T": {"type": "DT_FLOAT"}}}, {"name": "Relu_7", "op": "Relu", "input": ["batchnorm_7/add_1"], "attr": {"T": {"type": "DT_FLOAT"}}}, {"name": "transpose_24", "op": "Transpose", "input": ["Relu_7", "transpose_1/perm"], "attr": {"T": {"type": "DT_FLOAT"}, "Tperm": {"type": "DT_INT32"}}}, {"name": "convolution_7", "op": "Conv2D", "input": ["transpose_24", "split_14"], "attr": {"padding": {"s": "VkFMSUQ="}, "dilations": {"list": {"i": ["1", "1", "1", "1"]}}, "T": {"type": "DT_FLOAT"}, "strides": {"list": {"i": ["1", "1", "1", "1"]}}, "data_format": {"s": "TkhXQw=="}, "explicit_paddings": {"list": {}}, "use_cudnn_on_gpu": {"b": true}}}, {"name": "transpose_25", "op": "Transpose", "input": ["convolution_7", "transpose_2/perm"], "attr": {"Tperm": {"type": "DT_INT32"}, "T": {"type": "DT_FLOAT"}}}, {"name": "batchnorm_8/mul_1", "op": "Mul", "input": ["batchnorm_8/mul", "transpose_25"], "attr": {"T": {"type": "DT_FLOAT"}}}, {"name": "batchnorm_8/add_1", "op": "Add", "input": ["batchnorm_8/mul_1", "batchnorm_8/sub"], "attr": {"T": {"type": "DT_FLOAT"}}}, {"name": "Relu_8", "op": "Relu", "input": ["batchnorm_8/add_1"], "attr": {"T": {"type": "DT_FLOAT"}}}, {"name": "Pad_9", "op": "Pad", "input": ["Relu_8", "Const_730"], "attr": {"T": {"type": "DT_FLOAT"}, "Tpaddings": {"type": "DT_INT32"}}}, {"name": "transpose_27", "op": "Transpose", "input": ["Pad_9", "transpose_1/perm"], "attr": {"Tperm": {"type": "DT_INT32"}, "T": {"type": "DT_FLOAT"}}}, {"name": "convolution_8", "op": "Conv2D", "input": ["transpose_27", "split_16"], "attr": {"dilations": {"list": {"i": ["1", "1", "1", "1"]}}, "T": {"type": "DT_FLOAT"}, "data_format": {"s": "TkhXQw=="}, "strides": {"list": {"i": ["1", "1", "1", "1"]}}, "use_cudnn_on_gpu": {"b": true}, "explicit_paddings": {"list": {}}, "padding": {"s": "VkFMSUQ="}}}, {"name": "transpose_28", "op": "Transpose", "input": ["convolution_8", "transpose_2/perm"], "attr": {"Tperm": {"type": "DT_INT32"}, "T": {"type": "DT_FLOAT"}}}, {"name": "concat_13", "op": "ConcatV2", "input": ["transpose_4", "transpose_10", "transpose_16", "transpose_22", "transpose_28", "concat_4/axis"], "attr": {"T": {"type": "DT_FLOAT"}, "N": {"i": "5"}, "Tidx": {"type": "DT_INT32"}}}, {"name": "batchnorm_9/mul_1", "op": "Mul", "input": ["batchnorm_9/mul", "concat_13"], "attr": {"T": {"type": "DT_FLOAT"}}}, {"name": "batchnorm_9/add_1", "op": "Add", "input": ["batchnorm_9/mul_1", "batchnorm_9/sub"], "attr": {"T": {"type": "DT_FLOAT"}}}, {"name": "Relu_9", "op": "Relu", "input": ["batchnorm_9/add_1"], "attr": {"T": {"type": "DT_FLOAT"}}}, {"name": "transpose_30", "op": "Transpose", "input": ["Relu_9", "transpose_1/perm"], "attr": {"Tperm": {"type": "DT_INT32"}, "T": {"type": "DT_FLOAT"}}}, {"name": "convolution_9", "op": "Conv2D", "input": ["transpose_30", "split_18"], "attr": {"dilations": {"list": {"i": ["1", "1", "1", "1"]}}, "T": {"type": "DT_FLOAT"}, "data_format": {"s": "TkhXQw=="}, "strides": {"list": {"i": ["1", "1", "1", "1"]}}, "explicit_paddings": {"list": {}}, "use_cudnn_on_gpu": {"b": true}, "padding": {"s": "VkFMSUQ="}}}, {"name": "transpose_31", "op": "Transpose", "input": ["convolution_9", "transpose_2/perm"], "attr": {"T": {"type": "DT_FLOAT"}, "Tperm": {"type": "DT_INT32"}}}, {"name": "batchnorm_10/mul_1", "op": "Mul", "input": ["batchnorm_10/mul", "transpose_31"], "attr": {"T": {"type": "DT_FLOAT"}}}, {"name": "batchnorm_10/add_1", "op": "Add", "input": ["batchnorm_10/mul_1", "batchnorm_10/sub"], "attr": {"T": {"type": "DT_FLOAT"}}}, {"name": "Relu_10", "op": "Relu", "input": ["batchnorm_10/add_1"], "attr": {"T": {"type": "DT_FLOAT"}}}, {"name": "Pad_11", "op": "Pad", "input": ["Relu_10", "Const_730"], "attr": {"Tpaddings": {"type": "DT_INT32"}, "T": {"type": "DT_FLOAT"}}}, {"name": "transpose_33", "op": "Transpose", "input": ["Pad_11", "transpose_1/perm"], "attr": {"T": {"type": "DT_FLOAT"}, "Tperm": {"type": "DT_INT32"}}}, {"name": "convolution_10", "op": "Conv2D", "input": ["transpose_33", "split_20"], "attr": {"dilations": {"list": {"i": ["1", "1", "1", "1"]}}, "T": {"type": "DT_FLOAT"}, "strides": {"list": {"i": ["1", "1", "1", "1"]}}, "data_format": {"s": "TkhXQw=="}, "explicit_paddings": {"list": {}}, "use_cudnn_on_gpu": {"b": true}, "padding": {"s": "VkFMSUQ="}}}, {"name": "transpose_34", "op": "Transpose", "input": ["convolution_10", "transpose_2/perm"], "attr": {"T": {"type": "DT_FLOAT"}, "Tperm": {"type": "DT_INT32"}}}, {"name": "concat_16", "op": "ConcatV2", "input": ["transpose_4", "transpose_10", "transpose_16", "transpose_22", "transpose_28", "transpose_34", "concat_4/axis"], "attr": {"T": {"type": "DT_FLOAT"}, "N": {"i": "6"}, "Tidx": {"type": "DT_INT32"}}}, {"name": "batchnorm_11/mul_1", "op": "Mul", "input": ["batchnorm_11/mul", "concat_16"], "attr": {"T": {"type": "DT_FLOAT"}}}, {"name": "batchnorm_11/add_1", "op": "Add", "input": ["batchnorm_11/mul_1", "batchnorm_11/sub"], "attr": {"T": {"type": "DT_FLOAT"}}}, {"name": "Relu_11", "op": "Relu", "input": ["batchnorm_11/add_1"], "attr": {"T": {"type": "DT_FLOAT"}}}, {"name": "transpose_36", "op": "Transpose", "input": ["Relu_11", "transpose_1/perm"], "attr": {"Tperm": {"type": "DT_INT32"}, "T": {"type": "DT_FLOAT"}}}, {"name": "convolution_11", "op": "Conv2D", "input": ["transpose_36", "split_22"], "attr": {"T": {"type": "DT_FLOAT"}, "strides": {"list": {"i": ["1", "1", "1", "1"]}}, "data_format": {"s": "TkhXQw=="}, "use_cudnn_on_gpu": {"b": true}, "explicit_paddings": {"list": {}}, "padding": {"s": "VkFMSUQ="}, "dilations": {"list": {"i": ["1", "1", "1", "1"]}}}}, {"name": "transpose_37", "op": "Transpose", "input": ["convolution_11", "transpose_2/perm"], "attr": {"T": {"type": "DT_FLOAT"}, "Tperm": {"type": "DT_INT32"}}}, {"name": "batchnorm_12/mul_1", "op": "Mul", "input": ["batchnorm_12/mul", "transpose_37"], "attr": {"T": {"type": "DT_FLOAT"}}}, {"name": "batchnorm_12/add_1", "op": "Add", "input": ["batchnorm_12/mul_1", "batchnorm_12/sub"], "attr": {"T": {"type": "DT_FLOAT"}}}, {"name": "Relu_12", "op": "Relu", "input": ["batchnorm_12/add_1"], "attr": {"T": {"type": "DT_FLOAT"}}}, {"name": "Pad_13", "op": "Pad", "input": ["Relu_12", "Const_730"], "attr": {"T": {"type": "DT_FLOAT"}, "Tpaddings": {"type": "DT_INT32"}}}, {"name": "transpose_39", "op": "Transpose", "input": ["Pad_13", "transpose_1/perm"], "attr": {"Tperm": {"type": "DT_INT32"}, "T": {"type": "DT_FLOAT"}}}, {"name": "convolution_12", "op": "Conv2D", "input": ["transpose_39", "split_24"], "attr": {"dilations": {"list": {"i": ["1", "1", "1", "1"]}}, "T": {"type": "DT_FLOAT"}, "strides": {"list": {"i": ["1", "1", "1", "1"]}}, "data_format": {"s": "TkhXQw=="}, "use_cudnn_on_gpu": {"b": true}, "explicit_paddings": {"list": {}}, "padding": {"s": "VkFMSUQ="}}}, {"name": "transpose_40", "op": "Transpose", "input": ["convolution_12", "transpose_2/perm"], "attr": {"T": {"type": "DT_FLOAT"}, "Tperm": {"type": "DT_INT32"}}}, {"name": "concat_19", "op": "ConcatV2", "input": ["transpose_4", "transpose_10", "transpose_16", "transpose_22", "transpose_28", "transpose_34", "transpose_40", "concat_4/axis"], "attr": {"T": {"type": "DT_FLOAT"}, "N": {"i": "7"}, "Tidx": {"type": "DT_INT32"}}}, {"name": "batchnorm_13/mul_1", "op": "Mul", "input": ["batchnorm_13/mul", "concat_19"], "attr": {"T": {"type": "DT_FLOAT"}}}, {"name": "batchnorm_13/add_1", "op": "Add", "input": ["batchnorm_13/mul_1", "batchnorm_13/sub"], "attr": {"T": {"type": "DT_FLOAT"}}}, {"name": "Relu_13", "op": "Relu", "input": ["batchnorm_13/add_1"], "attr": {"T": {"type": "DT_FLOAT"}}}, {"name": "transpose_42", "op": "Transpose", "input": ["Relu_13", "transpose_1/perm"], "attr": {"Tperm": {"type": "DT_INT32"}, "T": {"type": "DT_FLOAT"}}}, {"name": "convolution_13", "op": "Conv2D", "input": ["transpose_42", "split_26"], "attr": {"padding": {"s": "VkFMSUQ="}, "dilations": {"list": {"i": ["1", "1", "1", "1"]}}, "T": {"type": "DT_FLOAT"}, "data_format": {"s": "TkhXQw=="}, "strides": {"list": {"i": ["1", "1", "1", "1"]}}, "explicit_paddings": {"list": {}}, "use_cudnn_on_gpu": {"b": true}}}, {"name": "avg_pool", "op": "AvgPool", "input": ["convolution_13"], "attr": {"T": {"type": "DT_FLOAT"}, "strides": {"list": {"i": ["1", "2", "2", "1"]}}, "data_format": {"s": "TkhXQw=="}, "ksize": {"list": {"i": ["1", "2", "2", "1"]}}, "padding": {"s": "VkFMSUQ="}}}, {"name": "transpose_45", "op": "Transpose", "input": ["avg_pool", "transpose_2/perm"], "attr": {"Tperm": {"type": "DT_INT32"}, "T": {"type": "DT_FLOAT"}}}, {"name": "batchnorm_14/mul_1", "op": "Mul", "input": ["batchnorm_14/mul", "transpose_45"], "attr": {"T": {"type": "DT_FLOAT"}}}, {"name": "batchnorm_14/add_1", "op": "Add", "input": ["batchnorm_14/mul_1", "batchnorm_14/sub"], "attr": {"T": {"type": "DT_FLOAT"}}}, {"name": "Relu_14", "op": "Relu", "input": ["batchnorm_14/add_1"], "attr": {"T": {"type": "DT_FLOAT"}}}, {"name": "transpose_47", "op": "Transpose", "input": ["Relu_14", "transpose_1/perm"], "attr": {"T": {"type": "DT_FLOAT"}, "Tperm": {"type": "DT_INT32"}}}, {"name": "convolution_14", "op": "Conv2D", "input": ["transpose_47", "split_28"], "attr": {"data_format": {"s": "TkhXQw=="}, "strides": {"list": {"i": ["1", "1", "1", "1"]}}, "use_cudnn_on_gpu": {"b": true}, "explicit_paddings": {"list": {}}, "padding": {"s": "VkFMSUQ="}, "dilations": {"list": {"i": ["1", "1", "1", "1"]}}, "T": {"type": "DT_FLOAT"}}}, {"name": "transpose_48", "op": "Transpose", "input": ["convolution_14", "transpose_2/perm"], "attr": {"Tperm": {"type": "DT_INT32"}, "T": {"type": "DT_FLOAT"}}}, {"name": "batchnorm_15/mul_1", "op": "Mul", "input": ["batchnorm_15/mul", "transpose_48"], "attr": {"T": {"type": "DT_FLOAT"}}}, {"name": "batchnorm_15/add_1", "op": "Add", "input": ["batchnorm_15/mul_1", "batchnorm_15/sub"], "attr": {"T": {"type": "DT_FLOAT"}}}, {"name": "Relu_15", "op": "Relu", "input": ["batchnorm_15/add_1"], "attr": {"T": {"type": "DT_FLOAT"}}}, {"name": "Pad_16", "op": "Pad", "input": ["Relu_15", "Const_730"], "attr": {"T": {"type": "DT_FLOAT"}, "Tpaddings": {"type": "DT_INT32"}}}, {"name": "transpose_50", "op": "Transpose", "input": ["Pad_16", "transpose_1/perm"], "attr": {"Tperm": {"type": "DT_INT32"}, "T": {"type": "DT_FLOAT"}}}, {"name": "convolution_15", "op": "Conv2D", "input": ["transpose_50", "split_30"], "attr": {"T": {"type": "DT_FLOAT"}, "strides": {"list": {"i": ["1", "1", "1", "1"]}}, "data_format": {"s": "TkhXQw=="}, "use_cudnn_on_gpu": {"b": true}, "explicit_paddings": {"list": {}}, "padding": {"s": "VkFMSUQ="}, "dilations": {"list": {"i": ["1", "1", "1", "1"]}}}}, {"name": "transpose_51", "op": "Transpose", "input": ["convolution_15", "transpose_2/perm"], "attr": {"Tperm": {"type": "DT_INT32"}, "T": {"type": "DT_FLOAT"}}}, {"name": "concat_24", "op": "ConcatV2", "input": ["transpose_45", "transpose_51", "concat_4/axis"], "attr": {"Tidx": {"type": "DT_INT32"}, "T": {"type": "DT_FLOAT"}, "N": {"i": "2"}}}, {"name": "batchnorm_16/mul_1", "op": "Mul", "input": ["batchnorm_16/mul", "concat_24"], "attr": {"T": {"type": "DT_FLOAT"}}}, {"name": "batchnorm_16/add_1", "op": "Add", "input": ["batchnorm_16/mul_1", "batchnorm_16/sub"], "attr": {"T": {"type": "DT_FLOAT"}}}, {"name": "Relu_16", "op": "Relu", "input": ["batchnorm_16/add_1"], "attr": {"T": {"type": "DT_FLOAT"}}}, {"name": "transpose_53", "op": "Transpose", "input": ["Relu_16", "transpose_1/perm"], "attr": {"T": {"type": "DT_FLOAT"}, "Tperm": {"type": "DT_INT32"}}}, {"name": "convolution_16", "op": "Conv2D", "input": ["transpose_53", "split_32"], "attr": {"padding": {"s": "VkFMSUQ="}, "dilations": {"list": {"i": ["1", "1", "1", "1"]}}, "T": {"type": "DT_FLOAT"}, "data_format": {"s": "TkhXQw=="}, "strides": {"list": {"i": ["1", "1", "1", "1"]}}, "use_cudnn_on_gpu": {"b": true}, "explicit_paddings": {"list": {}}}}, {"name": "transpose_54", "op": "Transpose", "input": ["convolution_16", "transpose_2/perm"], "attr": {"T": {"type": "DT_FLOAT"}, "Tperm": {"type": "DT_INT32"}}}, {"name": "batchnorm_17/mul_1", "op": "Mul", "input": ["batchnorm_17/mul", "transpose_54"], "attr": {"T": {"type": "DT_FLOAT"}}}, {"name": "batchnorm_17/add_1", "op": "Add", "input": ["batchnorm_17/mul_1", "batchnorm_17/sub"], "attr": {"T": {"type": "DT_FLOAT"}}}, {"name": "Relu_17", "op": "Relu", "input": ["batchnorm_17/add_1"], "attr": {"T": {"type": "DT_FLOAT"}}}, {"name": "Pad_18", "op": "Pad", "input": ["Relu_17", "Const_730"], "attr": {"Tpaddings": {"type": "DT_INT32"}, "T": {"type": "DT_FLOAT"}}}, {"name": "transpose_56", "op": "Transpose", "input": ["Pad_18", "transpose_1/perm"], "attr": {"T": {"type": "DT_FLOAT"}, "Tperm": {"type": "DT_INT32"}}}, {"name": "convolution_17", "op": "Conv2D", "input": ["transpose_56", "split_34"], "attr": {"dilations": {"list": {"i": ["1", "1", "1", "1"]}}, "T": {"type": "DT_FLOAT"}, "data_format": {"s": "TkhXQw=="}, "strides": {"list": {"i": ["1", "1", "1", "1"]}}, "use_cudnn_on_gpu": {"b": true}, "explicit_paddings": {"list": {}}, "padding": {"s": "VkFMSUQ="}}}, {"name": "transpose_57", "op": "Transpose", "input": ["convolution_17", "transpose_2/perm"], "attr": {"Tperm": {"type": "DT_INT32"}, "T": {"type": "DT_FLOAT"}}}, {"name": "concat_27", "op": "ConcatV2", "input": ["transpose_45", "transpose_51", "transpose_57", "concat_4/axis"], "attr": {"N": {"i": "3"}, "Tidx": {"type": "DT_INT32"}, "T": {"type": "DT_FLOAT"}}}, {"name": "batchnorm_18/mul_1", "op": "Mul", "input": ["batchnorm_18/mul", "concat_27"], "attr": {"T": {"type": "DT_FLOAT"}}}, {"name": "batchnorm_18/add_1", "op": "Add", "input": ["batchnorm_18/mul_1", "batchnorm_18/sub"], "attr": {"T": {"type": "DT_FLOAT"}}}, {"name": "Relu_18", "op": "Relu", "input": ["batchnorm_18/add_1"], "attr": {"T": {"type": "DT_FLOAT"}}}, {"name": "transpose_59", "op": "Transpose", "input": ["Relu_18", "transpose_1/perm"], "attr": {"Tperm": {"type": "DT_INT32"}, "T": {"type": "DT_FLOAT"}}}, {"name": "convolution_18", "op": "Conv2D", "input": ["transpose_59", "split_36"], "attr": {"padding": {"s": "VkFMSUQ="}, "dilations": {"list": {"i": ["1", "1", "1", "1"]}}, "T": {"type": "DT_FLOAT"}, "data_format": {"s": "TkhXQw=="}, "strides": {"list": {"i": ["1", "1", "1", "1"]}}, "explicit_paddings": {"list": {}}, "use_cudnn_on_gpu": {"b": true}}}, {"name": "transpose_60", "op": "Transpose", "input": ["convolution_18", "transpose_2/perm"], "attr": {"Tperm": {"type": "DT_INT32"}, "T": {"type": "DT_FLOAT"}}}, {"name": "batchnorm_19/mul_1", "op": "Mul", "input": ["batchnorm_19/mul", "transpose_60"], "attr": {"T": {"type": "DT_FLOAT"}}}, {"name": "batchnorm_19/add_1", "op": "Add", "input": ["batchnorm_19/mul_1", "batchnorm_19/sub"], "attr": {"T": {"type": "DT_FLOAT"}}}, {"name": "Relu_19", "op": "Relu", "input": ["batchnorm_19/add_1"], "attr": {"T": {"type": "DT_FLOAT"}}}, {"name": "Pad_20", "op": "Pad", "input": ["Relu_19", "Const_730"], "attr": {"Tpaddings": {"type": "DT_INT32"}, "T": {"type": "DT_FLOAT"}}}, {"name": "transpose_62", "op": "Transpose", "input": ["Pad_20", "transpose_1/perm"], "attr": {"Tperm": {"type": "DT_INT32"}, "T": {"type": "DT_FLOAT"}}}, {"name": "convolution_19", "op": "Conv2D", "input": ["transpose_62", "split_38"], "attr": {"dilations": {"list": {"i": ["1", "1", "1", "1"]}}, "T": {"type": "DT_FLOAT"}, "strides": {"list": {"i": ["1", "1", "1", "1"]}}, "data_format": {"s": "TkhXQw=="}, "use_cudnn_on_gpu": {"b": true}, "explicit_paddings": {"list": {}}, "padding": {"s": "VkFMSUQ="}}}, {"name": "transpose_63", "op": "Transpose", "input": ["convolution_19", "transpose_2/perm"], "attr": {"T": {"type": "DT_FLOAT"}, "Tperm": {"type": "DT_INT32"}}}, {"name": "concat_30", "op": "ConcatV2", "input": ["transpose_45", "transpose_51", "transpose_57", "transpose_63", "concat_4/axis"], "attr": {"Tidx": {"type": "DT_INT32"}, "T": {"type": "DT_FLOAT"}, "N": {"i": "4"}}}, {"name": "batchnorm_20/mul_1", "op": "Mul", "input": ["batchnorm_20/mul", "concat_30"], "attr": {"T": {"type": "DT_FLOAT"}}}, {"name": "batchnorm_20/add_1", "op": "Add", "input": ["batchnorm_20/mul_1", "batchnorm_20/sub"], "attr": {"T": {"type": "DT_FLOAT"}}}, {"name": "Relu_20", "op": "Relu", "input": ["batchnorm_20/add_1"], "attr": {"T": {"type": "DT_FLOAT"}}}, {"name": "transpose_65", "op": "Transpose", "input": ["Relu_20", "transpose_1/perm"], "attr": {"Tperm": {"type": "DT_INT32"}, "T": {"type": "DT_FLOAT"}}}, {"name": "convolution_20", "op": "Conv2D", "input": ["transpose_65", "split_40"], "attr": {"dilations": {"list": {"i": ["1", "1", "1", "1"]}}, "T": {"type": "DT_FLOAT"}, "data_format": {"s": "TkhXQw=="}, "strides": {"list": {"i": ["1", "1", "1", "1"]}}, "explicit_paddings": {"list": {}}, "use_cudnn_on_gpu": {"b": true}, "padding": {"s": "VkFMSUQ="}}}, {"name": "transpose_66", "op": "Transpose", "input": ["convolution_20", "transpose_2/perm"], "attr": {"T": {"type": "DT_FLOAT"}, "Tperm": {"type": "DT_INT32"}}}, {"name": "batchnorm_21/mul_1", "op": "Mul", "input": ["batchnorm_21/mul", "transpose_66"], "attr": {"T": {"type": "DT_FLOAT"}}}, {"name": "batchnorm_21/add_1", "op": "Add", "input": ["batchnorm_21/mul_1", "batchnorm_21/sub"], "attr": {"T": {"type": "DT_FLOAT"}}}, {"name": "Relu_21", "op": "Relu", "input": ["batchnorm_21/add_1"], "attr": {"T": {"type": "DT_FLOAT"}}}, {"name": "Pad_22", "op": "Pad", "input": ["Relu_21", "Const_730"], "attr": {"T": {"type": "DT_FLOAT"}, "Tpaddings": {"type": "DT_INT32"}}}, {"name": "transpose_68", "op": "Transpose", "input": ["Pad_22", "transpose_1/perm"], "attr": {"Tperm": {"type": "DT_INT32"}, "T": {"type": "DT_FLOAT"}}}, {"name": "convolution_21", "op": "Conv2D", "input": ["transpose_68", "split_42"], "attr": {"data_format": {"s": "TkhXQw=="}, "strides": {"list": {"i": ["1", "1", "1", "1"]}}, "explicit_paddings": {"list": {}}, "use_cudnn_on_gpu": {"b": true}, "padding": {"s": "VkFMSUQ="}, "dilations": {"list": {"i": ["1", "1", "1", "1"]}}, "T": {"type": "DT_FLOAT"}}}, {"name": "transpose_69", "op": "Transpose", "input": ["convolution_21", "transpose_2/perm"], "attr": {"Tperm": {"type": "DT_INT32"}, "T": {"type": "DT_FLOAT"}}}, {"name": "concat_33", "op": "ConcatV2", "input": ["transpose_45", "transpose_51", "transpose_57", "transpose_63", "transpose_69", "concat_4/axis"], "attr": {"T": {"type": "DT_FLOAT"}, "N": {"i": "5"}, "Tidx": {"type": "DT_INT32"}}}, {"name": "batchnorm_22/mul_1", "op": "Mul", "input": ["batchnorm_22/mul", "concat_33"], "attr": {"T": {"type": "DT_FLOAT"}}}, {"name": "batchnorm_22/add_1", "op": "Add", "input": ["batchnorm_22/mul_1", "batchnorm_22/sub"], "attr": {"T": {"type": "DT_FLOAT"}}}, {"name": "Relu_22", "op": "Relu", "input": ["batchnorm_22/add_1"], "attr": {"T": {"type": "DT_FLOAT"}}}, {"name": "transpose_71", "op": "Transpose", "input": ["Relu_22", "transpose_1/perm"], "attr": {"T": {"type": "DT_FLOAT"}, "Tperm": {"type": "DT_INT32"}}}, {"name": "convolution_22", "op": "Conv2D", "input": ["transpose_71", "split_44"], "attr": {"dilations": {"list": {"i": ["1", "1", "1", "1"]}}, "T": {"type": "DT_FLOAT"}, "strides": {"list": {"i": ["1", "1", "1", "1"]}}, "data_format": {"s": "TkhXQw=="}, "explicit_paddings": {"list": {}}, "use_cudnn_on_gpu": {"b": true}, "padding": {"s": "VkFMSUQ="}}}, {"name": "transpose_72", "op": "Transpose", "input": ["convolution_22", "transpose_2/perm"], "attr": {"Tperm": {"type": "DT_INT32"}, "T": {"type": "DT_FLOAT"}}}, {"name": "batchnorm_23/mul_1", "op": "Mul", "input": ["batchnorm_23/mul", "transpose_72"], "attr": {"T": {"type": "DT_FLOAT"}}}, {"name": "batchnorm_23/add_1", "op": "Add", "input": ["batchnorm_23/mul_1", "batchnorm_23/sub"], "attr": {"T": {"type": "DT_FLOAT"}}}, {"name": "Relu_23", "op": "Relu", "input": ["batchnorm_23/add_1"], "attr": {"T": {"type": "DT_FLOAT"}}}, {"name": "Pad_24", "op": "Pad", "input": ["Relu_23", "Const_730"], "attr": {"T": {"type": "DT_FLOAT"}, "Tpaddings": {"type": "DT_INT32"}}}, {"name": "transpose_74", "op": "Transpose", "input": ["Pad_24", "transpose_1/perm"], "attr": {"T": {"type": "DT_FLOAT"}, "Tperm": {"type": "DT_INT32"}}}, {"name": "convolution_23", "op": "Conv2D", "input": ["transpose_74", "split_46"], "attr": {"T": {"type": "DT_FLOAT"}, "strides": {"list": {"i": ["1", "1", "1", "1"]}}, "data_format": {"s": "TkhXQw=="}, "use_cudnn_on_gpu": {"b": true}, "explicit_paddings": {"list": {}}, "padding": {"s": "VkFMSUQ="}, "dilations": {"list": {"i": ["1", "1", "1", "1"]}}}}, {"name": "transpose_75", "op": "Transpose", "input": ["convolution_23", "transpose_2/perm"], "attr": {"Tperm": {"type": "DT_INT32"}, "T": {"type": "DT_FLOAT"}}}, {"name": "concat_36", "op": "ConcatV2", "input": ["transpose_45", "transpose_51", "transpose_57", "transpose_63", "transpose_69", "transpose_75", "concat_4/axis"], "attr": {"T": {"type": "DT_FLOAT"}, "N": {"i": "6"}, "Tidx": {"type": "DT_INT32"}}}, {"name": "batchnorm_24/mul_1", "op": "Mul", "input": ["batchnorm_24/mul", "concat_36"], "attr": {"T": {"type": "DT_FLOAT"}}}, {"name": "batchnorm_24/add_1", "op": "Add", "input": ["batchnorm_24/mul_1", "batchnorm_24/sub"], "attr": {"T": {"type": "DT_FLOAT"}}}, {"name": "Relu_24", "op": "Relu", "input": ["batchnorm_24/add_1"], "attr": {"T": {"type": "DT_FLOAT"}}}, {"name": "transpose_77", "op": "Transpose", "input": ["Relu_24", "transpose_1/perm"], "attr": {"T": {"type": "DT_FLOAT"}, "Tperm": {"type": "DT_INT32"}}}, {"name": "convolution_24", "op": "Conv2D", "input": ["transpose_77", "split_48"], "attr": {"T": {"type": "DT_FLOAT"}, "data_format": {"s": "TkhXQw=="}, "strides": {"list": {"i": ["1", "1", "1", "1"]}}, "use_cudnn_on_gpu": {"b": true}, "explicit_paddings": {"list": {}}, "padding": {"s": "VkFMSUQ="}, "dilations": {"list": {"i": ["1", "1", "1", "1"]}}}}, {"name": "transpose_78", "op": "Transpose", "input": ["convolution_24", "transpose_2/perm"], "attr": {"T": {"type": "DT_FLOAT"}, "Tperm": {"type": "DT_INT32"}}}, {"name": "batchnorm_25/mul_1", "op": "Mul", "input": ["batchnorm_25/mul", "transpose_78"], "attr": {"T": {"type": "DT_FLOAT"}}}, {"name": "batchnorm_25/add_1", "op": "Add", "input": ["batchnorm_25/mul_1", "batchnorm_25/sub"], "attr": {"T": {"type": "DT_FLOAT"}}}, {"name": "Relu_25", "op": "Relu", "input": ["batchnorm_25/add_1"], "attr": {"T": {"type": "DT_FLOAT"}}}, {"name": "Pad_26", "op": "Pad", "input": ["Relu_25", "Const_730"], "attr": {"T": {"type": "DT_FLOAT"}, "Tpaddings": {"type": "DT_INT32"}}}, {"name": "transpose_80", "op": "Transpose", "input": ["Pad_26", "transpose_1/perm"], "attr": {"Tperm": {"type": "DT_INT32"}, "T": {"type": "DT_FLOAT"}}}, {"name": "convolution_25", "op": "Conv2D", "input": ["transpose_80", "split_50"], "attr": {"padding": {"s": "VkFMSUQ="}, "dilations": {"list": {"i": ["1", "1", "1", "1"]}}, "T": {"type": "DT_FLOAT"}, "strides": {"list": {"i": ["1", "1", "1", "1"]}}, "data_format": {"s": "TkhXQw=="}, "use_cudnn_on_gpu": {"b": true}, "explicit_paddings": {"list": {}}}}, {"name": "transpose_81", "op": "Transpose", "input": ["convolution_25", "transpose_2/perm"], "attr": {"T": {"type": "DT_FLOAT"}, "Tperm": {"type": "DT_INT32"}}}, {"name": "concat_39", "op": "ConcatV2", "input": ["transpose_45", "transpose_51", "transpose_57", "transpose_63", "transpose_69", "transpose_75", "transpose_81", "concat_4/axis"], "attr": {"T": {"type": "DT_FLOAT"}, "N": {"i": "7"}, "Tidx": {"type": "DT_INT32"}}}, {"name": "batchnorm_26/mul_1", "op": "Mul", "input": ["batchnorm_26/mul", "concat_39"], "attr": {"T": {"type": "DT_FLOAT"}}}, {"name": "batchnorm_26/add_1", "op": "Add", "input": ["batchnorm_26/mul_1", "batchnorm_26/sub"], "attr": {"T": {"type": "DT_FLOAT"}}}, {"name": "Relu_26", "op": "Relu", "input": ["batchnorm_26/add_1"], "attr": {"T": {"type": "DT_FLOAT"}}}, {"name": "transpose_83", "op": "Transpose", "input": ["Relu_26", "transpose_1/perm"], "attr": {"T": {"type": "DT_FLOAT"}, "Tperm": {"type": "DT_INT32"}}}, {"name": "convolution_26", "op": "Conv2D", "input": ["transpose_83", "split_52"], "attr": {"dilations": {"list": {"i": ["1", "1", "1", "1"]}}, "T": {"type": "DT_FLOAT"}, "strides": {"list": {"i": ["1", "1", "1", "1"]}}, "data_format": {"s": "TkhXQw=="}, "use_cudnn_on_gpu": {"b": true}, "explicit_paddings": {"list": {}}, "padding": {"s": "VkFMSUQ="}}}, {"name": "transpose_84", "op": "Transpose", "input": ["convolution_26", "transpose_2/perm"], "attr": {"Tperm": {"type": "DT_INT32"}, "T": {"type": "DT_FLOAT"}}}, {"name": "batchnorm_27/mul_1", "op": "Mul", "input": ["batchnorm_27/mul", "transpose_84"], "attr": {"T": {"type": "DT_FLOAT"}}}, {"name": "batchnorm_27/add_1", "op": "Add", "input": ["batchnorm_27/mul_1", "batchnorm_27/sub"], "attr": {"T": {"type": "DT_FLOAT"}}}, {"name": "Relu_27", "op": "Relu", "input": ["batchnorm_27/add_1"], "attr": {"T": {"type": "DT_FLOAT"}}}, {"name": "Pad_28", "op": "Pad", "input": ["Relu_27", "Const_730"], "attr": {"Tpaddings": {"type": "DT_INT32"}, "T": {"type": "DT_FLOAT"}}}, {"name": "transpose_86", "op": "Transpose", "input": ["Pad_28", "transpose_1/perm"], "attr": {"T": {"type": "DT_FLOAT"}, "Tperm": {"type": "DT_INT32"}}}, {"name": "convolution_27", "op": "Conv2D", "input": ["transpose_86", "split_54"], "attr": {"T": {"type": "DT_FLOAT"}, "data_format": {"s": "TkhXQw=="}, "strides": {"list": {"i": ["1", "1", "1", "1"]}}, "explicit_paddings": {"list": {}}, "use_cudnn_on_gpu": {"b": true}, "padding": {"s": "VkFMSUQ="}, "dilations": {"list": {"i": ["1", "1", "1", "1"]}}}}, {"name": "transpose_87", "op": "Transpose", "input": ["convolution_27", "transpose_2/perm"], "attr": {"Tperm": {"type": "DT_INT32"}, "T": {"type": "DT_FLOAT"}}}, {"name": "concat_42", "op": "ConcatV2", "input": ["transpose_45", "transpose_51", "transpose_57", "transpose_63", "transpose_69", "transpose_75", "transpose_81", "transpose_87", "concat_4/axis"], "attr": {"Tidx": {"type": "DT_INT32"}, "T": {"type": "DT_FLOAT"}, "N": {"i": "8"}}}, {"name": "batchnorm_28/mul_1", "op": "Mul", "input": ["batchnorm_28/mul", "concat_42"], "attr": {"T": {"type": "DT_FLOAT"}}}, {"name": "batchnorm_28/add_1", "op": "Add", "input": ["batchnorm_28/mul_1", "batchnorm_28/sub"], "attr": {"T": {"type": "DT_FLOAT"}}}, {"name": "Relu_28", "op": "Relu", "input": ["batchnorm_28/add_1"], "attr": {"T": {"type": "DT_FLOAT"}}}, {"name": "transpose_89", "op": "Transpose", "input": ["Relu_28", "transpose_1/perm"], "attr": {"Tperm": {"type": "DT_INT32"}, "T": {"type": "DT_FLOAT"}}}, {"name": "convolution_28", "op": "Conv2D", "input": ["transpose_89", "split_56"], "attr": {"padding": {"s": "VkFMSUQ="}, "dilations": {"list": {"i": ["1", "1", "1", "1"]}}, "T": {"type": "DT_FLOAT"}, "data_format": {"s": "TkhXQw=="}, "strides": {"list": {"i": ["1", "1", "1", "1"]}}, "explicit_paddings": {"list": {}}, "use_cudnn_on_gpu": {"b": true}}}, {"name": "transpose_90", "op": "Transpose", "input": ["convolution_28", "transpose_2/perm"], "attr": {"T": {"type": "DT_FLOAT"}, "Tperm": {"type": "DT_INT32"}}}, {"name": "batchnorm_29/mul_1", "op": "Mul", "input": ["batchnorm_29/mul", "transpose_90"], "attr": {"T": {"type": "DT_FLOAT"}}}, {"name": "batchnorm_29/add_1", "op": "Add", "input": ["batchnorm_29/mul_1", "batchnorm_29/sub"], "attr": {"T": {"type": "DT_FLOAT"}}}, {"name": "Relu_29", "op": "Relu", "input": ["batchnorm_29/add_1"], "attr": {"T": {"type": "DT_FLOAT"}}}, {"name": "Pad_30", "op": "Pad", "input": ["Relu_29", "Const_730"], "attr": {"T": {"type": "DT_FLOAT"}, "Tpaddings": {"type": "DT_INT32"}}}, {"name": "transpose_92", "op": "Transpose", "input": ["Pad_30", "transpose_1/perm"], "attr": {"T": {"type": "DT_FLOAT"}, "Tperm": {"type": "DT_INT32"}}}, {"name": "convolution_29", "op": "Conv2D", "input": ["transpose_92", "split_58"], "attr": {"dilations": {"list": {"i": ["1", "1", "1", "1"]}}, "T": {"type": "DT_FLOAT"}, "data_format": {"s": "TkhXQw=="}, "strides": {"list": {"i": ["1", "1", "1", "1"]}}, "explicit_paddings": {"list": {}}, "use_cudnn_on_gpu": {"b": true}, "padding": {"s": "VkFMSUQ="}}}, {"name": "transpose_93", "op": "Transpose", "input": ["convolution_29", "transpose_2/perm"], "attr": {"Tperm": {"type": "DT_INT32"}, "T": {"type": "DT_FLOAT"}}}, {"name": "concat_45", "op": "ConcatV2", "input": ["transpose_45", "transpose_51", "transpose_57", "transpose_63", "transpose_69", "transpose_75", "transpose_81", "transpose_87", "transpose_93", "concat_4/axis"], "attr": {"N": {"i": "9"}, "Tidx": {"type": "DT_INT32"}, "T": {"type": "DT_FLOAT"}}}, {"name": "batchnorm_30/mul_1", "op": "Mul", "input": ["batchnorm_30/mul", "concat_45"], "attr": {"T": {"type": "DT_FLOAT"}}}, {"name": "batchnorm_30/add_1", "op": "Add", "input": ["batchnorm_30/mul_1", "batchnorm_30/sub"], "attr": {"T": {"type": "DT_FLOAT"}}}, {"name": "Relu_30", "op": "Relu", "input": ["batchnorm_30/add_1"], "attr": {"T": {"type": "DT_FLOAT"}}}, {"name": "transpose_95", "op": "Transpose", "input": ["Relu_30", "transpose_1/perm"], "attr": {"Tperm": {"type": "DT_INT32"}, "T": {"type": "DT_FLOAT"}}}, {"name": "convolution_30", "op": "Conv2D", "input": ["transpose_95", "split_60"], "attr": {"dilations": {"list": {"i": ["1", "1", "1", "1"]}}, "T": {"type": "DT_FLOAT"}, "data_format": {"s": "TkhXQw=="}, "strides": {"list": {"i": ["1", "1", "1", "1"]}}, "explicit_paddings": {"list": {}}, "use_cudnn_on_gpu": {"b": true}, "padding": {"s": "VkFMSUQ="}}}, {"name": "transpose_96", "op": "Transpose", "input": ["convolution_30", "transpose_2/perm"], "attr": {"T": {"type": "DT_FLOAT"}, "Tperm": {"type": "DT_INT32"}}}, {"name": "batchnorm_31/mul_1", "op": "Mul", "input": ["batchnorm_31/mul", "transpose_96"], "attr": {"T": {"type": "DT_FLOAT"}}}, {"name": "batchnorm_31/add_1", "op": "Add", "input": ["batchnorm_31/mul_1", "batchnorm_31/sub"], "attr": {"T": {"type": "DT_FLOAT"}}}, {"name": "Relu_31", "op": "Relu", "input": ["batchnorm_31/add_1"], "attr": {"T": {"type": "DT_FLOAT"}}}, {"name": "Pad_32", "op": "Pad", "input": ["Relu_31", "Const_730"], "attr": {"T": {"type": "DT_FLOAT"}, "Tpaddings": {"type": "DT_INT32"}}}, {"name": "transpose_98", "op": "Transpose", "input": ["Pad_32", "transpose_1/perm"], "attr": {"T": {"type": "DT_FLOAT"}, "Tperm": {"type": "DT_INT32"}}}, {"name": "convolution_31", "op": "Conv2D", "input": ["transpose_98", "split_62"], "attr": {"padding": {"s": "VkFMSUQ="}, "dilations": {"list": {"i": ["1", "1", "1", "1"]}}, "T": {"type": "DT_FLOAT"}, "strides": {"list": {"i": ["1", "1", "1", "1"]}}, "data_format": {"s": "TkhXQw=="}, "explicit_paddings": {"list": {}}, "use_cudnn_on_gpu": {"b": true}}}, {"name": "transpose_99", "op": "Transpose", "input": ["convolution_31", "transpose_2/perm"], "attr": {"T": {"type": "DT_FLOAT"}, "Tperm": {"type": "DT_INT32"}}}, {"name": "concat_48", "op": "ConcatV2", "input": ["transpose_45", "transpose_51", "transpose_57", "transpose_63", "transpose_69", "transpose_75", "transpose_81", "transpose_87", "transpose_93", "transpose_99", "concat_4/axis"], "attr": {"Tidx": {"type": "DT_INT32"}, "T": {"type": "DT_FLOAT"}, "N": {"i": "10"}}}, {"name": "batchnorm_32/mul_1", "op": "Mul", "input": ["batchnorm_32/mul", "concat_48"], "attr": {"T": {"type": "DT_FLOAT"}}}, {"name": "batchnorm_32/add_1", "op": "Add", "input": ["batchnorm_32/mul_1", "batchnorm_32/sub"], "attr": {"T": {"type": "DT_FLOAT"}}}, {"name": "Relu_32", "op": "Relu", "input": ["batchnorm_32/add_1"], "attr": {"T": {"type": "DT_FLOAT"}}}, {"name": "transpose_101", "op": "Transpose", "input": ["Relu_32", "transpose_1/perm"], "attr": {"T": {"type": "DT_FLOAT"}, "Tperm": {"type": "DT_INT32"}}}, {"name": "convolution_32", "op": "Conv2D", "input": ["transpose_101", "split_64"], "attr": {"dilations": {"list": {"i": ["1", "1", "1", "1"]}}, "T": {"type": "DT_FLOAT"}, "strides": {"list": {"i": ["1", "1", "1", "1"]}}, "data_format": {"s": "TkhXQw=="}, "use_cudnn_on_gpu": {"b": true}, "explicit_paddings": {"list": {}}, "padding": {"s": "VkFMSUQ="}}}, {"name": "transpose_102", "op": "Transpose", "input": ["convolution_32", "transpose_2/perm"], "attr": {"Tperm": {"type": "DT_INT32"}, "T": {"type": "DT_FLOAT"}}}, {"name": "batchnorm_33/mul_1", "op": "Mul", "input": ["batchnorm_33/mul", "transpose_102"], "attr": {"T": {"type": "DT_FLOAT"}}}, {"name": "batchnorm_33/add_1", "op": "Add", "input": ["batchnorm_33/mul_1", "batchnorm_33/sub"], "attr": {"T": {"type": "DT_FLOAT"}}}, {"name": "Relu_33", "op": "Relu", "input": ["batchnorm_33/add_1"], "attr": {"T": {"type": "DT_FLOAT"}}}, {"name": "Pad_34", "op": "Pad", "input": ["Relu_33", "Const_730"], "attr": {"T": {"type": "DT_FLOAT"}, "Tpaddings": {"type": "DT_INT32"}}}, {"name": "transpose_104", "op": "Transpose", "input": ["Pad_34", "transpose_1/perm"], "attr": {"T": {"type": "DT_FLOAT"}, "Tperm": {"type": "DT_INT32"}}}, {"name": "convolution_33", "op": "Conv2D", "input": ["transpose_104", "split_66"], "attr": {"dilations": {"list": {"i": ["1", "1", "1", "1"]}}, "T": {"type": "DT_FLOAT"}, "strides": {"list": {"i": ["1", "1", "1", "1"]}}, "data_format": {"s": "TkhXQw=="}, "explicit_paddings": {"list": {}}, "use_cudnn_on_gpu": {"b": true}, "padding": {"s": "VkFMSUQ="}}}, {"name": "transpose_105", "op": "Transpose", "input": ["convolution_33", "transpose_2/perm"], "attr": {"T": {"type": "DT_FLOAT"}, "Tperm": {"type": "DT_INT32"}}}, {"name": "concat_51", "op": "ConcatV2", "input": ["transpose_45", "transpose_51", "transpose_57", "transpose_63", "transpose_69", "transpose_75", "transpose_81", "transpose_87", "transpose_93", "transpose_99", "transpose_105", "concat_4/axis"], "attr": {"T": {"type": "DT_FLOAT"}, "N": {"i": "11"}, "Tidx": {"type": "DT_INT32"}}}, {"name": "batchnorm_34/mul_1", "op": "Mul", "input": ["batchnorm_34/mul", "concat_51"], "attr": {"T": {"type": "DT_FLOAT"}}}, {"name": "batchnorm_34/add_1", "op": "Add", "input": ["batchnorm_34/mul_1", "batchnorm_34/sub"], "attr": {"T": {"type": "DT_FLOAT"}}}, {"name": "Relu_34", "op": "Relu", "input": ["batchnorm_34/add_1"], "attr": {"T": {"type": "DT_FLOAT"}}}, {"name": "transpose_107", "op": "Transpose", "input": ["Relu_34", "transpose_1/perm"], "attr": {"Tperm": {"type": "DT_INT32"}, "T": {"type": "DT_FLOAT"}}}, {"name": "convolution_34", "op": "Conv2D", "input": ["transpose_107", "split_68"], "attr": {"T": {"type": "DT_FLOAT"}, "data_format": {"s": "TkhXQw=="}, "strides": {"list": {"i": ["1", "1", "1", "1"]}}, "explicit_paddings": {"list": {}}, "use_cudnn_on_gpu": {"b": true}, "padding": {"s": "VkFMSUQ="}, "dilations": {"list": {"i": ["1", "1", "1", "1"]}}}}, {"name": "transpose_108", "op": "Transpose", "input": ["convolution_34", "transpose_2/perm"], "attr": {"T": {"type": "DT_FLOAT"}, "Tperm": {"type": "DT_INT32"}}}, {"name": "batchnorm_35/mul_1", "op": "Mul", "input": ["batchnorm_35/mul", "transpose_108"], "attr": {"T": {"type": "DT_FLOAT"}}}, {"name": "batchnorm_35/add_1", "op": "Add", "input": ["batchnorm_35/mul_1", "batchnorm_35/sub"], "attr": {"T": {"type": "DT_FLOAT"}}}, {"name": "Relu_35", "op": "Relu", "input": ["batchnorm_35/add_1"], "attr": {"T": {"type": "DT_FLOAT"}}}, {"name": "Pad_36", "op": "Pad", "input": ["Relu_35", "Const_730"], "attr": {"T": {"type": "DT_FLOAT"}, "Tpaddings": {"type": "DT_INT32"}}}, {"name": "transpose_110", "op": "Transpose", "input": ["Pad_36", "transpose_1/perm"], "attr": {"T": {"type": "DT_FLOAT"}, "Tperm": {"type": "DT_INT32"}}}, {"name": "convolution_35", "op": "Conv2D", "input": ["transpose_110", "split_70"], "attr": {"dilations": {"list": {"i": ["1", "1", "1", "1"]}}, "T": {"type": "DT_FLOAT"}, "data_format": {"s": "TkhXQw=="}, "strides": {"list": {"i": ["1", "1", "1", "1"]}}, "use_cudnn_on_gpu": {"b": true}, "explicit_paddings": {"list": {}}, "padding": {"s": "VkFMSUQ="}}}, {"name": "transpose_111", "op": "Transpose", "input": ["convolution_35", "transpose_2/perm"], "attr": {"Tperm": {"type": "DT_INT32"}, "T": {"type": "DT_FLOAT"}}}, {"name": "concat_54", "op": "ConcatV2", "input": ["transpose_45", "transpose_51", "transpose_57", "transpose_63", "transpose_69", "transpose_75", "transpose_81", "transpose_87", "transpose_93", "transpose_99", "transpose_105", "transpose_111", "concat_4/axis"], "attr": {"T": {"type": "DT_FLOAT"}, "N": {"i": "12"}, "Tidx": {"type": "DT_INT32"}}}, {"name": "batchnorm_36/mul_1", "op": "Mul", "input": ["batchnorm_36/mul", "concat_54"], "attr": {"T": {"type": "DT_FLOAT"}}}, {"name": "batchnorm_36/add_1", "op": "Add", "input": ["batchnorm_36/mul_1", "batchnorm_36/sub"], "attr": {"T": {"type": "DT_FLOAT"}}}, {"name": "Relu_36", "op": "Relu", "input": ["batchnorm_36/add_1"], "attr": {"T": {"type": "DT_FLOAT"}}}, {"name": "transpose_113", "op": "Transpose", "input": ["Relu_36", "transpose_1/perm"], "attr": {"T": {"type": "DT_FLOAT"}, "Tperm": {"type": "DT_INT32"}}}, {"name": "convolution_36", "op": "Conv2D", "input": ["transpose_113", "split_72"], "attr": {"dilations": {"list": {"i": ["1", "1", "1", "1"]}}, "T": {"type": "DT_FLOAT"}, "strides": {"list": {"i": ["1", "1", "1", "1"]}}, "data_format": {"s": "TkhXQw=="}, "explicit_paddings": {"list": {}}, "use_cudnn_on_gpu": {"b": true}, "padding": {"s": "VkFMSUQ="}}}, {"name": "transpose_114", "op": "Transpose", "input": ["convolution_36", "transpose_2/perm"], "attr": {"T": {"type": "DT_FLOAT"}, "Tperm": {"type": "DT_INT32"}}}, {"name": "batchnorm_37/mul_1", "op": "Mul", "input": ["batchnorm_37/mul", "transpose_114"], "attr": {"T": {"type": "DT_FLOAT"}}}, {"name": "batchnorm_37/add_1", "op": "Add", "input": ["batchnorm_37/mul_1", "batchnorm_37/sub"], "attr": {"T": {"type": "DT_FLOAT"}}}, {"name": "Relu_37", "op": "Relu", "input": ["batchnorm_37/add_1"], "attr": {"T": {"type": "DT_FLOAT"}}}, {"name": "Pad_38", "op": "Pad", "input": ["Relu_37", "Const_730"], "attr": {"T": {"type": "DT_FLOAT"}, "Tpaddings": {"type": "DT_INT32"}}}, {"name": "transpose_116", "op": "Transpose", "input": ["Pad_38", "transpose_1/perm"], "attr": {"Tperm": {"type": "DT_INT32"}, "T": {"type": "DT_FLOAT"}}}, {"name": "convolution_37", "op": "Conv2D", "input": ["transpose_116", "split_74"], "attr": {"padding": {"s": "VkFMSUQ="}, "dilations": {"list": {"i": ["1", "1", "1", "1"]}}, "T": {"type": "DT_FLOAT"}, "strides": {"list": {"i": ["1", "1", "1", "1"]}}, "data_format": {"s": "TkhXQw=="}, "use_cudnn_on_gpu": {"b": true}, "explicit_paddings": {"list": {}}}}, {"name": "transpose_117", "op": "Transpose", "input": ["convolution_37", "transpose_2/perm"], "attr": {"Tperm": {"type": "DT_INT32"}, "T": {"type": "DT_FLOAT"}}}, {"name": "concat_57", "op": "ConcatV2", "input": ["transpose_45", "transpose_51", "transpose_57", "transpose_63", "transpose_69", "transpose_75", "transpose_81", "transpose_87", "transpose_93", "transpose_99", "transpose_105", "transpose_111", "transpose_117", "concat_4/axis"], "attr": {"N": {"i": "13"}, "Tidx": {"type": "DT_INT32"}, "T": {"type": "DT_FLOAT"}}}, {"name": "batchnorm_38/mul_1", "op": "Mul", "input": ["batchnorm_38/mul", "concat_57"], "attr": {"T": {"type": "DT_FLOAT"}}}, {"name": "batchnorm_38/add_1", "op": "Add", "input": ["batchnorm_38/mul_1", "batchnorm_38/sub"], "attr": {"T": {"type": "DT_FLOAT"}}}, {"name": "Relu_38", "op": "Relu", "input": ["batchnorm_38/add_1"], "attr": {"T": {"type": "DT_FLOAT"}}}, {"name": "transpose_119", "op": "Transpose", "input": ["Relu_38", "transpose_1/perm"], "attr": {"T": {"type": "DT_FLOAT"}, "Tperm": {"type": "DT_INT32"}}}, {"name": "convolution_38", "op": "Conv2D", "input": ["transpose_119", "split_76"], "attr": {"data_format": {"s": "TkhXQw=="}, "strides": {"list": {"i": ["1", "1", "1", "1"]}}, "explicit_paddings": {"list": {}}, "use_cudnn_on_gpu": {"b": true}, "padding": {"s": "VkFMSUQ="}, "dilations": {"list": {"i": ["1", "1", "1", "1"]}}, "T": {"type": "DT_FLOAT"}}}, {"name": "avg_pool_1", "op": "AvgPool", "input": ["convolution_38"], "attr": {"strides": {"list": {"i": ["1", "2", "2", "1"]}}, "data_format": {"s": "TkhXQw=="}, "ksize": {"list": {"i": ["1", "2", "2", "1"]}}, "padding": {"s": "VkFMSUQ="}, "T": {"type": "DT_FLOAT"}}}, {"name": "transpose_122", "op": "Transpose", "input": ["avg_pool_1", "transpose_2/perm"], "attr": {"Tperm": {"type": "DT_INT32"}, "T": {"type": "DT_FLOAT"}}}, {"name": "batchnorm_39/mul_1", "op": "Mul", "input": ["batchnorm_39/mul", "transpose_122"], "attr": {"T": {"type": "DT_FLOAT"}}}, {"name": "batchnorm_39/add_1", "op": "Add", "input": ["batchnorm_39/mul_1", "batchnorm_39/sub"], "attr": {"T": {"type": "DT_FLOAT"}}}, {"name": "Relu_39", "op": "Relu", "input": ["batchnorm_39/add_1"], "attr": {"T": {"type": "DT_FLOAT"}}}, {"name": "transpose_124", "op": "Transpose", "input": ["Relu_39", "transpose_1/perm"], "attr": {"T": {"type": "DT_FLOAT"}, "Tperm": {"type": "DT_INT32"}}}, {"name": "convolution_39", "op": "Conv2D", "input": ["transpose_124", "split_78"], "attr": {"padding": {"s": "VkFMSUQ="}, "dilations": {"list": {"i": ["1", "1", "1", "1"]}}, "T": {"type": "DT_FLOAT"}, "data_format": {"s": "TkhXQw=="}, "strides": {"list": {"i": ["1", "1", "1", "1"]}}, "use_cudnn_on_gpu": {"b": true}, "explicit_paddings": {"list": {}}}}, {"name": "transpose_125", "op": "Transpose", "input": ["convolution_39", "transpose_2/perm"], "attr": {"Tperm": {"type": "DT_INT32"}, "T": {"type": "DT_FLOAT"}}}, {"name": "batchnorm_40/mul_1", "op": "Mul", "input": ["batchnorm_40/mul", "transpose_125"], "attr": {"T": {"type": "DT_FLOAT"}}}, {"name": "batchnorm_40/add_1", "op": "Add", "input": ["batchnorm_40/mul_1", "batchnorm_40/sub"], "attr": {"T": {"type": "DT_FLOAT"}}}, {"name": "Relu_40", "op": "Relu", "input": ["batchnorm_40/add_1"], "attr": {"T": {"type": "DT_FLOAT"}}}, {"name": "Pad_41", "op": "Pad", "input": ["Relu_40", "Const_730"], "attr": {"T": {"type": "DT_FLOAT"}, "Tpaddings": {"type": "DT_INT32"}}}, {"name": "transpose_127", "op": "Transpose", "input": ["Pad_41", "transpose_1/perm"], "attr": {"T": {"type": "DT_FLOAT"}, "Tperm": {"type": "DT_INT32"}}}, {"name": "convolution_40", "op": "Conv2D", "input": ["transpose_127", "split_80"], "attr": {"dilations": {"list": {"i": ["1", "1", "1", "1"]}}, "T": {"type": "DT_FLOAT"}, "data_format": {"s": "TkhXQw=="}, "strides": {"list": {"i": ["1", "1", "1", "1"]}}, "explicit_paddings": {"list": {}}, "use_cudnn_on_gpu": {"b": true}, "padding": {"s": "VkFMSUQ="}}}, {"name": "transpose_128", "op": "Transpose", "input": ["convolution_40", "transpose_2/perm"], "attr": {"T": {"type": "DT_FLOAT"}, "Tperm": {"type": "DT_INT32"}}}, {"name": "concat_62", "op": "ConcatV2", "input": ["transpose_122", "transpose_128", "concat_4/axis"], "attr": {"N": {"i": "2"}, "Tidx": {"type": "DT_INT32"}, "T": {"type": "DT_FLOAT"}}}, {"name": "batchnorm_41/mul_1", "op": "Mul", "input": ["batchnorm_41/mul", "concat_62"], "attr": {"T": {"type": "DT_FLOAT"}}}, {"name": "batchnorm_41/add_1", "op": "Add", "input": ["batchnorm_41/mul_1", "batchnorm_41/sub"], "attr": {"T": {"type": "DT_FLOAT"}}}, {"name": "Relu_41", "op": "Relu", "input": ["batchnorm_41/add_1"], "attr": {"T": {"type": "DT_FLOAT"}}}, {"name": "transpose_130", "op": "Transpose", "input": ["Relu_41", "transpose_1/perm"], "attr": {"T": {"type": "DT_FLOAT"}, "Tperm": {"type": "DT_INT32"}}}, {"name": "convolution_41", "op": "Conv2D", "input": ["transpose_130", "split_82"], "attr": {"T": {"type": "DT_FLOAT"}, "data_format": {"s": "TkhXQw=="}, "strides": {"list": {"i": ["1", "1", "1", "1"]}}, "explicit_paddings": {"list": {}}, "use_cudnn_on_gpu": {"b": true}, "padding": {"s": "VkFMSUQ="}, "dilations": {"list": {"i": ["1", "1", "1", "1"]}}}}, {"name": "transpose_131", "op": "Transpose", "input": ["convolution_41", "transpose_2/perm"], "attr": {"Tperm": {"type": "DT_INT32"}, "T": {"type": "DT_FLOAT"}}}, {"name": "batchnorm_42/mul_1", "op": "Mul", "input": ["batchnorm_42/mul", "transpose_131"], "attr": {"T": {"type": "DT_FLOAT"}}}, {"name": "batchnorm_42/add_1", "op": "Add", "input": ["batchnorm_42/mul_1", "batchnorm_42/sub"], "attr": {"T": {"type": "DT_FLOAT"}}}, {"name": "Relu_42", "op": "Relu", "input": ["batchnorm_42/add_1"], "attr": {"T": {"type": "DT_FLOAT"}}}, {"name": "Pad_43", "op": "Pad", "input": ["Relu_42", "Const_730"], "attr": {"T": {"type": "DT_FLOAT"}, "Tpaddings": {"type": "DT_INT32"}}}, {"name": "transpose_133", "op": "Transpose", "input": ["Pad_43", "transpose_1/perm"], "attr": {"T": {"type": "DT_FLOAT"}, "Tperm": {"type": "DT_INT32"}}}, {"name": "convolution_42", "op": "Conv2D", "input": ["transpose_133", "split_84"], "attr": {"dilations": {"list": {"i": ["1", "1", "1", "1"]}}, "T": {"type": "DT_FLOAT"}, "strides": {"list": {"i": ["1", "1", "1", "1"]}}, "data_format": {"s": "TkhXQw=="}, "use_cudnn_on_gpu": {"b": true}, "explicit_paddings": {"list": {}}, "padding": {"s": "VkFMSUQ="}}}, {"name": "transpose_134", "op": "Transpose", "input": ["convolution_42", "transpose_2/perm"], "attr": {"T": {"type": "DT_FLOAT"}, "Tperm": {"type": "DT_INT32"}}}, {"name": "concat_65", "op": "ConcatV2", "input": ["transpose_122", "transpose_128", "transpose_134", "concat_4/axis"], "attr": {"Tidx": {"type": "DT_INT32"}, "T": {"type": "DT_FLOAT"}, "N": {"i": "3"}}}, {"name": "batchnorm_43/mul_1", "op": "Mul", "input": ["batchnorm_43/mul", "concat_65"], "attr": {"T": {"type": "DT_FLOAT"}}}, {"name": "batchnorm_43/add_1", "op": "Add", "input": ["batchnorm_43/mul_1", "batchnorm_43/sub"], "attr": {"T": {"type": "DT_FLOAT"}}}, {"name": "Relu_43", "op": "Relu", "input": ["batchnorm_43/add_1"], "attr": {"T": {"type": "DT_FLOAT"}}}, {"name": "transpose_136", "op": "Transpose", "input": ["Relu_43", "transpose_1/perm"], "attr": {"T": {"type": "DT_FLOAT"}, "Tperm": {"type": "DT_INT32"}}}, {"name": "convolution_43", "op": "Conv2D", "input": ["transpose_136", "split_86"], "attr": {"dilations": {"list": {"i": ["1", "1", "1", "1"]}}, "T": {"type": "DT_FLOAT"}, "data_format": {"s": "TkhXQw=="}, "strides": {"list": {"i": ["1", "1", "1", "1"]}}, "explicit_paddings": {"list": {}}, "use_cudnn_on_gpu": {"b": true}, "padding": {"s": "VkFMSUQ="}}}, {"name": "transpose_137", "op": "Transpose", "input": ["convolution_43", "transpose_2/perm"], "attr": {"Tperm": {"type": "DT_INT32"}, "T": {"type": "DT_FLOAT"}}}, {"name": "batchnorm_44/mul_1", "op": "Mul", "input": ["batchnorm_44/mul", "transpose_137"], "attr": {"T": {"type": "DT_FLOAT"}}}, {"name": "batchnorm_44/add_1", "op": "Add", "input": ["batchnorm_44/mul_1", "batchnorm_44/sub"], "attr": {"T": {"type": "DT_FLOAT"}}}, {"name": "Relu_44", "op": "Relu", "input": ["batchnorm_44/add_1"], "attr": {"T": {"type": "DT_FLOAT"}}}, {"name": "Pad_45", "op": "Pad", "input": ["Relu_44", "Const_730"], "attr": {"T": {"type": "DT_FLOAT"}, "Tpaddings": {"type": "DT_INT32"}}}, {"name": "transpose_139", "op": "Transpose", "input": ["Pad_45", "transpose_1/perm"], "attr": {"Tperm": {"type": "DT_INT32"}, "T": {"type": "DT_FLOAT"}}}, {"name": "convolution_44", "op": "Conv2D", "input": ["transpose_139", "split_88"], "attr": {"dilations": {"list": {"i": ["1", "1", "1", "1"]}}, "T": {"type": "DT_FLOAT"}, "data_format": {"s": "TkhXQw=="}, "strides": {"list": {"i": ["1", "1", "1", "1"]}}, "explicit_paddings": {"list": {}}, "use_cudnn_on_gpu": {"b": true}, "padding": {"s": "VkFMSUQ="}}}, {"name": "transpose_140", "op": "Transpose", "input": ["convolution_44", "transpose_2/perm"], "attr": {"T": {"type": "DT_FLOAT"}, "Tperm": {"type": "DT_INT32"}}}, {"name": "concat_68", "op": "ConcatV2", "input": ["transpose_122", "transpose_128", "transpose_134", "transpose_140", "concat_4/axis"], "attr": {"Tidx": {"type": "DT_INT32"}, "T": {"type": "DT_FLOAT"}, "N": {"i": "4"}}}, {"name": "batchnorm_45/mul_1", "op": "Mul", "input": ["batchnorm_45/mul", "concat_68"], "attr": {"T": {"type": "DT_FLOAT"}}}, {"name": "batchnorm_45/add_1", "op": "Add", "input": ["batchnorm_45/mul_1", "batchnorm_45/sub"], "attr": {"T": {"type": "DT_FLOAT"}}}, {"name": "Relu_45", "op": "Relu", "input": ["batchnorm_45/add_1"], "attr": {"T": {"type": "DT_FLOAT"}}}, {"name": "transpose_142", "op": "Transpose", "input": ["Relu_45", "transpose_1/perm"], "attr": {"T": {"type": "DT_FLOAT"}, "Tperm": {"type": "DT_INT32"}}}, {"name": "convolution_45", "op": "Conv2D", "input": ["transpose_142", "split_90"], "attr": {"dilations": {"list": {"i": ["1", "1", "1", "1"]}}, "T": {"type": "DT_FLOAT"}, "data_format": {"s": "TkhXQw=="}, "strides": {"list": {"i": ["1", "1", "1", "1"]}}, "use_cudnn_on_gpu": {"b": true}, "explicit_paddings": {"list": {}}, "padding": {"s": "VkFMSUQ="}}}, {"name": "transpose_143", "op": "Transpose", "input": ["convolution_45", "transpose_2/perm"], "attr": {"Tperm": {"type": "DT_INT32"}, "T": {"type": "DT_FLOAT"}}}, {"name": "batchnorm_46/mul_1", "op": "Mul", "input": ["batchnorm_46/mul", "transpose_143"], "attr": {"T": {"type": "DT_FLOAT"}}}, {"name": "batchnorm_46/add_1", "op": "Add", "input": ["batchnorm_46/mul_1", "batchnorm_46/sub"], "attr": {"T": {"type": "DT_FLOAT"}}}, {"name": "Relu_46", "op": "Relu", "input": ["batchnorm_46/add_1"], "attr": {"T": {"type": "DT_FLOAT"}}}, {"name": "Pad_47", "op": "Pad", "input": ["Relu_46", "Const_730"], "attr": {"Tpaddings": {"type": "DT_INT32"}, "T": {"type": "DT_FLOAT"}}}, {"name": "transpose_145", "op": "Transpose", "input": ["Pad_47", "transpose_1/perm"], "attr": {"T": {"type": "DT_FLOAT"}, "Tperm": {"type": "DT_INT32"}}}, {"name": "convolution_46", "op": "Conv2D", "input": ["transpose_145", "split_92"], "attr": {"dilations": {"list": {"i": ["1", "1", "1", "1"]}}, "T": {"type": "DT_FLOAT"}, "data_format": {"s": "TkhXQw=="}, "strides": {"list": {"i": ["1", "1", "1", "1"]}}, "use_cudnn_on_gpu": {"b": true}, "explicit_paddings": {"list": {}}, "padding": {"s": "VkFMSUQ="}}}, {"name": "transpose_146", "op": "Transpose", "input": ["convolution_46", "transpose_2/perm"], "attr": {"T": {"type": "DT_FLOAT"}, "Tperm": {"type": "DT_INT32"}}}, {"name": "concat_71", "op": "ConcatV2", "input": ["transpose_122", "transpose_128", "transpose_134", "transpose_140", "transpose_146", "concat_4/axis"], "attr": {"T": {"type": "DT_FLOAT"}, "N": {"i": "5"}, "Tidx": {"type": "DT_INT32"}}}, {"name": "batchnorm_47/mul_1", "op": "Mul", "input": ["batchnorm_47/mul", "concat_71"], "attr": {"T": {"type": "DT_FLOAT"}}}, {"name": "batchnorm_47/add_1", "op": "Add", "input": ["batchnorm_47/mul_1", "batchnorm_47/sub"], "attr": {"T": {"type": "DT_FLOAT"}}}, {"name": "Relu_47", "op": "Relu", "input": ["batchnorm_47/add_1"], "attr": {"T": {"type": "DT_FLOAT"}}}, {"name": "transpose_148", "op": "Transpose", "input": ["Relu_47", "transpose_1/perm"], "attr": {"T": {"type": "DT_FLOAT"}, "Tperm": {"type": "DT_INT32"}}}, {"name": "convolution_47", "op": "Conv2D", "input": ["transpose_148", "split_94"], "attr": {"dilations": {"list": {"i": ["1", "1", "1", "1"]}}, "T": {"type": "DT_FLOAT"}, "data_format": {"s": "TkhXQw=="}, "strides": {"list": {"i": ["1", "1", "1", "1"]}}, "explicit_paddings": {"list": {}}, "use_cudnn_on_gpu": {"b": true}, "padding": {"s": "VkFMSUQ="}}}, {"name": "transpose_149", "op": "Transpose", "input": ["convolution_47", "transpose_2/perm"], "attr": {"T": {"type": "DT_FLOAT"}, "Tperm": {"type": "DT_INT32"}}}, {"name": "batchnorm_48/mul_1", "op": "Mul", "input": ["batchnorm_48/mul", "transpose_149"], "attr": {"T": {"type": "DT_FLOAT"}}}, {"name": "batchnorm_48/add_1", "op": "Add", "input": ["batchnorm_48/mul_1", "batchnorm_48/sub"], "attr": {"T": {"type": "DT_FLOAT"}}}, {"name": "Relu_48", "op": "Relu", "input": ["batchnorm_48/add_1"], "attr": {"T": {"type": "DT_FLOAT"}}}, {"name": "Pad_49", "op": "Pad", "input": ["Relu_48", "Const_730"], "attr": {"T": {"type": "DT_FLOAT"}, "Tpaddings": {"type": "DT_INT32"}}}, {"name": "transpose_151", "op": "Transpose", "input": ["Pad_49", "transpose_1/perm"], "attr": {"T": {"type": "DT_FLOAT"}, "Tperm": {"type": "DT_INT32"}}}, {"name": "convolution_48", "op": "Conv2D", "input": ["transpose_151", "split_96"], "attr": {"dilations": {"list": {"i": ["1", "1", "1", "1"]}}, "T": {"type": "DT_FLOAT"}, "strides": {"list": {"i": ["1", "1", "1", "1"]}}, "data_format": {"s": "TkhXQw=="}, "explicit_paddings": {"list": {}}, "use_cudnn_on_gpu": {"b": true}, "padding": {"s": "VkFMSUQ="}}}, {"name": "transpose_152", "op": "Transpose", "input": ["convolution_48", "transpose_2/perm"], "attr": {"T": {"type": "DT_FLOAT"}, "Tperm": {"type": "DT_INT32"}}}, {"name": "concat_74", "op": "ConcatV2", "input": ["transpose_122", "transpose_128", "transpose_134", "transpose_140", "transpose_146", "transpose_152", "concat_4/axis"], "attr": {"T": {"type": "DT_FLOAT"}, "N": {"i": "6"}, "Tidx": {"type": "DT_INT32"}}}, {"name": "batchnorm_49/mul_1", "op": "Mul", "input": ["batchnorm_49/mul", "concat_74"], "attr": {"T": {"type": "DT_FLOAT"}}}, {"name": "batchnorm_49/add_1", "op": "Add", "input": ["batchnorm_49/mul_1", "batchnorm_49/sub"], "attr": {"T": {"type": "DT_FLOAT"}}}, {"name": "Relu_49", "op": "Relu", "input": ["batchnorm_49/add_1"], "attr": {"T": {"type": "DT_FLOAT"}}}, {"name": "transpose_154", "op": "Transpose", "input": ["Relu_49", "transpose_1/perm"], "attr": {"Tperm": {"type": "DT_INT32"}, "T": {"type": "DT_FLOAT"}}}, {"name": "convolution_49", "op": "Conv2D", "input": ["transpose_154", "split_98"], "attr": {"data_format": {"s": "TkhXQw=="}, "strides": {"list": {"i": ["1", "1", "1", "1"]}}, "explicit_paddings": {"list": {}}, "use_cudnn_on_gpu": {"b": true}, "padding": {"s": "VkFMSUQ="}, "dilations": {"list": {"i": ["1", "1", "1", "1"]}}, "T": {"type": "DT_FLOAT"}}}, {"name": "transpose_155", "op": "Transpose", "input": ["convolution_49", "transpose_2/perm"], "attr": {"Tperm": {"type": "DT_INT32"}, "T": {"type": "DT_FLOAT"}}}, {"name": "batchnorm_50/mul_1", "op": "Mul", "input": ["batchnorm_50/mul", "transpose_155"], "attr": {"T": {"type": "DT_FLOAT"}}}, {"name": "batchnorm_50/add_1", "op": "Add", "input": ["batchnorm_50/mul_1", "batchnorm_50/sub"], "attr": {"T": {"type": "DT_FLOAT"}}}, {"name": "Relu_50", "op": "Relu", "input": ["batchnorm_50/add_1"], "attr": {"T": {"type": "DT_FLOAT"}}}, {"name": "Pad_51", "op": "Pad", "input": ["Relu_50", "Const_730"], "attr": {"T": {"type": "DT_FLOAT"}, "Tpaddings": {"type": "DT_INT32"}}}, {"name": "transpose_157", "op": "Transpose", "input": ["Pad_51", "transpose_1/perm"], "attr": {"T": {"type": "DT_FLOAT"}, "Tperm": {"type": "DT_INT32"}}}, {"name": "convolution_50", "op": "Conv2D", "input": ["transpose_157", "split_100"], "attr": {"dilations": {"list": {"i": ["1", "1", "1", "1"]}}, "T": {"type": "DT_FLOAT"}, "data_format": {"s": "TkhXQw=="}, "strides": {"list": {"i": ["1", "1", "1", "1"]}}, "explicit_paddings": {"list": {}}, "use_cudnn_on_gpu": {"b": true}, "padding": {"s": "VkFMSUQ="}}}, {"name": "transpose_158", "op": "Transpose", "input": ["convolution_50", "transpose_2/perm"], "attr": {"T": {"type": "DT_FLOAT"}, "Tperm": {"type": "DT_INT32"}}}, {"name": "concat_77", "op": "ConcatV2", "input": ["transpose_122", "transpose_128", "transpose_134", "transpose_140", "transpose_146", "transpose_152", "transpose_158", "concat_4/axis"], "attr": {"T": {"type": "DT_FLOAT"}, "N": {"i": "7"}, "Tidx": {"type": "DT_INT32"}}}, {"name": "batchnorm_51/mul_1", "op": "Mul", "input": ["batchnorm_51/mul", "concat_77"], "attr": {"T": {"type": "DT_FLOAT"}}}, {"name": "batchnorm_51/add_1", "op": "Add", "input": ["batchnorm_51/mul_1", "batchnorm_51/sub"], "attr": {"T": {"type": "DT_FLOAT"}}}, {"name": "Relu_51", "op": "Relu", "input": ["batchnorm_51/add_1"], "attr": {"T": {"type": "DT_FLOAT"}}}, {"name": "transpose_160", "op": "Transpose", "input": ["Relu_51", "transpose_1/perm"], "attr": {"Tperm": {"type": "DT_INT32"}, "T": {"type": "DT_FLOAT"}}}, {"name": "convolution_51", "op": "Conv2D", "input": ["transpose_160", "split_102"], "attr": {"data_format": {"s": "TkhXQw=="}, "strides": {"list": {"i": ["1", "1", "1", "1"]}}, "explicit_paddings": {"list": {}}, "use_cudnn_on_gpu": {"b": true}, "padding": {"s": "VkFMSUQ="}, "dilations": {"list": {"i": ["1", "1", "1", "1"]}}, "T": {"type": "DT_FLOAT"}}}, {"name": "transpose_161", "op": "Transpose", "input": ["convolution_51", "transpose_2/perm"], "attr": {"T": {"type": "DT_FLOAT"}, "Tperm": {"type": "DT_INT32"}}}, {"name": "batchnorm_52/mul_1", "op": "Mul", "input": ["batchnorm_52/mul", "transpose_161"], "attr": {"T": {"type": "DT_FLOAT"}}}, {"name": "batchnorm_52/add_1", "op": "Add", "input": ["batchnorm_52/mul_1", "batchnorm_52/sub"], "attr": {"T": {"type": "DT_FLOAT"}}}, {"name": "Relu_52", "op": "Relu", "input": ["batchnorm_52/add_1"], "attr": {"T": {"type": "DT_FLOAT"}}}, {"name": "Pad_53", "op": "Pad", "input": ["Relu_52", "Const_730"], "attr": {"Tpaddings": {"type": "DT_INT32"}, "T": {"type": "DT_FLOAT"}}}, {"name": "transpose_163", "op": "Transpose", "input": ["Pad_53", "transpose_1/perm"], "attr": {"T": {"type": "DT_FLOAT"}, "Tperm": {"type": "DT_INT32"}}}, {"name": "convolution_52", "op": "Conv2D", "input": ["transpose_163", "split_104"], "attr": {"T": {"type": "DT_FLOAT"}, "strides": {"list": {"i": ["1", "1", "1", "1"]}}, "data_format": {"s": "TkhXQw=="}, "use_cudnn_on_gpu": {"b": true}, "explicit_paddings": {"list": {}}, "padding": {"s": "VkFMSUQ="}, "dilations": {"list": {"i": ["1", "1", "1", "1"]}}}}, {"name": "transpose_164", "op": "Transpose", "input": ["convolution_52", "transpose_2/perm"], "attr": {"Tperm": {"type": "DT_INT32"}, "T": {"type": "DT_FLOAT"}}}, {"name": "concat_80", "op": "ConcatV2", "input": ["transpose_122", "transpose_128", "transpose_134", "transpose_140", "transpose_146", "transpose_152", "transpose_158", "transpose_164", "concat_4/axis"], "attr": {"T": {"type": "DT_FLOAT"}, "N": {"i": "8"}, "Tidx": {"type": "DT_INT32"}}}, {"name": "batchnorm_53/mul_1", "op": "Mul", "input": ["batchnorm_53/mul", "concat_80"], "attr": {"T": {"type": "DT_FLOAT"}}}, {"name": "batchnorm_53/add_1", "op": "Add", "input": ["batchnorm_53/mul_1", "batchnorm_53/sub"], "attr": {"T": {"type": "DT_FLOAT"}}}, {"name": "Relu_53", "op": "Relu", "input": ["batchnorm_53/add_1"], "attr": {"T": {"type": "DT_FLOAT"}}}, {"name": "transpose_166", "op": "Transpose", "input": ["Relu_53", "transpose_1/perm"], "attr": {"T": {"type": "DT_FLOAT"}, "Tperm": {"type": "DT_INT32"}}}, {"name": "convolution_53", "op": "Conv2D", "input": ["transpose_166", "split_106"], "attr": {"dilations": {"list": {"i": ["1", "1", "1", "1"]}}, "T": {"type": "DT_FLOAT"}, "data_format": {"s": "TkhXQw=="}, "strides": {"list": {"i": ["1", "1", "1", "1"]}}, "use_cudnn_on_gpu": {"b": true}, "explicit_paddings": {"list": {}}, "padding": {"s": "VkFMSUQ="}}}, {"name": "transpose_167", "op": "Transpose", "input": ["convolution_53", "transpose_2/perm"], "attr": {"Tperm": {"type": "DT_INT32"}, "T": {"type": "DT_FLOAT"}}}, {"name": "batchnorm_54/mul_1", "op": "Mul", "input": ["batchnorm_54/mul", "transpose_167"], "attr": {"T": {"type": "DT_FLOAT"}}}, {"name": "batchnorm_54/add_1", "op": "Add", "input": ["batchnorm_54/mul_1", "batchnorm_54/sub"], "attr": {"T": {"type": "DT_FLOAT"}}}, {"name": "Relu_54", "op": "Relu", "input": ["batchnorm_54/add_1"], "attr": {"T": {"type": "DT_FLOAT"}}}, {"name": "Pad_55", "op": "Pad", "input": ["Relu_54", "Const_730"], "attr": {"T": {"type": "DT_FLOAT"}, "Tpaddings": {"type": "DT_INT32"}}}, {"name": "transpose_169", "op": "Transpose", "input": ["Pad_55", "transpose_1/perm"], "attr": {"T": {"type": "DT_FLOAT"}, "Tperm": {"type": "DT_INT32"}}}, {"name": "convolution_54", "op": "Conv2D", "input": ["transpose_169", "split_108"], "attr": {"data_format": {"s": "TkhXQw=="}, "strides": {"list": {"i": ["1", "1", "1", "1"]}}, "use_cudnn_on_gpu": {"b": true}, "explicit_paddings": {"list": {}}, "padding": {"s": "VkFMSUQ="}, "dilations": {"list": {"i": ["1", "1", "1", "1"]}}, "T": {"type": "DT_FLOAT"}}}, {"name": "transpose_170", "op": "Transpose", "input": ["convolution_54", "transpose_2/perm"], "attr": {"T": {"type": "DT_FLOAT"}, "Tperm": {"type": "DT_INT32"}}}, {"name": "concat_83", "op": "ConcatV2", "input": ["transpose_122", "transpose_128", "transpose_134", "transpose_140", "transpose_146", "transpose_152", "transpose_158", "transpose_164", "transpose_170", "concat_4/axis"], "attr": {"T": {"type": "DT_FLOAT"}, "N": {"i": "9"}, "Tidx": {"type": "DT_INT32"}}}, {"name": "batchnorm_55/mul_1", "op": "Mul", "input": ["batchnorm_55/mul", "concat_83"], "attr": {"T": {"type": "DT_FLOAT"}}}, {"name": "batchnorm_55/add_1", "op": "Add", "input": ["batchnorm_55/mul_1", "batchnorm_55/sub"], "attr": {"T": {"type": "DT_FLOAT"}}}, {"name": "Relu_55", "op": "Relu", "input": ["batchnorm_55/add_1"], "attr": {"T": {"type": "DT_FLOAT"}}}, {"name": "transpose_172", "op": "Transpose", "input": ["Relu_55", "transpose_1/perm"], "attr": {"Tperm": {"type": "DT_INT32"}, "T": {"type": "DT_FLOAT"}}}, {"name": "convolution_55", "op": "Conv2D", "input": ["transpose_172", "split_110"], "attr": {"padding": {"s": "VkFMSUQ="}, "dilations": {"list": {"i": ["1", "1", "1", "1"]}}, "T": {"type": "DT_FLOAT"}, "strides": {"list": {"i": ["1", "1", "1", "1"]}}, "data_format": {"s": "TkhXQw=="}, "use_cudnn_on_gpu": {"b": true}, "explicit_paddings": {"list": {}}}}, {"name": "transpose_173", "op": "Transpose", "input": ["convolution_55", "transpose_2/perm"], "attr": {"Tperm": {"type": "DT_INT32"}, "T": {"type": "DT_FLOAT"}}}, {"name": "batchnorm_56/mul_1", "op": "Mul", "input": ["batchnorm_56/mul", "transpose_173"], "attr": {"T": {"type": "DT_FLOAT"}}}, {"name": "batchnorm_56/add_1", "op": "Add", "input": ["batchnorm_56/mul_1", "batchnorm_56/sub"], "attr": {"T": {"type": "DT_FLOAT"}}}, {"name": "Relu_56", "op": "Relu", "input": ["batchnorm_56/add_1"], "attr": {"T": {"type": "DT_FLOAT"}}}, {"name": "Pad_57", "op": "Pad", "input": ["Relu_56", "C…
e_271", "transpose_277", "transpose_283", "transpose_289", "transpose_295", "transpose_301", "transpose_307", "transpose_313", "transpose_319", "concat_4/axis"], "attr": {"T": {"type": "DT_FLOAT"}, "N": {"i": "9"}, "Tidx": {"type": "DT_INT32"}}}, {"name": "batchnorm_104/mul_1", "op": "Mul", "input": ["batchnorm_104/mul", "concat_157"], "attr": {"T": {"type": "DT_FLOAT"}}}, {"name": "batchnorm_104/add_1", "op": "Add", "input": ["batchnorm_104/mul_1", "batchnorm_104/sub"], "attr": {"T": {"type": "DT_FLOAT"}}}, {"name": "Relu_104", "op": "Relu", "input": ["batchnorm_104/add_1"], "attr": {"T": {"type": "DT_FLOAT"}}}, {"name": "transpose_321", "op": "Transpose", "input": ["Relu_104", "transpose_1/perm"], "attr": {"T": {"type": "DT_FLOAT"}, "Tperm": {"type": "DT_INT32"}}}, {"name": "convolution_104", "op": "Conv2D", "input": ["transpose_321", "split_208"], "attr": {"T": {"type": "DT_FLOAT"}, "data_format": {"s": "TkhXQw=="}, "strides": {"list": {"i": ["1", "1", "1", "1"]}}, "use_cudnn_on_gpu": {"b": true}, "explicit_paddings": {"list": {}}, "padding": {"s": "VkFMSUQ="}, "dilations": {"list": {"i": ["1", "1", "1", "1"]}}}}, {"name": "transpose_322", "op": "Transpose", "input": ["convolution_104", "transpose_2/perm"], "attr": {"Tperm": {"type": "DT_INT32"}, "T": {"type": "DT_FLOAT"}}}, {"name": "batchnorm_105/mul_1", "op": "Mul", "input": ["batchnorm_105/mul", "transpose_322"], "attr": {"T": {"type": "DT_FLOAT"}}}, {"name": "batchnorm_105/add_1", "op": "Add", "input": ["batchnorm_105/mul_1", "batchnorm_105/sub"], "attr": {"T": {"type": "DT_FLOAT"}}}, {"name": "Relu_105", "op": "Relu", "input": ["batchnorm_105/add_1"], "attr": {"T": {"type": "DT_FLOAT"}}}, {"name": "Pad_106", "op": "Pad", "input": ["Relu_105", "Const_730"], "attr": {"T": {"type": "DT_FLOAT"}, "Tpaddings": {"type": "DT_INT32"}}}, {"name": "transpose_324", "op": "Transpose", "input": ["Pad_106", "transpose_1/perm"], "attr": {"T": {"type": "DT_FLOAT"}, "Tperm": {"type": "DT_INT32"}}}, {"name": "convolution_105", "op": "Conv2D", "input": ["transpose_324", "split_210"], "attr": {"dilations": {"list": {"i": ["1", "1", "1", "1"]}}, "T": {"type": "DT_FLOAT"}, "data_format": {"s": "TkhXQw=="}, "strides": {"list": {"i": ["1", "1", "1", "1"]}}, "explicit_paddings": {"list": {}}, "use_cudnn_on_gpu": {"b": true}, "padding": {"s": "VkFMSUQ="}}}, {"name": "transpose_325", "op": "Transpose", "input": ["convolution_105", "transpose_2/perm"], "attr": {"T": {"type": "DT_FLOAT"}, "Tperm": {"type": "DT_INT32"}}}, {"name": "concat_160", "op": "ConcatV2", "input": ["transpose_271", "transpose_277", "transpose_283", "transpose_289", "transpose_295", "transpose_301", "transpose_307", "transpose_313", "transpose_319", "transpose_325", "concat_4/axis"], "attr": {"Tidx": {"type": "DT_INT32"}, "T": {"type": "DT_FLOAT"}, "N": {"i": "10"}}}, {"name": "batchnorm_106/mul_1", "op": "Mul", "input": ["batchnorm_106/mul", "concat_160"], "attr": {"T": {"type": "DT_FLOAT"}}}, {"name": "batchnorm_106/add_1", "op": "Add", "input": ["batchnorm_106/mul_1", "batchnorm_106/sub"], "attr": {"T": {"type": "DT_FLOAT"}}}, {"name": "Relu_106", "op": "Relu", "input": ["batchnorm_106/add_1"], "attr": {"T": {"type": "DT_FLOAT"}}}, {"name": "transpose_327", "op": "Transpose", "input": ["Relu_106", "transpose_1/perm"], "attr": {"T": {"type": "DT_FLOAT"}, "Tperm": {"type": "DT_INT32"}}}, {"name": "convolution_106", "op": "Conv2D", "input": ["transpose_327", "split_212"], "attr": {"data_format": {"s": "TkhXQw=="}, "strides": {"list": {"i": ["1", "1", "1", "1"]}}, "explicit_paddings": {"list": {}}, "use_cudnn_on_gpu": {"b": true}, "padding": {"s": "VkFMSUQ="}, "dilations": {"list": {"i": ["1", "1", "1", "1"]}}, "T": {"type": "DT_FLOAT"}}}, {"name": "transpose_328", "op": "Transpose", "input": ["convolution_106", "transpose_2/perm"], "attr": {"T": {"type": "DT_FLOAT"}, "Tperm": {"type": "DT_INT32"}}}, {"name": "batchnorm_107/mul_1", "op": "Mul", "input": ["batchnorm_107/mul", "transpose_328"], "attr": {"T": {"type": "DT_FLOAT"}}}, {"name": "batchnorm_107/add_1", "op": "Add", "input": ["batchnorm_107/mul_1", "batchnorm_107/sub"], "attr": {"T": {"type": "DT_FLOAT"}}}, {"name": "Relu_107", "op": "Relu", "input": ["batchnorm_107/add_1"], "attr": {"T": {"type": "DT_FLOAT"}}}, {"name": "Pad_108", "op": "Pad", "input": ["Relu_107", "Const_730"], "attr": {"T": {"type": "DT_FLOAT"}, "Tpaddings": {"type": "DT_INT32"}}}, {"name": "transpose_330", "op": "Transpose", "input": ["Pad_108", "transpose_1/perm"], "attr": {"Tperm": {"type": "DT_INT32"}, "T": {"type": "DT_FLOAT"}}}, {"name": "convolution_107", "op": "Conv2D", "input": ["transpose_330", "split_214"], "attr": {"data_format": {"s": "TkhXQw=="}, "strides": {"list": {"i": ["1", "1", "1", "1"]}}, "use_cudnn_on_gpu": {"b": true}, "explicit_paddings": {"list": {}}, "padding": {"s": "VkFMSUQ="}, "dilations": {"list": {"i": ["1", "1", "1", "1"]}}, "T": {"type": "DT_FLOAT"}}}, {"name": "transpose_331", "op": "Transpose", "input": ["convolution_107", "transpose_2/perm"], "attr": {"T": {"type": "DT_FLOAT"}, "Tperm": {"type": "DT_INT32"}}}, {"name": "concat_163", "op": "ConcatV2", "input": ["transpose_271", "transpose_277", "transpose_283", "transpose_289", "transpose_295", "transpose_301", "transpose_307", "transpose_313", "transpose_319", "transpose_325", "transpose_331", "concat_4/axis"], "attr": {"N": {"i": "11"}, "Tidx": {"type": "DT_INT32"}, "T": {"type": "DT_FLOAT"}}}, {"name": "batchnorm_108/mul_1", "op": "Mul", "input": ["batchnorm_108/mul", "concat_163"], "attr": {"T": {"type": "DT_FLOAT"}}}, {"name": "batchnorm_108/add_1", "op": "Add", "input": ["batchnorm_108/mul_1", "batchnorm_108/sub"], "attr": {"T": {"type": "DT_FLOAT"}}}, {"name": "Relu_108", "op": "Relu", "input": ["batchnorm_108/add_1"], "attr": {"T": {"type": "DT_FLOAT"}}}, {"name": "transpose_333", "op": "Transpose", "input": ["Relu_108", "transpose_1/perm"], "attr": {"T": {"type": "DT_FLOAT"}, "Tperm": {"type": "DT_INT32"}}}, {"name": "convolution_108", "op": "Conv2D", "input": ["transpose_333", "split_216"], "attr": {"padding": {"s": "VkFMSUQ="}, "dilations": {"list": {"i": ["1", "1", "1", "1"]}}, "T": {"type": "DT_FLOAT"}, "strides": {"list": {"i": ["1", "1", "1", "1"]}}, "data_format": {"s": "TkhXQw=="}, "use_cudnn_on_gpu": {"b": true}, "explicit_paddings": {"list": {}}}}, {"name": "transpose_334", "op": "Transpose", "input": ["convolution_108", "transpose_2/perm"], "attr": {"Tperm": {"type": "DT_INT32"}, "T": {"type": "DT_FLOAT"}}}, {"name": "batchnorm_109/mul_1", "op": "Mul", "input": ["batchnorm_109/mul", "transpose_334"], "attr": {"T": {"type": "DT_FLOAT"}}}, {"name": "batchnorm_109/add_1", "op": "Add", "input": ["batchnorm_109/mul_1", "batchnorm_109/sub"], "attr": {"T": {"type": "DT_FLOAT"}}}, {"name": "Relu_109", "op": "Relu", "input": ["batchnorm_109/add_1"], "attr": {"T": {"type": "DT_FLOAT"}}}, {"name": "Pad_110", "op": "Pad", "input": ["Relu_109", "Const_730"], "attr": {"T": {"type": "DT_FLOAT"}, "Tpaddings": {"type": "DT_INT32"}}}, {"name": "transpose_336", "op": "Transpose", "input": ["Pad_110", "transpose_1/perm"], "attr": {"Tperm": {"type": "DT_INT32"}, "T": {"type": "DT_FLOAT"}}}, {"name": "convolution_109", "op": "Conv2D", "input": ["transpose_336", "split_218"], "attr": {"dilations": {"list": {"i": ["1", "1", "1", "1"]}}, "T": {"type": "DT_FLOAT"}, "data_format": {"s": "TkhXQw=="}, "strides": {"list": {"i": ["1", "1", "1", "1"]}}, "use_cudnn_on_gpu": {"b": true}, "explicit_paddings": {"list": {}}, "padding": {"s": "VkFMSUQ="}}}, {"name": "transpose_337", "op": "Transpose", "input": ["convolution_109", "transpose_2/perm"], "attr": {"T": {"type": "DT_FLOAT"}, "Tperm": {"type": "DT_INT32"}}}, {"name": "concat_166", "op": "ConcatV2", "input": ["transpose_271", "transpose_277", "transpose_283", "transpose_289", "transpose_295", "transpose_301", "transpose_307", "transpose_313", "transpose_319", "transpose_325", "transpose_331", "transpose_337", "concat_4/axis"], "attr": {"N": {"i": "12"}, "Tidx": {"type": "DT_INT32"}, "T": {"type": "DT_FLOAT"}}}, {"name": "batchnorm_110/mul_1", "op": "Mul", "input": ["batchnorm_110/mul", "concat_166"], "attr": {"T": {"type": "DT_FLOAT"}}}, {"name": "batchnorm_110/add_1", "op": "Add", "input": ["batchnorm_110/mul_1", "batchnorm_110/sub"], "attr": {"T": {"type": "DT_FLOAT"}}}, {"name": "Relu_110", "op": "Relu", "input": ["batchnorm_110/add_1"], "attr": {"T": {"type": "DT_FLOAT"}}}, {"name": "transpose_339", "op": "Transpose", "input": ["Relu_110", "transpose_1/perm"], "attr": {"T": {"type": "DT_FLOAT"}, "Tperm": {"type": "DT_INT32"}}}, {"name": "convolution_110", "op": "Conv2D", "input": ["transpose_339", "split_220"], "attr": {"padding": {"s": "VkFMSUQ="}, "dilations": {"list": {"i": ["1", "1", "1", "1"]}}, "T": {"type": "DT_FLOAT"}, "data_format": {"s": "TkhXQw=="}, "strides": {"list": {"i": ["1", "1", "1", "1"]}}, "use_cudnn_on_gpu": {"b": true}, "explicit_paddings": {"list": {}}}}, {"name": "transpose_340", "op": "Transpose", "input": ["convolution_110", "transpose_2/perm"], "attr": {"Tperm": {"type": "DT_INT32"}, "T": {"type": "DT_FLOAT"}}}, {"name": "batchnorm_111/mul_1", "op": "Mul", "input": ["batchnorm_111/mul", "transpose_340"], "attr": {"T": {"type": "DT_FLOAT"}}}, {"name": "batchnorm_111/add_1", "op": "Add", "input": ["batchnorm_111/mul_1", "batchnorm_111/sub"], "attr": {"T": {"type": "DT_FLOAT"}}}, {"name": "Relu_111", "op": "Relu", "input": ["batchnorm_111/add_1"], "attr": {"T": {"type": "DT_FLOAT"}}}, {"name": "Pad_112", "op": "Pad", "input": ["Relu_111", "Const_730"], "attr": {"T": {"type": "DT_FLOAT"}, "Tpaddings": {"type": "DT_INT32"}}}, {"name": "transpose_342", "op": "Transpose", "input": ["Pad_112", "transpose_1/perm"], "attr": {"Tperm": {"type": "DT_INT32"}, "T": {"type": "DT_FLOAT"}}}, {"name": "convolution_111", "op": "Conv2D", "input": ["transpose_342", "split_222"], "attr": {"dilations": {"list": {"i": ["1", "1", "1", "1"]}}, "T": {"type": "DT_FLOAT"}, "strides": {"list": {"i": ["1", "1", "1", "1"]}}, "data_format": {"s": "TkhXQw=="}, "explicit_paddings": {"list": {}}, "use_cudnn_on_gpu": {"b": true}, "padding": {"s": "VkFMSUQ="}}}, {"name": "transpose_343", "op": "Transpose", "input": ["convolution_111", "transpose_2/perm"], "attr": {"T": {"type": "DT_FLOAT"}, "Tperm": {"type": "DT_INT32"}}}, {"name": "concat_169", "op": "ConcatV2", "input": ["transpose_271", "transpose_277", "transpose_283", "transpose_289", "transpose_295", "transpose_301", "transpose_307", "transpose_313", "transpose_319", "transpose_325", "transpose_331", "transpose_337", "transpose_343", "concat_4/axis"], "attr": {"N": {"i": "13"}, "Tidx": {"type": "DT_INT32"}, "T": {"type": "DT_FLOAT"}}}, {"name": "batchnorm_112/mul_1", "op": "Mul", "input": ["batchnorm_112/mul", "concat_169"], "attr": {"T": {"type": "DT_FLOAT"}}}, {"name": "batchnorm_112/add_1", "op": "Add", "input": ["batchnorm_112/mul_1", "batchnorm_112/sub"], "attr": {"T": {"type": "DT_FLOAT"}}}, {"name": "Relu_112", "op": "Relu", "input": ["batchnorm_112/add_1"], "attr": {"T": {"type": "DT_FLOAT"}}}, {"name": "transpose_345", "op": "Transpose", "input": ["Relu_112", "transpose_1/perm"], "attr": {"Tperm": {"type": "DT_INT32"}, "T": {"type": "DT_FLOAT"}}}, {"name": "convolution_112", "op": "Conv2D", "input": ["transpose_345", "split_224"], "attr": {"dilations": {"list": {"i": ["1", "1", "1", "1"]}}, "T": {"type": "DT_FLOAT"}, "strides": {"list": {"i": ["1", "1", "1", "1"]}}, "data_format": {"s": "TkhXQw=="}, "explicit_paddings": {"list": {}}, "use_cudnn_on_gpu": {"b": true}, "padding": {"s": "VkFMSUQ="}}}, {"name": "transpose_346", "op": "Transpose", "input": ["convolution_112", "transpose_2/perm"], "attr": {"T": {"type": "DT_FLOAT"}, "Tperm": {"type": "DT_INT32"}}}, {"name": "batchnorm_113/mul_1", "op": "Mul", "input": ["batchnorm_113/mul", "transpose_346"], "attr": {"T": {"type": "DT_FLOAT"}}}, {"name": "batchnorm_113/add_1", "op": "Add", "input": ["batchnorm_113/mul_1", "batchnorm_113/sub"], "attr": {"T": {"type": "DT_FLOAT"}}}, {"name": "Relu_113", "op": "Relu", "input": ["batchnorm_113/add_1"], "attr": {"T": {"type": "DT_FLOAT"}}}, {"name": "Pad_114", "op": "Pad", "input": ["Relu_113", "Const_730"], "attr": {"T": {"type": "DT_FLOAT"}, "Tpaddings": {"type": "DT_INT32"}}}, {"name": "transpose_348", "op": "Transpose", "input": ["Pad_114", "transpose_1/perm"], "attr": {"Tperm": {"type": "DT_INT32"}, "T": {"type": "DT_FLOAT"}}}, {"name": "convolution_113", "op": "Conv2D", "input": ["transpose_348", "split_226"], "attr": {"dilations": {"list": {"i": ["1", "1", "1", "1"]}}, "T": {"type": "DT_FLOAT"}, "strides": {"list": {"i": ["1", "1", "1", "1"]}}, "data_format": {"s": "TkhXQw=="}, "use_cudnn_on_gpu": {"b": true}, "explicit_paddings": {"list": {}}, "padding": {"s": "VkFMSUQ="}}}, {"name": "transpose_349", "op": "Transpose", "input": ["convolution_113", "transpose_2/perm"], "attr": {"Tperm": {"type": "DT_INT32"}, "T": {"type": "DT_FLOAT"}}}, {"name": "concat_172", "op": "ConcatV2", "input": ["transpose_271", "transpose_277", "transpose_283", "transpose_289", "transpose_295", "transpose_301", "transpose_307", "transpose_313", "transpose_319", "transpose_325", "transpose_331", "transpose_337", "transpose_343", "transpose_349", "concat_4/axis"], "attr": {"N": {"i": "14"}, "Tidx": {"type": "DT_INT32"}, "T": {"type": "DT_FLOAT"}}}, {"name": "batchnorm_114/mul_1", "op": "Mul", "input": ["batchnorm_114/mul", "concat_172"], "attr": {"T": {"type": "DT_FLOAT"}}}, {"name": "batchnorm_114/add_1", "op": "Add", "input": ["batchnorm_114/mul_1", "batchnorm_114/sub"], "attr": {"T": {"type": "DT_FLOAT"}}}, {"name": "Relu_114", "op": "Relu", "input": ["batchnorm_114/add_1"], "attr": {"T": {"type": "DT_FLOAT"}}}, {"name": "transpose_351", "op": "Transpose", "input": ["Relu_114", "transpose_1/perm"], "attr": {"T": {"type": "DT_FLOAT"}, "Tperm": {"type": "DT_INT32"}}}, {"name": "convolution_114", "op": "Conv2D", "input": ["transpose_351", "split_228"], "attr": {"data_format": {"s": "TkhXQw=="}, "strides": {"list": {"i": ["1", "1", "1", "1"]}}, "explicit_paddings": {"list": {}}, "use_cudnn_on_gpu": {"b": true}, "padding": {"s": "VkFMSUQ="}, "dilations": {"list": {"i": ["1", "1", "1", "1"]}}, "T": {"type": "DT_FLOAT"}}}, {"name": "transpose_352", "op": "Transpose", "input": ["convolution_114", "transpose_2/perm"], "attr": {"Tperm": {"type": "DT_INT32"}, "T": {"type": "DT_FLOAT"}}}, {"name": "batchnorm_115/mul_1", "op": "Mul", "input": ["batchnorm_115/mul", "transpose_352"], "attr": {"T": {"type": "DT_FLOAT"}}}, {"name": "batchnorm_115/add_1", "op": "Add", "input": ["batchnorm_115/mul_1", "batchnorm_115/sub"], "attr": {"T": {"type": "DT_FLOAT"}}}, {"name": "Relu_115", "op": "Relu", "input": ["batchnorm_115/add_1"], "attr": {"T": {"type": "DT_FLOAT"}}}, {"name": "Pad_116", "op": "Pad", "input": ["Relu_115", "Const_730"], "attr": {"T": {"type": "DT_FLOAT"}, "Tpaddings": {"type": "DT_INT32"}}}, {"name": "transpose_354", "op": "Transpose", "input": ["Pad_116", "transpose_1/perm"], "attr": {"Tperm": {"type": "DT_INT32"}, "T": {"type": "DT_FLOAT"}}}, {"name": "convolution_115", "op": "Conv2D", "input": ["transpose_354", "split_230"], "attr": {"padding": {"s": "VkFMSUQ="}, "dilations": {"list": {"i": ["1", "1", "1", "1"]}}, "T": {"type": "DT_FLOAT"}, "data_format": {"s": "TkhXQw=="}, "strides": {"list": {"i": ["1", "1", "1", "1"]}}, "explicit_paddings": {"list": {}}, "use_cudnn_on_gpu": {"b": true}}}, {"name": "transpose_355", "op": "Transpose", "input": ["convolution_115", "transpose_2/perm"], "attr": {"T": {"type": "DT_FLOAT"}, "Tperm": {"type": "DT_INT32"}}}, {"name": "concat_175", "op": "ConcatV2", "input": ["transpose_271", "transpose_277", "transpose_283", "transpose_289", "transpose_295", "transpose_301", "transpose_307", "transpose_313", "transpose_319", "transpose_325", "transpose_331", "transpose_337", "transpose_343", "transpose_349", "transpose_355", "concat_4/axis"], "attr": {"T": {"type": "DT_FLOAT"}, "N": {"i": "15"}, "Tidx": {"type": "DT_INT32"}}}, {"name": "batchnorm_116/mul_1", "op": "Mul", "input": ["batchnorm_116/mul", "concat_175"], "attr": {"T": {"type": "DT_FLOAT"}}}, {"name": "batchnorm_116/add_1", "op": "Add", "input": ["batchnorm_116/mul_1", "batchnorm_116/sub"], "attr": {"T": {"type": "DT_FLOAT"}}}, {"name": "Relu_116", "op": "Relu", "input": ["batchnorm_116/add_1"], "attr": {"T": {"type": "DT_FLOAT"}}}, {"name": "transpose_357", "op": "Transpose", "input": ["Relu_116", "transpose_1/perm"], "attr": {"Tperm": {"type": "DT_INT32"}, "T": {"type": "DT_FLOAT"}}}, {"name": "convolution_116", "op": "Conv2D", "input": ["transpose_357", "split_232"], "attr": {"data_format": {"s": "TkhXQw=="}, "strides": {"list": {"i": ["1", "1", "1", "1"]}}, "explicit_paddings": {"list": {}}, "use_cudnn_on_gpu": {"b": true}, "padding": {"s": "VkFMSUQ="}, "dilations": {"list": {"i": ["1", "1", "1", "1"]}}, "T": {"type": "DT_FLOAT"}}}, {"name": "transpose_358", "op": "Transpose", "input": ["convolution_116", "transpose_2/perm"], "attr": {"Tperm": {"type": "DT_INT32"}, "T": {"type": "DT_FLOAT"}}}, {"name": "batchnorm_117/mul_1", "op": "Mul", "input": ["batchnorm_117/mul", "transpose_358"], "attr": {"T": {"type": "DT_FLOAT"}}}, {"name": "batchnorm_117/add_1", "op": "Add", "input": ["batchnorm_117/mul_1", "batchnorm_117/sub"], "attr": {"T": {"type": "DT_FLOAT"}}}, {"name": "Relu_117", "op": "Relu", "input": ["batchnorm_117/add_1"], "attr": {"T": {"type": "DT_FLOAT"}}}, {"name": "Pad_118", "op": "Pad", "input": ["Relu_117", "Const_730"], "attr": {"T": {"type": "DT_FLOAT"}, "Tpaddings": {"type": "DT_INT32"}}}, {"name": "transpose_360", "op": "Transpose", "input": ["Pad_118", "transpose_1/perm"], "attr": {"Tperm": {"type": "DT_INT32"}, "T": {"type": "DT_FLOAT"}}}, {"name": "convolution_117", "op": "Conv2D", "input": ["transpose_360", "split_234"], "attr": {"strides": {"list": {"i": ["1", "1", "1", "1"]}}, "data_format": {"s": "TkhXQw=="}, "explicit_paddings": {"list": {}}, "use_cudnn_on_gpu": {"b": true}, "padding": {"s": "VkFMSUQ="}, "dilations": {"list": {"i": ["1", "1", "1", "1"]}}, "T": {"type": "DT_FLOAT"}}}, {"name": "transpose_361", "op": "Transpose", "input": ["convolution_117", "transpose_2/perm"], "attr": {"Tperm": {"type": "DT_INT32"}, "T": {"type": "DT_FLOAT"}}}, {"name": "concat_178", "op": "ConcatV2", "input": ["transpose_271", "transpose_277", "transpose_283", "transpose_289", "transpose_295", "transpose_301", "transpose_307", "transpose_313", "transpose_319", "transpose_325", "transpose_331", "transpose_337", "transpose_343", "transpose_349", "transpose_355", "transpose_361", "concat_4/axis"], "attr": {"N": {"i": "16"}, "Tidx": {"type": "DT_INT32"}, "T": {"type": "DT_FLOAT"}}}, {"name": "batchnorm_118/mul_1", "op": "Mul", "input": ["batchnorm_118/mul", "concat_178"], "attr": {"T": {"type": "DT_FLOAT"}}}, {"name": "batchnorm_118/add_1", "op": "Add", "input": ["batchnorm_118/mul_1", "batchnorm_118/sub"], "attr": {"T": {"type": "DT_FLOAT"}}}, {"name": "Relu_118", "op": "Relu", "input": ["batchnorm_118/add_1"], "attr": {"T": {"type": "DT_FLOAT"}}}, {"name": "transpose_363", "op": "Transpose", "input": ["Relu_118", "transpose_1/perm"], "attr": {"T": {"type": "DT_FLOAT"}, "Tperm": {"type": "DT_INT32"}}}, {"name": "convolution_118", "op": "Conv2D", "input": ["transpose_363", "split_236"], "attr": {"padding": {"s": "VkFMSUQ="}, "dilations": {"list": {"i": ["1", "1", "1", "1"]}}, "T": {"type": "DT_FLOAT"}, "data_format": {"s": "TkhXQw=="}, "strides": {"list": {"i": ["1", "1", "1", "1"]}}, "use_cudnn_on_gpu": {"b": true}, "explicit_paddings": {"list": {}}}}, {"name": "transpose_364", "op": "Transpose", "input": ["convolution_118", "transpose_2/perm"], "attr": {"T": {"type": "DT_FLOAT"}, "Tperm": {"type": "DT_INT32"}}}, {"name": "batchnorm_119/mul_1", "op": "Mul", "input": ["batchnorm_119/mul", "transpose_364"], "attr": {"T": {"type": "DT_FLOAT"}}}, {"name": "batchnorm_119/add_1", "op": "Add", "input": ["batchnorm_119/mul_1", "batchnorm_119/sub"], "attr": {"T": {"type": "DT_FLOAT"}}}, {"name": "Relu_119", "op": "Relu", "input": ["batchnorm_119/add_1"], "attr": {"T": {"type": "DT_FLOAT"}}}, {"name": "Pad_120", "op": "Pad", "input": ["Relu_119", "Const_730"], "attr": {"Tpaddings": {"type": "DT_INT32"}, "T": {"type": "DT_FLOAT"}}}, {"name": "transpose_366", "op": "Transpose", "input": ["Pad_120", "transpose_1/perm"], "attr": {"T": {"type": "DT_FLOAT"}, "Tperm": {"type": "DT_INT32"}}}, {"name": "convolution_119", "op": "Conv2D", "input": ["transpose_366", "split_238"], "attr": {"dilations": {"list": {"i": ["1", "1", "1", "1"]}}, "T": {"type": "DT_FLOAT"}, "strides": {"list": {"i": ["1", "1", "1", "1"]}}, "data_format": {"s": "TkhXQw=="}, "use_cudnn_on_gpu": {"b": true}, "explicit_paddings": {"list": {}}, "padding": {"s": "VkFMSUQ="}}}, {"name": "transpose_367", "op": "Transpose", "input": ["convolution_119", "transpose_2/perm"], "attr": {"Tperm": {"type": "DT_INT32"}, "T": {"type": "DT_FLOAT"}}}, {"name": "concat_181", "op": "ConcatV2", "input": ["transpose_271", "transpose_277", "transpose_283", "transpose_289", "transpose_295", "transpose_301", "transpose_307", "transpose_313", "transpose_319", "transpose_325", "transpose_331", "transpose_337", "transpose_343", "transpose_349", "transpose_355", "transpose_361", "transpose_367", "concat_4/axis"], "attr": {"T": {"type": "DT_FLOAT"}, "N": {"i": "17"}, "Tidx": {"type": "DT_INT32"}}}, {"name": "batchnorm_120/mul_1", "op": "Mul", "input": ["batchnorm_120/mul", "concat_181"], "attr": {"T": {"type": "DT_FLOAT"}}}, {"name": "batchnorm_120/add_1", "op": "Add", "input": ["batchnorm_120/mul_1", "batchnorm_120/sub"], "attr": {"T": {"type": "DT_FLOAT"}}}, {"name": "Relu_120", "op": "Relu", "input": ["batchnorm_120/add_1"], "attr": {"T": {"type": "DT_FLOAT"}}}, {"name": "transpose_368", "op": "Transpose", "input": ["Relu_120", "transpose_1/perm"], "attr": {"T": {"type": "DT_FLOAT"}, "Tperm": {"type": "DT_INT32"}}}, {"name": "avg_pool_3", "op": "AvgPool", "input": ["transpose_368"], "attr": {"ksize": {"list": {"i": ["1", "7", "7", "1"]}}, "padding": {"s": "VkFMSUQ="}, "T": {"type": "DT_FLOAT"}, "strides": {"list": {"i": ["1", "1", "1", "1"]}}, "data_format": {"s": "TkhXQw=="}}}, {"name": "transpose_369", "op": "Transpose", "input": ["avg_pool_3", "transpose_2/perm"], "attr": {"T": {"type": "DT_FLOAT"}, "Tperm": {"type": "DT_INT32"}}}, {"name": "flatten/Reshape", "op": "Reshape", "input": ["transpose_369", "flatten/Reshape/shape"], "attr": {"T": {"type": "DT_FLOAT"}, "Tshape": {"type": "DT_INT32"}}}, {"name": "MatMul", "op": "MatMul", "input": ["flatten/Reshape", "transpose_370"], "attr": {"transpose_b": {"b": false}, "T": {"type": "DT_FLOAT"}, "transpose_a": {"b": false}}}, {"name": "add_1", "op": "Add", "input": ["MatMul", "mul_1"], "attr": {"T": {"type": "DT_FLOAT"}}}, {"name": "Sigmoid", "op": "Sigmoid", "input": ["add_1"], "attr": {"T": {"type": "DT_FLOAT"}}}], "library": {}, "versions": {"producer": 38}}, "weightsManifest": [{"paths": ["group1-shard1of7.bin", "group1-shard2of7.bin", "group1-shard3of7.bin", "group1-shard4of7.bin", "group1-shard5of7.bin", "group1-shard6of7.bin", "group1-shard7of7.bin"], "weights": [{"name": "mul_1", "shape": [14], "dtype": "float32"}, {"name": "transpose_370", "shape": [1024, 14], "dtype": "float32"}, {"name": "flatten/Reshape/shape", "shape": [2], "dtype": "int32"}, {"name": "transpose_2/perm", "shape": [4], "dtype": "int32"}, {"name": "transpose_1/perm", "shape": [4], "dtype": "int32"}, {"name": "batchnorm_120/sub", "shape": [1, 1024, 1, 1], "dtype": "float32"}, {"name": "concat_4/axis", "shape": [], "dtype": "int32"}, {"name": "split_238", "shape": [3, 3, 128, 32], "dtype": "float32"}, {"name": "Const_730", "shape": [4, 2], "dtype": "int32"}, {"name": "batchnorm_119/sub", "shape": [1, 128, 1, 1], "dtype": "float32"}, {"name": "split_236", "shape": [1, 1, 992, 128], "dtype": "float32"}, {"name": "batchnorm_118/sub", "shape": [1, 992, 1, 1], "dtype": "float32"}, {"name": "split_234", "shape": [3, 3, 128, 32], "dtype": "float32"}, {"name": "batchnorm_117/sub", "shape": [1, 128, 1, 1], "dtype": "float32"}, {"name": "split_232", "shape": [1, 1, 960, 128], "dtype": "float32"}, {"name": "batchnorm_116/sub", "shape": [1, 960, 1, 1], "dtype": "float32"}, {"name": "split_230", "shape": [3, 3, 128, 32], "dtype": "float32"}, {"name": "batchnorm_115/sub", "shape": [1, 128, 1, 1], "dtype": "float32"}, {"name": "split_228", "shape": [1, 1, 928, 128], "dtype": "float32"}, {"name": "batchnorm_114/sub", "shape": [1, 928, 1, 1], "dtype": "float32"}, {"name": "split_226", "shape": [3, 3, 128, 32], "dtype": "float32"}, {"name": "batchnorm_113/sub", "shape": [1, 128, 1, 1], "dtype": "float32"}, {"name": "split_224", "shape": [1, 1, 896, 128], "dtype": "float32"}, {"name": "batchnorm_112/sub", "shape": [1, 896, 1, 1], "dtype": "float32"}, {"name": "split_222", "shape": [3, 3, 128, 32], "dtype": "float32"}, {"name": "batchnorm_111/sub", "shape": [1, 128, 1, 1], "dtype": "float32"}, {"name": "split_220", "shape": [1, 1, 864, 128], "dtype": "float32"}, {"name": "batchnorm_110/sub", "shape": [1, 864, 1, 1], "dtype": "float32"}, {"name": "split_218", "shape": [3, 3, 128, 32], "dtype": "float32"}, {"name": "batchnorm_109/sub", "shape": [1, 128, 1, 1], "dtype": "float32"}, {"name": "split_216", "shape": [1, 1, 832, 128], "dtype": "float32"}, {"name": "batchnorm_108/sub", "shape": [1, 832, 1, 1], "dtype": "float32"}, {"name": "split_214", "shape": [3, 3, 128, 32], "dtype": "float32"}, {"name": "batchnorm_107/sub", "shape": [1, 128, 1, 1], "dtype": "float32"}, {"name": "split_212", "shape": [1, 1, 800, 128], "dtype": "float32"}, {"name": "batchnorm_106/sub", "shape": [1, 800, 1, 1], "dtype": "float32"}, {"name": "split_210", "shape": [3, 3, 128, 32], "dtype": "float32"}, {"name": "batchnorm_105/sub", "shape": [1, 128, 1, 1], "dtype": "float32"}, {"name": "split_208", "shape": [1, 1, 768, 128], "dtype": "float32"}, {"name": "batchnorm_104/sub", "shape": [1, 768, 1, 1], "dtype": "float32"}, {"name": "split_206", "shape": [3, 3, 128, 32], "dtype": "float32"}, {"name": "batchnorm_103/sub", "shape": [1, 128, 1, 1], "dtype": "float32"}, {"name": "split_204", "shape": [1, 1, 736, 128], "dtype": "float32"}, {"name": "batchnorm_102/sub", "shape": [1, 736, 1, 1], "dtype": "float32"}, {"name": "split_202", "shape": [3, 3, 128, 32], "dtype": "float32"}, {"name": "batchnorm_101/sub", "shape": [1, 128, 1, 1], "dtype": "float32"}, {"name": "split_200", "shape": [1, 1, 704, 128], "dtype": "float32"}, {"name": "batchnorm_100/sub", "shape": [1, 704, 1, 1], "dtype": "float32"}, {"name": "split_198", "shape": [3, 3, 128, 32], "dtype": "float32"}, {"name": "batchnorm_99/sub", "shape": [1, 128, 1, 1], "dtype": "float32"}, {"name": "split_196", "shape": [1, 1, 672, 128], "dtype": "float32"}, {"name": "batchnorm_98/sub", "shape": [1, 672, 1, 1], "dtype": "float32"}, {"name": "split_194", "shape": [3, 3, 128, 32], "dtype": "float32"}, {"name": "batchnorm_97/sub", "shape": [1, 128, 1, 1], "dtype": "float32"}, {"name": "split_192", "shape": [1, 1, 640, 128], "dtype": "float32"}, {"name": "batchnorm_96/sub", "shape": [1, 640, 1, 1], "dtype": "float32"}, {"name": "split_190", "shape": [3, 3, 128, 32], "dtype": "float32"}, {"name": "batchnorm_95/sub", "shape": [1, 128, 1, 1], "dtype": "float32"}, {"name": "split_188", "shape": [1, 1, 608, 128], "dtype": "float32"}, {"name": "batchnorm_94/sub", "shape": [1, 608, 1, 1], "dtype": "float32"}, {"name": "split_186", "shape": [3, 3, 128, 32], "dtype": "float32"}, {"name": "batchnorm_93/sub", "shape": [1, 128, 1, 1], "dtype": "float32"}, {"name": "split_184", "shape": [1, 1, 576, 128], "dtype": "float32"}, {"name": "batchnorm_92/sub", "shape": [1, 576, 1, 1], "dtype": "float32"}, {"name": "split_182", "shape": [3, 3, 128, 32], "dtype": "float32"}, {"name": "batchnorm_91/sub", "shape": [1, 128, 1, 1], "dtype": "float32"}, {"name": "split_180", "shape": [1, 1, 544, 128], "dtype": "float32"}, {"name": "batchnorm_90/sub", "shape": [1, 544, 1, 1], "dtype": "float32"}, {"name": "split_178", "shape": [3, 3, 128, 32], "dtype": "float32"}, {"name": "batchnorm_89/sub", "shape": [1, 128, 1, 1], "dtype": "float32"}, {"name": "split_176", "shape": [1, 1, 512, 128], "dtype": "float32"}, {"name": "batchnorm_88/sub", "shape": [1, 512, 1, 1], "dtype": "float32"}, {"name": "split_174", "shape": [1, 1, 1024, 512], "dtype": "float32"}, {"name": "batchnorm_87/sub", "shape": [1, 1024, 1, 1], "dtype": "float32"}, {"name": "split_172", "shape": [3, 3, 128, 32], "dtype": "float32"}, {"name": "batchnorm_86/sub", "shape": [1, 128, 1, 1], "dtype": "float32"}, {"name": "split_170", "shape": [1, 1, 992, 128], "dtype": "float32"}, {"name": "batchnorm_85/sub", "shape": [1, 992, 1, 1], "dtype": "float32"}, {"name": "split_168", "shape": [3, 3, 128, 32], "dtype": "float32"}, {"name": "batchnorm_84/sub", "shape": [1, 128, 1, 1], "dtype": "float32"}, {"name": "split_166", "shape": [1, 1, 960, 128], "dtype": "float32"}, {"name": "batchnorm_83/sub", "shape": [1, 960, 1, 1], "dtype": "float32"}, {"name": "split_164", "shape": [3, 3, 128, 32], "dtype": "float32"}, {"name": "batchnorm_82/sub", "shape": [1, 128, 1, 1], "dtype": "float32"}, {"name": "split_162", "shape": [1, 1, 928, 128], "dtype": "float32"}, {"name": "batchnorm_81/sub", "shape": [1, 928, 1, 1], "dtype": "float32"}, {"name": "split_160", "shape": [3, 3, 128, 32], "dtype": "float32"}, {"name": "batchnorm_80/sub", "shape": [1, 128, 1, 1], "dtype": "float32"}, {"name": "split_158", "shape": [1, 1, 896, 128], "dtype": "float32"}, {"name": "batchnorm_79/sub", "shape": [1, 896, 1, 1], "dtype": "float32"}, {"name": "split_156", "shape": [3, 3, 128, 32], "dtype": "float32"}, {"name": "batchnorm_78/sub", "shape": [1, 128, 1, 1], "dtype": "float32"}, {"name": "split_154", "shape": [1, 1, 864, 128], "dtype": "float32"}, {"name": "batchnorm_77/sub", "shape": [1, 864, 1, 1], "dtype": "float32"}, {"name": "split_152", "shape": [3, 3, 128, 32], "dtype": "float32"}, {"name": "batchnorm_76/sub", "shape": [1, 128, 1, 1], "dtype": "float32"}, {"name": "split_150", "shape": [1, 1, 832, 128], "dtype": "float32"}, {"name": "batchnorm_75/sub", "shape": [1, 832, 1, 1], "dtype": "float32"}, {"name": "split_148", "shape": [3, 3, 128, 32], "dtype": "float32"}, {"name": "batchnorm_74/sub", "shape": [1, 128, 1, 1], "dtype": "float32"}, {"name": "split_146", "shape": [1, 1, 800, 128], "dtype": "float32"}, {"name": "batchnorm_73/sub", "shape": [1, 800, 1, 1], "dtype": "float32"}, {"name": "split_144", "shape": [3, 3, 128, 32], "dtype": "float32"}, {"name": "batchnorm_72/sub", "shape": [1, 128, 1, 1], "dtype": "float32"}, {"name": "split_142", "shape": [1, 1, 768, 128], "dtype": "float32"}, {"name": "batchnorm_71/sub", "shape": [1, 768, 1, 1], "dtype": "float32"}, {"name": "split_140", "shape": [3, 3, 128, 32], "dtype": "float32"}, {"name": "batchnorm_70/sub", "shape": [1, 128, 1, 1], "dtype": "float32"}, {"name": "split_138", "shape": [1, 1, 736, 128], "dtype": "float32"}, {"name": "batchnorm_69/sub", "shape": [1, 736, 1, 1], "dtype": "float32"}, {"name": "split_136", "shape": [3, 3, 128, 32], "dtype": "float32"}, {"name": "batchnorm_68/sub", "shape": [1, 128, 1, 1], "dtype": "float32"}, {"name": "split_134", "shape": [1, 1, 704, 128], "dtype": "float32"}, {"name": "batchnorm_67/sub", "shape": [1, 704, 1, 1], "dtype": "float32"}, {"name": "split_132", "shape": [3, 3, 128, 32], "dtype": "float32"}, {"name": "batchnorm_66/sub", "shape": [1, 128, 1, 1], "dtype": "float32"}, {"name": "split_130", "shape": [1, 1, 672, 128], "dtype": "float32"}, {"name": "batchnorm_65/sub", "shape": [1, 672, 1, 1], "dtype": "float32"}, {"name": "split_128", "shape": [3, 3, 128, 32], "dtype": "float32"}, {"name": "batchnorm_64/sub", "shape": [1, 128, 1, 1], "dtype": "float32"}, {"name": "split_126", "shape": [1, 1, 640, 128], "dtype": "float32"}, {"name": "batchnorm_63/sub", "shape": [1, 640, 1, 1], "dtype": "float32"}, {"name": "split_124", "shape": [3, 3, 128, 32], "dtype": "float32"}, {"name": "batchnorm_62/sub", "shape": [1, 128, 1, 1], "dtype": "float32"}, {"name": "split_122", "shape": [1, 1, 608, 128], "dtype": "float32"}, {"name": "batchnorm_61/sub", "shape": [1, 608, 1, 1], "dtype": "float32"}, {"name": "split_120", "shape": [3, 3, 128, 32], "dtype": "float32"}, {"name": "batchnorm_60/sub", "shape": [1, 128, 1, 1], "dtype": "float32"}, {"name": "split_118", "shape": [1, 1, 576, 128], "dtype": "float32"}, {"name": "batchnorm_59/sub", "shape": [1, 576, 1, 1], "dtype": "float32"}, {"name": "split_116", "shape": [3, 3, 128, 32], "dtype": "float32"}, {"name": "batchnorm_58/sub", "shape": [1, 128, 1, 1], "dtype": "float32"}, {"name": "split_114", "shape": [1, 1, 544, 128], "dtype": "float32"}, {"name": "batchnorm_57/sub", "shape": [1, 544, 1, 1], "dtype": "float32"}, {"name": "split_112", "shape": [3, 3, 128, 32], "dtype": "float32"}, {"name": "batchnorm_56/sub", "shape": [1, 128, 1, 1], "dtype": "float32"}, {"name": "split_110", "shape": [1, 1, 512, 128], "dtype": "float32"}, {"name": "batchnorm_55/sub", "shape": [1, 512, 1, 1], "dtype": "float32"}, {"name": "split_108", "shape": [3, 3, 128, 32], "dtype": "float32"}, {"name": "batchnorm_54/sub", "shape": [1, 128, 1, 1], "dtype": "float32"}, {"name": "split_106", "shape": [1, 1, 480, 128], "dtype": "float32"}, {"name": "batchnorm_53/sub", "shape": [1, 480, 1, 1], "dtype": "float32"}, {"name": "split_104", "shape": [3, 3, 128, 32], "dtype": "float32"}, {"name": "batchnorm_52/sub", "shape": [1, 128, 1, 1], "dtype": "float32"}, {"name": "split_102", "shape": [1, 1, 448, 128], "dtype": "float32"}, {"name": "batchnorm_51/sub", "shape": [1, 448, 1, 1], "dtype": "float32"}, {"name": "split_100", "shape": [3, 3, 128, 32], "dtype": "float32"}, {"name": "batchnorm_50/sub", "shape": [1, 128, 1, 1], "dtype": "float32"}, {"name": "split_98", "shape": [1, 1, 416, 128], "dtype": "float32"}, {"name": "batchnorm_49/sub", "shape": [1, 416, 1, 1], "dtype": "float32"}, {"name": "split_96", "shape": [3, 3, 128, 32], "dtype": "float32"}, {"name": "batchnorm_48/sub", "shape": [1, 128, 1, 1], "dtype": "float32"}, {"name": "split_94", "shape": [1, 1, 384, 128], "dtype": "float32"}, {"name": "batchnorm_47/sub", "shape": [1, 384, 1, 1], "dtype": "float32"}, {"name": "split_92", "shape": [3, 3, 128, 32], "dtype": "float32"}, {"name": "batchnorm_46/sub", "shape": [1, 128, 1, 1], "dtype": "float32"}, {"name": "split_90", "shape": [1, 1, 352, 128], "dtype": "float32"}, {"name": "batchnorm_45/sub", "shape": [1, 352, 1, 1], "dtype": "float32"}, {"name": "split_88", "shape": [3, 3, 128, 32], "dtype": "float32"}, {"name": "batchnorm_44/sub", "shape": [1, 128, 1, 1], "dtype": "float32"}, {"name": "split_86", "shape": [1, 1, 320, 128], "dtype": "float32"}, {"name": "batchnorm_43/sub", "shape": [1, 320, 1, 1], "dtype": "float32"}, {"name": "split_84", "shape": [3, 3, 128, 32], "dtype": "float32"}, {"name": "batchnorm_42/sub", "shape": [1, 128, 1, 1], "dtype": "float32"}, {"name": "split_82", "shape": [1, 1, 288, 128], "dtype": "float32"}, {"name": "batchnorm_41/sub", "shape": [1, 288, 1, 1], "dtype": "float32"}, {"name": "split_80", "shape": [3, 3, 128, 32], "dtype": "float32"}, {"name": "batchnorm_40/sub", "shape": [1, 128, 1, 1], "dtype": "float32"}, {"name": "split_78", "shape": [1, 1, 256, 128], "dtype": "float32"}, {"name": "batchnorm_39/sub", "shape": [1, 256, 1, 1], "dtype": "float32"}, {"name": "split_76", "shape": [1, 1, 512, 256], "dtype": "float32"}, {"name": "batchnorm_38/sub", "shape": [1, 512, 1, 1], "dtype": "float32"}, {"name": "split_74", "shape": [3, 3, 128, 32], "dtype": "float32"}, {"name": "batchnorm_37/sub", "shape": [1, 128, 1, 1], "dtype": "float32"}, {"name": "split_72", "shape": [1, 1, 480, 128], "dtype": "float32"}, {"name": "batchnorm_36/sub", "shape": [1, 480, 1, 1], "dtype": "float32"}, {"name": "split_70", "shape": [3, 3, 128, 32], "dtype": "float32"}, {"name": "batchnorm_35/sub", "shape": [1, 128, 1, 1], "dtype": "float32"}, {"name": "split_68", "shape": [1, 1, 448, 128], "dtype": "float32"}, {"name": "batchnorm_34/sub", "shape": [1, 448, 1, 1], "dtype": "float32"}, {"name": "split_66", "shape": [3, 3, 128, 32], "dtype": "float32"}, {"name": "batchnorm_33/sub", "shape": [1, 128, 1, 1], "dtype": "float32"}, {"name": "split_64", "shape": [1, 1, 416, 128], "dtype": "float32"}, {"name": "batchnorm_32/sub", "shape": [1, 416, 1, 1], "dtype": "float32"}, {"name": "split_62", "shape": [3, 3, 128, 32], "dtype": "float32"}, {"name": "batchnorm_31/sub", "shape": [1, 128, 1, 1], "dtype": "float32"}, {"name": "split_60", "shape": [1, 1, 384, 128], "dtype": "float32"}, {"name": "batchnorm_30/sub", "shape": [1, 384, 1, 1], "dtype": "float32"}, {"name": "split_58", "shape": [3, 3, 128, 32], "dtype": "float32"}, {"name": "batchnorm_29/sub", "shape": [1, 128, 1, 1], "dtype": "float32"}, {"name": "split_56", "shape": [1, 1, 352, 128], "dtype": "float32"}, {"name": "batchnorm_28/sub", "shape": [1, 352, 1, 1], "dtype": "float32"}, {"name": "split_54", "shape": [3, 3, 128, 32], "dtype": "float32"}, {"name": "batchnorm_27/sub", "shape": [1, 128, 1, 1], "dtype": "float32"}, {"name": "split_52", "shape": [1, 1, 320, 128], "dtype": "float32"}, {"name": "batchnorm_26/sub", "shape": [1, 320, 1, 1], "dtype": "float32"}, {"name": "split_50", "shape": [3, 3, 128, 32], "dtype": "float32"}, {"name": "batchnorm_25/sub", "shape": [1, 128, 1, 1], "dtype": "float32"}, {"name": "split_48", "shape": [1, 1, 288, 128], "dtype": "float32"}, {"name": "batchnorm_24/sub", "shape": [1, 288, 1, 1], "dtype": "float32"}, {"name": "split_46", "shape": [3, 3, 128, 32], "dtype": "float32"}, {"name": "batchnorm_23/sub", "shape": [1, 128, 1, 1], "dtype": "float32"}, {"name": "split_44", "shape": [1, 1, 256, 128], "dtype": "float32"}, {"name": "batchnorm_22/sub", "shape": [1, 256, 1, 1], "dtype": "float32"}, {"name": "split_42", "shape": [3, 3, 128, 32], "dtype": "float32"}, {"name": "batchnorm_21/sub", "shape": [1, 128, 1, 1], "dtype": "float32"}, {"name": "split_40", "shape": [1, 1, 224, 128], "dtype": "float32"}, {"name": "batchnorm_20/sub", "shape": [1, 224, 1, 1], "dtype": "float32"}, {"name": "split_38", "shape": [3, 3, 128, 32], "dtype": "float32"}, {"name": "batchnorm_19/sub", "shape": [1, 128, 1, 1], "dtype": "float32"}, {"name": "split_36", "shape": [1, 1, 192, 128], "dtype": "float32"}, {"name": "batchnorm_18/sub", "shape": [1, 192, 1, 1], "dtype": "float32"}, {"name": "split_34", "shape": [3, 3, 128, 32], "dtype": "float32"}, {"name": "batchnorm_17/sub", "shape": [1, 128, 1, 1], "dtype": "float32"}, {"name": "split_32", "shape": [1, 1, 160, 128], "dtype": "float32"}, {"name": "batchnorm_16/sub", "shape": [1, 160, 1, 1], "dtype": "float32"}, {"name": "split_30", "shape": [3, 3, 128, 32], "dtype": "float32"}, {"name": "batchnorm_15/sub", "shape": [1, 128, 1, 1], "dtype": "float32"}, {"name": "split_28", "shape": [1, 1, 128, 128], "dtype": "float32"}, {"name": "batchnorm_14/sub", "shape": [1, 128, 1, 1], "dtype": "float32"}, {"name": "split_26", "shape": [1, 1, 256, 128], "dtype": "float32"}, {"name": "batchnorm_13/sub", "shape": [1, 256, 1, 1], "dtype": "float32"}, {"name": "split_24", "shape": [3, 3, 128, 32], "dtype": "float32"}, {"name": "batchnorm_12/sub", "shape": [1, 128, 1, 1], "dtype": "float32"}, {"name": "split_22", "shape": [1, 1, 224, 128], "dtype": "float32"}, {"name": "batchnorm_11/sub", "shape": [1, 224, 1, 1], "dtype": "float32"}, {"name": "split_20", "shape": [3, 3, 128, 32], "dtype": "float32"}, {"name": "batchnorm_10/sub", "shape": [1, 128, 1, 1], "dtype": "float32"}, {"name": "split_18", "shape": [1, 1, 192, 128], "dtype": "float32"}, {"name": "batchnorm_9/sub", "shape": [1, 192, 1, 1], "dtype": "float32"}, {"name": "split_16", "shape": [3, 3, 128, 32], "dtype": "float32"}, {"name": "batchnorm_8/sub", "shape": [1, 128, 1, 1], "dtype": "float32"}, {"name": "split_14", "shape": [1, 1, 160, 128], "dtype": "float32"}, {"name": "batchnorm_7/sub", "shape": [1, 160, 1, 1], "dtype": "float32"}, {"name": "split_12", "shape": [3, 3, 128, 32], "dtype": "float32"}, {"name": "batchnorm_6/sub", "shape": [1, 128, 1, 1], "dtype": "float32"}, {"name": "split_10", "shape": [1, 1, 128, 128], "dtype": "float32"}, {"name": "batchnorm_5/sub", "shape": [1, 128, 1, 1], "dtype": "float32"}, {"name": "split_8", "shape": [3, 3, 128, 32], "dtype": "float32"}, {"name": "batchnorm_4/sub", "shape": [1, 128, 1, 1], "dtype": "float32"}, {"name": "split_6", "shape": [1, 1, 96, 128], "dtype": "float32"}, {"name": "batchnorm_3/sub", "shape": [1, 96, 1, 1], "dtype": "float32"}, {"name": "split_4", "shape": [3, 3, 128, 32], "dtype": "float32"}, {"name": "batchnorm_2/sub", "shape": [1, 128, 1, 1], "dtype": "float32"}, {"name": "split_2", "shape": [1, 1, 64, 128], "dtype": "float32"}, {"name": "batchnorm_1/sub", "shape": [1, 64, 1, 1], "dtype": "float32"}, {"name": "batchnorm/sub", "shape": [1, 64, 1, 1], "dtype": "float32"}, {"name": "split", "shape": [7, 7, 3, 64], "dtype": "float32"}, {"name": "Const_727", "shape": [4, 2], "dtype": "int32"}, {"name": "batchnorm/mul", "shape": [1, 64, 1, 1], "dtype": "float32"}, {"name": "batchnorm_1/mul", "shape": [1, 64, 1, 1], "dtype": "float32"}, {"name": "batchnorm_2/mul", "shape": [1, 128, 1, 1], "dtype": "float32"}, {"name": "batchnorm_3/mul", "shape": [1, 96, 1, 1], "dtype": "float32"}, {"name": "batchnorm_4/mul", "shape": [1, 128, 1, 1], "dtype": "float32"}, {"name": "batchnorm_5/mul", "shape": [1, 128, 1, 1], "dtype": "float32"}, {"name": "batchnorm_6/mul", "shape": [1, 128, 1, 1], "dtype": "float32"}, {"name": "batchnorm_7/mul", "shape": [1, 160, 1, 1], "dtype": "float32"}, {"name": "batchnorm_8/mul", "shape": [1, 128, 1, 1], "dtype": "float32"}, {"name": "batchnorm_9/mul", "shape": [1, 192, 1, 1], "dtype": "float32"}, {"name": "batchnorm_10/mul", "shape": [1, 128, 1, 1], "dtype": "float32"}, {"name": "batchnorm_11/mul", "shape": [1, 224, 1, 1], "dtype": "float32"}, {"name": "batchnorm_12/mul", "shape": [1, 128, 1, 1], "dtype": "float32"}, {"name": "batchnorm_13/mul", "shape": [1, 256, 1, 1], "dtype": "float32"}, {"name": "batchnorm_14/mul", "shape": [1, 128, 1, 1], "dtype": "float32"}, {"name": "batchnorm_15/mul", "shape": [1, 128, 1, 1], "dtype": "float32"}, {"name": "batchnorm_16/mul", "shape": [1, 160, 1, 1], "dtype": "float32"}, {"name": "batchnorm_17/mul", "shape": [1, 128, 1, 1], "dtype": "float32"}, {"name": "batchnorm_18/mul", "shape": [1, 192, 1, 1], "dtype": "float32"}, {"name": "batchnorm_19/mul", "shape": [1, 128, 1, 1], "dtype": "float32"}, {"name": "batchnorm_20/mul", "shape": [1, 224, 1, 1], "dtype": "float32"}, {"name": "batchnorm_21/mul", "shape": [1, 128, 1, 1], "dtype": "float32"}, {"name": "batchnorm_22/mul", "shape": [1, 256, 1, 1], "dtype": "float32"}, {"name": "batchnorm_23/mul", "shape": [1, 128, 1, 1], "dtype": "float32"}, {"name": "batchnorm_24/mul", "shape": [1, 288, 1, 1], "dtype": "float32"}, {"name": "batchnorm_25/mul", "shape": [1, 128, 1, 1], "dtype": "float32"}, {"name": "batchnorm_26/mul", "shape": [1, 320, 1, 1], "dtype": "float32"}, {"name": "batchnorm_27/mul", "shape": [1, 128, 1, 1], "dtype": "float32"}, {"name": "batchnorm_28/mul", "shape": [1, 352, 1, 1], "dtype": "float32"}, {"name": "batchnorm_29/mul", "shape": [1, 128, 1, 1], "dtype": "float32"}, {"name": "batchnorm_30/mul", "shape": [1, 384, 1, 1], "dtype": "float32"}, {"name": "batchnorm_31/mul", "shape": [1, 128, 1, 1], "dtype": "float32"}, {"name": "batchnorm_32/mul", "shape": [1, 416, 1, 1], "dtype": "float32"}, {"name": "batchnorm_33/mul", "shape": [1, 128, 1, 1], "dtype": "float32"}, {"name": "batchnorm_34/mul", "shape": [1, 448, 1, 1], "dtype": "float32"}, {"name": "batchnorm_35/mul", "shape": [1, 128, 1, 1], "dtype": "float32"}, {"name": "batchnorm_36/mul", "shape": [1, 480, 1, 1], "dtype": "float32"}, {"name": "batchnorm_37/mul", "shape": [1, 128, 1, 1], "dtype": "float32"}, {"name": "batchnorm_38/mul", "shape": [1, 512, 1, 1], "dtype": "float32"}, {"name": "batchnorm_39/mul", "shape": [1, 256, 1, 1], "dtype": "float32"}, {"name": "batchnorm_40/mul", "shape": [1, 128, 1, 1], "dtype": "float32"}, {"name": "batchnorm_41/mul", "shape": [1, 288, 1, 1], "dtype": "float32"}, {"name": "batchnorm_42/mul", "shape": [1, 128, 1, 1], "dtype": "float32"}, {"name": "batchnorm_43/mul", "shape": [1, 320, 1, 1], "dtype": "float32"}, {"name": "batchnorm_44/mul", "shape": [1, 128, 1, 1], "dtype": "float32"}, {"name": "batchnorm_45/mul", "shape": [1, 352, 1, 1], "dtype": "float32"}, {"name": "batchnorm_46/mul", "shape": [1, 128, 1, 1], "dtype": "float32"}, {"name": "batchnorm_47/mul", "shape": [1, 384, 1, 1], "dtype": "float32"}, {"name": "batchnorm_48/mul", "shape": [1, 128, 1, 1], "dtype": "float32"}, {"name": "batchnorm_49/mul", "shape": [1, 416, 1, 1], "dtype": "float32"}, {"name": "batchnorm_50/mul", "shape": [1, 128, 1, 1], "dtype": "float32"}, {"name": "batchnorm_51/mul", "shape": [1, 448, 1, 1], "dtype": "float32"}, {"name": "batchnorm_52/mul", "shape": [1, 128, 1, 1], "dtype": "float32"}, {"name": "batchnorm_53/mul", "shape": [1, 480, 1, 1], "dtype": "float32"}, {"name": "batchnorm_54/mul", "shape": [1, 128, 1, 1], "dtype": "float32"}, {"name": "batchnorm_55/mul", "shape": [1, 512, 1, 1], "dtype": "float32"}, {"name": "batchnorm_56/mul", "shape": [1, 128, 1, 1], "dtype": "float32"}, {"name": "batchnorm_57/mul", "shape": [1, 544, 1, 1], "dtype": "float32"}, {"name": "batchnorm_58/mul", "shape": [1, 128, 1, 1], "dtype": "float32"}, {"name": "batchnorm_59/mul", "shape": [1, 576, 1, 1], "dtype": "float32"}, {"name": "batchnorm_60/mul", "shape": [1, 128, 1, 1], "dtype": "float32"}, {"name": "batchnorm_61/mul", "shape": [1, 608, 1, 1], "dtype": "float32"}, {"name": "batchnorm_62/mul", "shape": [1, 128, 1, 1], "dtype": "float32"}, {"name": "batchnorm_63/mul", "shape": [1, 640, 1, 1], "dtype": "float32"}, {"name": "batchnorm_64/mul", "shape": [1, 128, 1, 1], "dtype": "float32"}, {"name": "batchnorm_65/mul", "shape": [1, 672, 1, 1], "dtype": "float32"}, {"name": "batchnorm_66/mul", "shape": [1, 128, 1, 1], "dtype": "float32"}, {"name": "batchnorm_67/mul", "shape": [1, 704, 1, 1], "dtype": "float32"}, {"name": "batchnorm_68/mul", "shape": [1, 128, 1, 1], "dtype": "float32"}, {"name": "batchnorm_69/mul", "shape": [1, 736, 1, 1], "dtype": "float32"}, {"name": "batchnorm_70/mul", "shape": [1, 128, 1, 1], "dtype": "float32"}, {"name": "batchnorm_71/mul", "shape": [1, 768, 1, 1], "dtype": "float32"}, {"name": "batchnorm_72/mul", "shape": [1, 128, 1, 1], "dtype": "float32"}, {"name": "batchnorm_73/mul", "shape": [1, 800, 1, 1], "dtype": "float32"}, {"name": "batchnorm_74/mul", "shape": [1, 128, 1, 1], "dtype": "float32"}, {"name": "batchnorm_75/mul", "shape": [1, 832, 1, 1], "dtype": "float32"}, {"name": "batchnorm_76/mul", "shape": [1, 128, 1, 1], "dtype": "float32"}, {"name": "batchnorm_77/mul", "shape": [1, 864, 1, 1], "dtype": "float32"}, {"name": "batchnorm_78/mul", "shape": [1, 128, 1, 1], "dtype": "float32"}, {"name": "batchnorm_79/mul", "shape": [1, 896, 1, 1], "dtype": "float32"}, {"name": "batchnorm_80/mul", "shape": [1, 128, 1, 1], "dtype": "float32"}, {"name": "batchnorm_81/mul", "shape": [1, 928, 1, 1], "dtype": "float32"}, {"name": "batchnorm_82/mul", "shape": [1, 128, 1, 1], "dtype": "float32"}, {"name": "batchnorm_83/mul", "shape": [1, 960, 1, 1], "dtype": "float32"}, {"name": "batchnorm_84/mul", "shape": [1, 128, 1, 1], "dtype": "float32"}, {"name": "batchnorm_85/mul", "shape": [1, 992, 1, 1], "dtype": "float32"}, {"name": "batchnorm_86/mul", "shape": [1, 128, 1, 1], "dtype": "float32"}, {"name": "batchnorm_87/mul", "shape": [1, 1024, 1, 1], "dtype": "float32"}, {"name": "batchnorm_88/mul", "shape": [1, 512, 1, 1], "dtype": "float32"}, {"name": "batchnorm_89/mul", "shape": [1, 128, 1, 1], "dtype": "float32"}, {"name": "batchnorm_90/mul", "shape": [1, 544, 1, 1], "dtype": "float32"}, {"name": "batchnorm_91/mul", "shape": [1, 128, 1, 1], "dtype": "float32"}, {"name": "batchnorm_92/mul", "shape": [1, 576, 1, 1], "dtype": "float32"}, {"name": "batchnorm_93/mul", "shape": [1, 128, 1, 1], "dtype": "float32"}, {"name": "batchnorm_94/mul", "shape": [1, 608, 1, 1], "dtype": "float32"}, {"name": "batchnorm_95/mul", "shape": [1, 128, 1, 1], "dtype": "float32"}, {"name": "batchnorm_96/mul", "shape": [1, 640, 1, 1], "dtype": "float32"}, {"name": "batchnorm_97/mul", "shape": [1, 128, 1, 1], "dtype": "float32"}, {"name": "batchnorm_98/mul", "shape": [1, 672, 1, 1], "dtype": "float32"}, {"name": "batchnorm_99/mul", "shape": [1, 128, 1, 1], "dtype": "float32"}, {"name": "batchnorm_100/mul", "shape": [1, 704, 1, 1], "dtype": "float32"}, {"name": "batchnorm_101/mul", "shape": [1, 128, 1, 1], "dtype": "float32"}, {"name": "batchnorm_102/mul", "shape": [1, 736, 1, 1], "dtype": "float32"}, {"name": "batchnorm_103/mul", "shape": [1, 128, 1, 1], "dtype": "float32"}, {"name": "batchnorm_104/mul", "shape": [1, 768, 1, 1], "dtype": "float32"}, {"name": "batchnorm_105/mul", "shape": [1, 128, 1, 1], "dtype": "float32"}, {"name": "batchnorm_106/mul", "shape": [1, 800, 1, 1], "dtype": "float32"}, {"name": "batchnorm_107/mul", "shape": [1, 128, 1, 1], "dtype": "float32"}, {"name": "batchnorm_108/mul", "shape": [1, 832, 1, 1], "dtype": "float32"}, {"name": "batchnorm_109/mul", "shape": [1, 128, 1, 1], "dtype": "float32"}, {"name": "batchnorm_110/mul", "shape": [1, 864, 1, 1], "dtype": "float32"}, {"name": "batchnorm_111/mul", "shape": [1, 128, 1, 1], "dtype": "float32"}, {"name": "batchnorm_112/mul", "shape": [1, 896, 1, 1], "dtype": "float32"}, {"name": "batchnorm_113/mul", "shape": [1, 128, 1, 1], "dtype": "float32"}, {"name": "batchnorm_114/mul", "shape": [1, 928, 1, 1], "dtype": "float32"}, {"name": "batchnorm_115/mul", "shape": [1, 128, 1, 1], "dtype": "float32"}, {"name": "batchnorm_116/mul", "shape": [1, 960, 1, 1], "dtype": "float32"}, {"name": "batchnorm_117/mul", "shape": [1, 128, 1, 1], "dtype": "float32"}, {"name": "batchnorm_118/mul", "shape": [1, 992, 1, 1], "dtype": "float32"}, {"name": "batchnorm_119/mul", "shape": [1, 128, 1, 1], "dtype": "float32"}, {"name": "batchnorm_120/mul", "shape": [1, 1024, 1, 1], "dtype": "float32"}]}]}