{"format": "graph-model", "generatedBy": "1.14.0", "convertedBy": "TensorFlow.js Converter v2.0.1.post1", "userDefinedMetadata": {"signature": {"inputs": {"input.1:0": {"name": "input.1:0", "dtype": "DT_FLOAT", "tensorShape": {"dim": [{"size": "1"}, {"size": "1"}, {"size": "224"}, {"size": "224"}]}}}, "outputs": {"Sigmoid_435:0": {"name": "Sigmoid_435:0", "dtype": "DT_FLOAT", "tensorShape": {"dim": [{"size": "1"}, {"size": "18"}]}}}}}, "modelTopology": {"node": [{"name": "BatchNormalization_425/mul", "op": "Const", "attr": {"value": {"tensor": {"dtype": "DT_FLOAT", "tensorShape": {"dim": [{"size": "1"}, {"size": "1024"}, {"size": "1"}, {"size": "1"}]}}}, "dtype": {"type": "DT_FLOAT"}}}, {"name": "BatchNormalization_421/mul", "op": "Const", "attr": {"value": {"tensor": {"dtype": "DT_FLOAT", "tensorShape": {"dim": [{"size": "1"}, {"size": "128"}, {"size": "1"}, {"size": "1"}]}}}, "dtype": {"type": "DT_FLOAT"}}}, {"name": "BatchNormalization_418/mul", "op": "Const", "attr": {"dtype": {"type": "DT_FLOAT"}, "value": {"tensor": {"dtype": "DT_FLOAT", "tensorShape": {"dim": [{"size": "1"}, {"size": "992"}, {"size": "1"}, {"size": "1"}]}}}}}, {"name": "BatchNormalization_414/mul", "op": "Const", "attr": {"value": {"tensor": {"dtype": "DT_FLOAT", "tensorShape": {"dim": [{"size": "1"}, {"size": "128"}, {"size": "1"}, {"size": "1"}]}}}, "dtype": {"type": "DT_FLOAT"}}}, {"name": "BatchNormalization_411/mul", "op": "Const", "attr": {"value": {"tensor": {"dtype": "DT_FLOAT", "tensorShape": {"dim": [{"size": "1"}, {"size": "960"}, {"size": "1"}, {"size": "1"}]}}}, "dtype": {"type": "DT_FLOAT"}}}, {"name": "BatchNormalization_407/mul", "op": "Const", "attr": {"dtype": {"type": "DT_FLOAT"}, "value": {"tensor": {"dtype": "DT_FLOAT", "tensorShape": {"dim": [{"size": "1"}, {"size": "128"}, {"size": "1"}, {"size": "1"}]}}}}}, {"name": "BatchNormalization_404/mul", "op": "Const", "attr": {"dtype": {"type": "DT_FLOAT"}, "value": {"tensor": {"dtype": "DT_FLOAT", "tensorShape": {"dim": [{"size": "1"}, {"size": "928"}, {"size": "1"}, {"size": "1"}]}}}}}, {"name": "BatchNormalization_400/mul", "op": "Const", "attr": {"dtype": {"type": "DT_FLOAT"}, "value": {"tensor": {"dtype": "DT_FLOAT", "tensorShape": {"dim": [{"size": "1"}, {"size": "128"}, {"size": "1"}, {"size": "1"}]}}}}}, {"name": "BatchNormalization_397/mul", "op": "Const", "attr": {"value": {"tensor": {"dtype": "DT_FLOAT", "tensorShape": {"dim": [{"size": "1"}, {"size": "896"}, {"size": "1"}, {"size": "1"}]}}}, "dtype": {"type": "DT_FLOAT"}}}, {"name": "BatchNormalization_393/mul", "op": "Const", "attr": {"value": {"tensor": {"dtype": "DT_FLOAT", "tensorShape": {"dim": [{"size": "1"}, {"size": "128"}, {"size": "1"}, {"size": "1"}]}}}, "dtype": {"type": "DT_FLOAT"}}}, {"name": "BatchNormalization_390/mul", "op": "Const", "attr": {"value": {"tensor": {"dtype": "DT_FLOAT", "tensorShape": {"dim": [{"size": "1"}, {"size": "864"}, {"size": "1"}, {"size": "1"}]}}}, "dtype": {"type": "DT_FLOAT"}}}, {"name": "BatchNormalization_386/mul", "op": "Const", "attr": {"value": {"tensor": {"dtype": "DT_FLOAT", "tensorShape": {"dim": [{"size": "1"}, {"size": "128"}, {"size": "1"}, {"size": "1"}]}}}, "dtype": {"type": "DT_FLOAT"}}}, {"name": "BatchNormalization_383/mul", "op": "Const", "attr": {"dtype": {"type": "DT_FLOAT"}, "value": {"tensor": {"dtype": "DT_FLOAT", "tensorShape": {"dim": [{"size": "1"}, {"size": "832"}, {"size": "1"}, {"size": "1"}]}}}}}, {"name": "BatchNormalization_379/mul", "op": "Const", "attr": {"value": {"tensor": {"dtype": "DT_FLOAT", "tensorShape": {"dim": [{"size": "1"}, {"size": "128"}, {"size": "1"}, {"size": "1"}]}}}, "dtype": {"type": "DT_FLOAT"}}}, {"name": "BatchNormalization_376/mul", "op": "Const", "attr": {"value": {"tensor": {"dtype": "DT_FLOAT", "tensorShape": {"dim": [{"size": "1"}, {"size": "800"}, {"size": "1"}, {"size": "1"}]}}}, "dtype": {"type": "DT_FLOAT"}}}, {"name": "BatchNormalization_372/mul", "op": "Const", "attr": {"value": {"tensor": {"dtype": "DT_FLOAT", "tensorShape": {"dim": [{"size": "1"}, {"size": "128"}, {"size": "1"}, {"size": "1"}]}}}, "dtype": {"type": "DT_FLOAT"}}}, {"name": "BatchNormalization_369/mul", "op": "Const", "attr": {"value": {"tensor": {"dtype": "DT_FLOAT", "tensorShape": {"dim": [{"size": "1"}, {"size": "768"}, {"size": "1"}, {"size": "1"}]}}}, "dtype": {"type": "DT_FLOAT"}}}, {"name": "BatchNormalization_365/mul", "op": "Const", "attr": {"value": {"tensor": {"dtype": "DT_FLOAT", "tensorShape": {"dim": [{"size": "1"}, {"size": "128"}, {"size": "1"}, {"size": "1"}]}}}, "dtype": {"type": "DT_FLOAT"}}}, {"name": "BatchNormalization_362/mul", "op": "Const", "attr": {"dtype": {"type": "DT_FLOAT"}, "value": {"tensor": {"dtype": "DT_FLOAT", "tensorShape": {"dim": [{"size": "1"}, {"size": "736"}, {"size": "1"}, {"size": "1"}]}}}}}, {"name": "BatchNormalization_358/mul", "op": "Const", "attr": {"value": {"tensor": {"dtype": "DT_FLOAT", "tensorShape": {"dim": [{"size": "1"}, {"size": "128"}, {"size": "1"}, {"size": "1"}]}}}, "dtype": {"type": "DT_FLOAT"}}}, {"name": "BatchNormalization_355/mul", "op": "Const", "attr": {"dtype": {"type": "DT_FLOAT"}, "value": {"tensor": {"dtype": "DT_FLOAT", "tensorShape": {"dim": [{"size": "1"}, {"size": "704"}, {"size": "1"}, {"size": "1"}]}}}}}, {"name": "BatchNormalization_351/mul", "op": "Const", "attr": {"dtype": {"type": "DT_FLOAT"}, "value": {"tensor": {"dtype": "DT_FLOAT", "tensorShape": {"dim": [{"size": "1"}, {"size": "128"}, {"size": "1"}, {"size": "1"}]}}}}}, {"name": "BatchNormalization_348/mul", "op": "Const", "attr": {"value": {"tensor": {"dtype": "DT_FLOAT", "tensorShape": {"dim": [{"size": "1"}, {"size": "672"}, {"size": "1"}, {"size": "1"}]}}}, "dtype": {"type": "DT_FLOAT"}}}, {"name": "BatchNormalization_344/mul", "op": "Const", "attr": {"value": {"tensor": {"dtype": "DT_FLOAT", "tensorShape": {"dim": [{"size": "1"}, {"size": "128"}, {"size": "1"}, {"size": "1"}]}}}, "dtype": {"type": "DT_FLOAT"}}}, {"name": "BatchNormalization_341/mul", "op": "Const", "attr": {"value": {"tensor": {"dtype": "DT_FLOAT", "tensorShape": {"dim": [{"size": "1"}, {"size": "640"}, {"size": "1"}, {"size": "1"}]}}}, "dtype": {"type": "DT_FLOAT"}}}, {"name": "BatchNormalization_337/mul", "op": "Const", "attr": {"value": {"tensor": {"dtype": "DT_FLOAT", "tensorShape": {"dim": [{"size": "1"}, {"size": "128"}, {"size": "1"}, {"size": "1"}]}}}, "dtype": {"type": "DT_FLOAT"}}}, {"name": "BatchNormalization_334/mul", "op": "Const", "attr": {"value": {"tensor": {"dtype": "DT_FLOAT", "tensorShape": {"dim": [{"size": "1"}, {"size": "608"}, {"size": "1"}, {"size": "1"}]}}}, "dtype": {"type": "DT_FLOAT"}}}, {"name": "BatchNormalization_330/mul", "op": "Const", "attr": {"value": {"tensor": {"dtype": "DT_FLOAT", "tensorShape": {"dim": [{"size": "1"}, {"size": "128"}, {"size": "1"}, {"size": "1"}]}}}, "dtype": {"type": "DT_FLOAT"}}}, {"name": "BatchNormalization_327/mul", "op": "Const", "attr": {"value": {"tensor": {"dtype": "DT_FLOAT", "tensorShape": {"dim": [{"size": "1"}, {"size": "576"}, {"size": "1"}, {"size": "1"}]}}}, "dtype": {"type": "DT_FLOAT"}}}, {"name": "BatchNormalization_323/mul", "op": "Const", "attr": {"value": {"tensor": {"dtype": "DT_FLOAT", "tensorShape": {"dim": [{"size": "1"}, {"size": "128"}, {"size": "1"}, {"size": "1"}]}}}, "dtype": {"type": "DT_FLOAT"}}}, {"name": "BatchNormalization_320/mul", "op": "Const", "attr": {"value": {"tensor": {"dtype": "DT_FLOAT", "tensorShape": {"dim": [{"size": "1"}, {"size": "544"}, {"size": "1"}, {"size": "1"}]}}}, "dtype": {"type": "DT_FLOAT"}}}, {"name": "BatchNormalization_316/mul", "op": "Const", "attr": {"value": {"tensor": {"dtype": "DT_FLOAT", "tensorShape": {"dim": [{"size": "1"}, {"size": "128"}, {"size": "1"}, {"size": "1"}]}}}, "dtype": {"type": "DT_FLOAT"}}}, {"name": "BatchNormalization_313/mul", "op": "Const", "attr": {"value": {"tensor": {"dtype": "DT_FLOAT", "tensorShape": {"dim": [{"size": "1"}, {"size": "512"}, {"size": "1"}, {"size": "1"}]}}}, "dtype": {"type": "DT_FLOAT"}}}, {"name": "BatchNormalization_308/mul", "op": "Const", "attr": {"value": {"tensor": {"dtype": "DT_FLOAT", "tensorShape": {"dim": [{"size": "1"}, {"size": "1024"}, {"size": "1"}, {"size": "1"}]}}}, "dtype": {"type": "DT_FLOAT"}}}, {"name": "BatchNormalization_304/mul", "op": "Const", "attr": {"value": {"tensor": {"dtype": "DT_FLOAT", "tensorShape": {"dim": [{"size": "1"}, {"size": "128"}, {"size": "1"}, {"size": "1"}]}}}, "dtype": {"type": "DT_FLOAT"}}}, {"name": "BatchNormalization_301/mul", "op": "Const", "attr": {"value": {"tensor": {"dtype": "DT_FLOAT", "tensorShape": {"dim": [{"size": "1"}, {"size": "992"}, {"size": "1"}, {"size": "1"}]}}}, "dtype": {"type": "DT_FLOAT"}}}, {"name": "BatchNormalization_297/mul", "op": "Const", "attr": {"value": {"tensor": {"dtype": "DT_FLOAT", "tensorShape": {"dim": [{"size": "1"}, {"size": "128"}, {"size": "1"}, {"size": "1"}]}}}, "dtype": {"type": "DT_FLOAT"}}}, {"name": "BatchNormalization_294/mul", "op": "Const", "attr": {"value": {"tensor": {"dtype": "DT_FLOAT", "tensorShape": {"dim": [{"size": "1"}, {"size": "960"}, {"size": "1"}, {"size": "1"}]}}}, "dtype": {"type": "DT_FLOAT"}}}, {"name": "BatchNormalization_290/mul", "op": "Const", "attr": {"value": {"tensor": {"dtype": "DT_FLOAT", "tensorShape": {"dim": [{"size": "1"}, {"size": "128"}, {"size": "1"}, {"size": "1"}]}}}, "dtype": {"type": "DT_FLOAT"}}}, {"name": "BatchNormalization_287/mul", "op": "Const", "attr": {"value": {"tensor": {"dtype": "DT_FLOAT", "tensorShape": {"dim": [{"size": "1"}, {"size": "928"}, {"size": "1"}, {"size": "1"}]}}}, "dtype": {"type": "DT_FLOAT"}}}, {"name": "BatchNormalization_283/mul", "op": "Const", "attr": {"value": {"tensor": {"dtype": "DT_FLOAT", "tensorShape": {"dim": [{"size": "1"}, {"size": "128"}, {"size": "1"}, {"size": "1"}]}}}, "dtype": {"type": "DT_FLOAT"}}}, {"name": "BatchNormalization_280/mul", "op": "Const", "attr": {"dtype": {"type": "DT_FLOAT"}, "value": {"tensor": {"dtype": "DT_FLOAT", "tensorShape": {"dim": [{"size": "1"}, {"size": "896"}, {"size": "1"}, {"size": "1"}]}}}}}, {"name": "BatchNormalization_276/mul", "op": "Const", "attr": {"value": {"tensor": {"dtype": "DT_FLOAT", "tensorShape": {"dim": [{"size": "1"}, {"size": "128"}, {"size": "1"}, {"size": "1"}]}}}, "dtype": {"type": "DT_FLOAT"}}}, {"name": "BatchNormalization_273/mul", "op": "Const", "attr": {"dtype": {"type": "DT_FLOAT"}, "value": {"tensor": {"dtype": "DT_FLOAT", "tensorShape": {"dim": [{"size": "1"}, {"size": "864"}, {"size": "1"}, {"size": "1"}]}}}}}, {"name": "BatchNormalization_269/mul", "op": "Const", "attr": {"value": {"tensor": {"dtype": "DT_FLOAT", "tensorShape": {"dim": [{"size": "1"}, {"size": "128"}, {"size": "1"}, {"size": "1"}]}}}, "dtype": {"type": "DT_FLOAT"}}}, {"name": "BatchNormalization_266/mul", "op": "Const", "attr": {"value": {"tensor": {"dtype": "DT_FLOAT", "tensorShape": {"dim": [{"size": "1"}, {"size": "832"}, {"size": "1"}, {"size": "1"}]}}}, "dtype": {"type": "DT_FLOAT"}}}, {"name": "BatchNormalization_262/mul", "op": "Const", "attr": {"dtype": {"type": "DT_FLOAT"}, "value": {"tensor": {"dtype": "DT_FLOAT", "tensorShape": {"dim": [{"size": "1"}, {"size": "128"}, {"size": "1"}, {"size": "1"}]}}}}}, {"name": "BatchNormalization_259/mul", "op": "Const", "attr": {"value": {"tensor": {"dtype": "DT_FLOAT", "tensorShape": {"dim": [{"size": "1"}, {"size": "800"}, {"size": "1"}, {"size": "1"}]}}}, "dtype": {"type": "DT_FLOAT"}}}, {"name": "BatchNormalization_255/mul", "op": "Const", "attr": {"value": {"tensor": {"dtype": "DT_FLOAT", "tensorShape": {"dim": [{"size": "1"}, {"size": "128"}, {"size": "1"}, {"size": "1"}]}}}, "dtype": {"type": "DT_FLOAT"}}}, {"name": "BatchNormalization_252/mul", "op": "Const", "attr": {"value": {"tensor": {"dtype": "DT_FLOAT", "tensorShape": {"dim": [{"size": "1"}, {"size": "768"}, {"size": "1"}, {"size": "1"}]}}}, "dtype": {"type": "DT_FLOAT"}}}, {"name": "BatchNormalization_248/mul", "op": "Const", "attr": {"value": {"tensor": {"dtype": "DT_FLOAT", "tensorShape": {"dim": [{"size": "1"}, {"size": "128"}, {"size": "1"}, {"size": "1"}]}}}, "dtype": {"type": "DT_FLOAT"}}}, {"name": "BatchNormalization_245/mul", "op": "Const", "attr": {"value": {"tensor": {"dtype": "DT_FLOAT", "tensorShape": {"dim": [{"size": "1"}, {"size": "736"}, {"size": "1"}, {"size": "1"}]}}}, "dtype": {"type": "DT_FLOAT"}}}, {"name": "BatchNormalization_241/mul", "op": "Const", "attr": {"value": {"tensor": {"dtype": "DT_FLOAT", "tensorShape": {"dim": [{"size": "1"}, {"size": "128"}, {"size": "1"}, {"size": "1"}]}}}, "dtype": {"type": "DT_FLOAT"}}}, {"name": "BatchNormalization_238/mul", "op": "Const", "attr": {"value": {"tensor": {"dtype": "DT_FLOAT", "tensorShape": {"dim": [{"size": "1"}, {"size": "704"}, {"size": "1"}, {"size": "1"}]}}}, "dtype": {"type": "DT_FLOAT"}}}, {"name": "BatchNormalization_234/mul", "op": "Const", "attr": {"value": {"tensor": {"dtype": "DT_FLOAT", "tensorShape": {"dim": [{"size": "1"}, {"size": "128"}, {"size": "1"}, {"size": "1"}]}}}, "dtype": {"type": "DT_FLOAT"}}}, {"name": "BatchNormalization_231/mul", "op": "Const", "attr": {"dtype": {"type": "DT_FLOAT"}, "value": {"tensor": {"dtype": "DT_FLOAT", "tensorShape": {"dim": [{"size": "1"}, {"size": "672"}, {"size": "1"}, {"size": "1"}]}}}}}, {"name": "BatchNormalization_227/mul", "op": "Const", "attr": {"value": {"tensor": {"dtype": "DT_FLOAT", "tensorShape": {"dim": [{"size": "1"}, {"size": "128"}, {"size": "1"}, {"size": "1"}]}}}, "dtype": {"type": "DT_FLOAT"}}}, {"name": "BatchNormalization_224/mul", "op": "Const", "attr": {"dtype": {"type": "DT_FLOAT"}, "value": {"tensor": {"dtype": "DT_FLOAT", "tensorShape": {"dim": [{"size": "1"}, {"size": "640"}, {"size": "1"}, {"size": "1"}]}}}}}, {"name": "BatchNormalization_220/mul", "op": "Const", "attr": {"value": {"tensor": {"dtype": "DT_FLOAT", "tensorShape": {"dim": [{"size": "1"}, {"size": "128"}, {"size": "1"}, {"size": "1"}]}}}, "dtype": {"type": "DT_FLOAT"}}}, {"name": "BatchNormalization_217/mul", "op": "Const", "attr": {"value": {"tensor": {"dtype": "DT_FLOAT", "tensorShape": {"dim": [{"size": "1"}, {"size": "608"}, {"size": "1"}, {"size": "1"}]}}}, "dtype": {"type": "DT_FLOAT"}}}, {"name": "BatchNormalization_213/mul", "op": "Const", "attr": {"value": {"tensor": {"dtype": "DT_FLOAT", "tensorShape": {"dim": [{"size": "1"}, {"size": "128"}, {"size": "1"}, {"size": "1"}]}}}, "dtype": {"type": "DT_FLOAT"}}}, {"name": "BatchNormalization_210/mul", "op": "Const", "attr": {"dtype": {"type": "DT_FLOAT"}, "value": {"tensor": {"dtype": "DT_FLOAT", "tensorShape": {"dim": [{"size": "1"}, {"size": "576"}, {"size": "1"}, {"size": "1"}]}}}}}, {"name": "BatchNormalization_206/mul", "op": "Const", "attr": {"value": {"tensor": {"dtype": "DT_FLOAT", "tensorShape": {"dim": [{"size": "1"}, {"size": "128"}, {"size": "1"}, {"size": "1"}]}}}, "dtype": {"type": "DT_FLOAT"}}}, {"name": "BatchNormalization_203/mul", "op": "Const", "attr": {"value": {"tensor": {"dtype": "DT_FLOAT", "tensorShape": {"dim": [{"size": "1"}, {"size": "544"}, {"size": "1"}, {"size": "1"}]}}}, "dtype": {"type": "DT_FLOAT"}}}, {"name": "BatchNormalization_199/mul", "op": "Const", "attr": {"value": {"tensor": {"dtype": "DT_FLOAT", "tensorShape": {"dim": [{"size": "1"}, {"size": "128"}, {"size": "1"}, {"size": "1"}]}}}, "dtype": {"type": "DT_FLOAT"}}}, {"name": "BatchNormalization_196/mul", "op": "Const", "attr": {"value": {"tensor": {"dtype": "DT_FLOAT", "tensorShape": {"dim": [{"size": "1"}, {"size": "512"}, {"size": "1"}, {"size": "1"}]}}}, "dtype": {"type": "DT_FLOAT"}}}, {"name": "BatchNormalization_192/mul", "op": "Const", "attr": {"dtype": {"type": "DT_FLOAT"}, "value": {"tensor": {"dtype": "DT_FLOAT", "tensorShape": {"dim": [{"size": "1"}, {"size": "128"}, {"size": "1"}, {"size": "1"}]}}}}}, {"name": "BatchNormalization_189/mul", "op": "Const", "attr": {"dtype": {"type": "DT_FLOAT"}, "value": {"tensor": {"dtype": "DT_FLOAT", "tensorShape": {"dim": [{"size": "1"}, {"size": "480"}, {"size": "1"}, {"size": "1"}]}}}}}, {"name": "BatchNormalization_185/mul", "op": "Const", "attr": {"dtype": {"type": "DT_FLOAT"}, "value": {"tensor": {"dtype": "DT_FLOAT", "tensorShape": {"dim": [{"size": "1"}, {"size": "128"}, {"size": "1"}, {"size": "1"}]}}}}}, {"name": "BatchNormalization_182/mul", "op": "Const", "attr": {"value": {"tensor": {"dtype": "DT_FLOAT", "tensorShape": {"dim": [{"size": "1"}, {"size": "448"}, {"size": "1"}, {"size": "1"}]}}}, "dtype": {"type": "DT_FLOAT"}}}, {"name": "BatchNormalization_178/mul", "op": "Const", "attr": {"value": {"tensor": {"dtype": "DT_FLOAT", "tensorShape": {"dim": [{"size": "1"}, {"size": "128"}, {"size": "1"}, {"size": "1"}]}}}, "dtype": {"type": "DT_FLOAT"}}}, {"name": "BatchNormalization_175/mul", "op": "Const", "attr": {"dtype": {"type": "DT_FLOAT"}, "value": {"tensor": {"dtype": "DT_FLOAT", "tensorShape": {"dim": [{"size": "1"}, {"size": "416"}, {"size": "1"}, {"size": "1"}]}}}}}, {"name": "BatchNormalization_171/mul", "op": "Const", "attr": {"value": {"tensor": {"dtype": "DT_FLOAT", "tensorShape": {"dim": [{"size": "1"}, {"size": "128"}, {"size": "1"}, {"size": "1"}]}}}, "dtype": {"type": "DT_FLOAT"}}}, {"name": "BatchNormalization_168/mul", "op": "Const", "attr": {"dtype": {"type": "DT_FLOAT"}, "value": {"tensor": {"dtype": "DT_FLOAT", "tensorShape": {"dim": [{"size": "1"}, {"size": "384"}, {"size": "1"}, {"size": "1"}]}}}}}, {"name": "BatchNormalization_164/mul", "op": "Const", "attr": {"value": {"tensor": {"dtype": "DT_FLOAT", "tensorShape": {"dim": [{"size": "1"}, {"size": "128"}, {"size": "1"}, {"size": "1"}]}}}, "dtype": {"type": "DT_FLOAT"}}}, {"name": "BatchNormalization_161/mul", "op": "Const", "attr": {"value": {"tensor": {"dtype": "DT_FLOAT", "tensorShape": {"dim": [{"size": "1"}, {"size": "352"}, {"size": "1"}, {"size": "1"}]}}}, "dtype": {"type": "DT_FLOAT"}}}, {"name": "BatchNormalization_157/mul", "op": "Const", "attr": {"dtype": {"type": "DT_FLOAT"}, "value": {"tensor": {"dtype": "DT_FLOAT", "tensorShape": {"dim": [{"size": "1"}, {"size": "128"}, {"size": "1"}, {"size": "1"}]}}}}}, {"name": "BatchNormalization_154/mul", "op": "Const", "attr": {"value": {"tensor": {"dtype": "DT_FLOAT", "tensorShape": {"dim": [{"size": "1"}, {"size": "320"}, {"size": "1"}, {"size": "1"}]}}}, "dtype": {"type": "DT_FLOAT"}}}, {"name": "BatchNormalization_150/mul", "op": "Const", "attr": {"value": {"tensor": {"dtype": "DT_FLOAT", "tensorShape": {"dim": [{"size": "1"}, {"size": "128"}, {"size": "1"}, {"size": "1"}]}}}, "dtype": {"type": "DT_FLOAT"}}}, {"name": "BatchNormalization_147/mul", "op": "Const", "attr": {"value": {"tensor": {"dtype": "DT_FLOAT", "tensorShape": {"dim": [{"size": "1"}, {"size": "288"}, {"size": "1"}, {"size": "1"}]}}}, "dtype": {"type": "DT_FLOAT"}}}, {"name": "BatchNormalization_143/mul", "op": "Const", "attr": {"dtype": {"type": "DT_FLOAT"}, "value": {"tensor": {"dtype": "DT_FLOAT", "tensorShape": {"dim": [{"size": "1"}, {"size": "128"}, {"size": "1"}, {"size": "1"}]}}}}}, {"name": "BatchNormalization_140/mul", "op": "Const", "attr": {"value": {"tensor": {"dtype": "DT_FLOAT", "tensorShape": {"dim": [{"size": "1"}, {"size": "256"}, {"size": "1"}, {"size": "1"}]}}}, "dtype": {"type": "DT_FLOAT"}}}, {"name": "BatchNormalization_135/mul", "op": "Const", "attr": {"dtype": {"type": "DT_FLOAT"}, "value": {"tensor": {"dtype": "DT_FLOAT", "tensorShape": {"dim": [{"size": "1"}, {"size": "512"}, {"size": "1"}, {"size": "1"}]}}}}}, {"name": "BatchNormalization_131/mul", "op": "Const", "attr": {"value": {"tensor": {"dtype": "DT_FLOAT", "tensorShape": {"dim": [{"size": "1"}, {"size": "128"}, {"size": "1"}, {"size": "1"}]}}}, "dtype": {"type": "DT_FLOAT"}}}, {"name": "BatchNormalization_128/mul", "op": "Const", "attr": {"value": {"tensor": {"dtype": "DT_FLOAT", "tensorShape": {"dim": [{"size": "1"}, {"size": "480"}, {"size": "1"}, {"size": "1"}]}}}, "dtype": {"type": "DT_FLOAT"}}}, {"name": "BatchNormalization_124/mul", "op": "Const", "attr": {"value": {"tensor": {"dtype": "DT_FLOAT", "tensorShape": {"dim": [{"size": "1"}, {"size": "128"}, {"size": "1"}, {"size": "1"}]}}}, "dtype": {"type": "DT_FLOAT"}}}, {"name": "BatchNormalization_121/mul", "op": "Const", "attr": {"value": {"tensor": {"dtype": "DT_FLOAT", "tensorShape": {"dim": [{"size": "1"}, {"size": "448"}, {"size": "1"}, {"size": "1"}]}}}, "dtype": {"type": "DT_FLOAT"}}}, {"name": "BatchNormalization_117/mul", "op": "Const", "attr": {"value": {"tensor": {"dtype": "DT_FLOAT", "tensorShape": {"dim": [{"size": "1"}, {"size": "128"}, {"size": "1"}, {"size": "1"}]}}}, "dtype": {"type": "DT_FLOAT"}}}, {"name": "BatchNormalization_114/mul", "op": "Const", "attr": {"value": {"tensor": {"dtype": "DT_FLOAT", "tensorShape": {"dim": [{"size": "1"}, {"size": "416"}, {"size": "1"}, {"size": "1"}]}}}, "dtype": {"type": "DT_FLOAT"}}}, {"name": "BatchNormalization_110/mul", "op": "Const", "attr": {"value": {"tensor": {"dtype": "DT_FLOAT", "tensorShape": {"dim": [{"size": "1"}, {"size": "128"}, {"size": "1"}, {"size": "1"}]}}}, "dtype": {"type": "DT_FLOAT"}}}, {"name": "BatchNormalization_107/mul", "op": "Const", "attr": {"value": {"tensor": {"dtype": "DT_FLOAT", "tensorShape": {"dim": [{"size": "1"}, {"size": "384"}, {"size": "1"}, {"size": "1"}]}}}, "dtype": {"type": "DT_FLOAT"}}}, {"name": "BatchNormalization_103/mul", "op": "Const", "attr": {"dtype": {"type": "DT_FLOAT"}, "value": {"tensor": {"dtype": "DT_FLOAT", "tensorShape": {"dim": [{"size": "1"}, {"size": "128"}, {"size": "1"}, {"size": "1"}]}}}}}, {"name": "BatchNormalization_100/mul", "op": "Const", "attr": {"dtype": {"type": "DT_FLOAT"}, "value": {"tensor": {"dtype": "DT_FLOAT", "tensorShape": {"dim": [{"size": "1"}, {"size": "352"}, {"size": "1"}, {"size": "1"}]}}}}}, {"name": "BatchNormalization_96/mul", "op": "Const", "attr": {"value": {"tensor": {"dtype": "DT_FLOAT", "tensorShape": {"dim": [{"size": "1"}, {"size": "128"}, {"size": "1"}, {"size": "1"}]}}}, "dtype": {"type": "DT_FLOAT"}}}, {"name": "BatchNormalization_93/mul", "op": "Const", "attr": {"value": {"tensor": {"dtype": "DT_FLOAT", "tensorShape": {"dim": [{"size": "1"}, {"size": "320"}, {"size": "1"}, {"size": "1"}]}}}, "dtype": {"type": "DT_FLOAT"}}}, {"name": "BatchNormalization_89/mul", "op": "Const", "attr": {"dtype": {"type": "DT_FLOAT"}, "value": {"tensor": {"dtype": "DT_FLOAT", "tensorShape": {"dim": [{"size": "1"}, {"size": "128"}, {"size": "1"}, {"size": "1"}]}}}}}, {"name": "BatchNormalization_86/mul", "op": "Const", "attr": {"value": {"tensor": {"dtype": "DT_FLOAT", "tensorShape": {"dim": [{"size": "1"}, {"size": "288"}, {"size": "1"}, {"size": "1"}]}}}, "dtype": {"type": "DT_FLOAT"}}}, {"name": "BatchNormalization_82/mul", "op": "Const", "attr": {"value": {"tensor": {"dtype": "DT_FLOAT", "tensorShape": {"dim": [{"size": "1"}, {"size": "128"}, {"size": "1"}, {"size": "1"}]}}}, "dtype": {"type": "DT_FLOAT"}}}, {"name": "BatchNormalization_79/mul", "op": "Const", "attr": {"value": {"tensor": {"dtype": "DT_FLOAT", "tensorShape": {"dim": [{"size": "1"}, {"size": "256"}, {"size": "1"}, {"size": "1"}]}}}, "dtype": {"type": "DT_FLOAT"}}}, {"name": "BatchNormalization_75/mul", "op": "Const", "attr": {"dtype": {"type": "DT_FLOAT"}, "value": {"tensor": {"dtype": "DT_FLOAT", "tensorShape": {"dim": [{"size": "1"}, {"size": "128"}, {"size": "1"}, {"size": "1"}]}}}}}, {"name": "BatchNormalization_72/mul", "op": "Const", "attr": {"value": {"tensor": {"dtype": "DT_FLOAT", "tensorShape": {"dim": [{"size": "1"}, {"size": "224"}, {"size": "1"}, {"size": "1"}]}}}, "dtype": {"type": "DT_FLOAT"}}}, {"name": "BatchNormalization_68/mul", "op": "Const", "attr": {"value": {"tensor": {"dtype": "DT_FLOAT", "tensorShape": {"dim": [{"size": "1"}, {"size": "128"}, {"size": "1"}, {"size": "1"}]}}}, "dtype": {"type": "DT_FLOAT"}}}, {"name": "BatchNormalization_65/mul", "op": "Const", "attr": {"dtype": {"type": "DT_FLOAT"}, "value": {"tensor": {"dtype": "DT_FLOAT", "tensorShape": {"dim": [{"size": "1"}, {"size": "192"}, {"size": "1"}, {"size": "1"}]}}}}}, {"name": "BatchNormalization_61/mul", "op": "Const", "attr": {"value": {"tensor": {"dtype": "DT_FLOAT", "tensorShape": {"dim": [{"size": "1"}, {"size": "128"}, {"size": "1"}, {"size": "1"}]}}}, "dtype": {"type": "DT_FLOAT"}}}, {"name": "BatchNormalization_58/mul", "op": "Const", "attr": {"value": {"tensor": {"dtype": "DT_FLOAT", "tensorShape": {"dim": [{"size": "1"}, {"size": "160"}, {"size": "1"}, {"size": "1"}]}}}, "dtype": {"type": "DT_FLOAT"}}}, {"name": "BatchNormalization_54/mul", "op": "Const", "attr": {"value": {"tensor": {"dtype": "DT_FLOAT", "tensorShape": {"dim": [{"size": "1"}, {"size": "128"}, {"size": "1"}, {"size": "1"}]}}}, "dtype": {"type": "DT_FLOAT"}}}, {"name": "BatchNormalization_51/mul", "op": "Const", "attr": {"value": {"tensor": {"dtype": "DT_FLOAT", "tensorShape": {"dim": [{"size": "1"}, {"size": "128"}, {"size": "1"}, {"size": "1"}]}}}, "dtype": {"type": "DT_FLOAT"}}}, {"name": "BatchNormalization_46/mul", "op": "Const", "attr": {"value": {"tensor": {"dtype": "DT_FLOAT", "tensorShape": {"dim": [{"size": "1"}, {"size": "256"}, {"size": "1"}, {"size": "1"}]}}}, "dtype": {"type": "DT_FLOAT"}}}, {"name": "BatchNormalization_42/mul", "op": "Const", "attr": {"value": {"tensor": {"dtype": "DT_FLOAT", "tensorShape": {"dim": [{"size": "1"}, {"size": "128"}, {"size": "1"}, {"size": "1"}]}}}, "dtype": {"type": "DT_FLOAT"}}}, {"name": "BatchNormalization_39/mul", "op": "Const", "attr": {"value": {"tensor": {"dtype": "DT_FLOAT", "tensorShape": {"dim": [{"size": "1"}, {"size": "224"}, {"size": "1"}, {"size": "1"}]}}}, "dtype": {"type": "DT_FLOAT"}}}, {"name": "BatchNormalization_35/mul", "op": "Const", "attr": {"value": {"tensor": {"dtype": "DT_FLOAT", "tensorShape": {"dim": [{"size": "1"}, {"size": "128"}, {"size": "1"}, {"size": "1"}]}}}, "dtype": {"type": "DT_FLOAT"}}}, {"name": "BatchNormalization_32/mul", "op": "Const", "attr": {"value": {"tensor": {"dtype": "DT_FLOAT", "tensorShape": {"dim": [{"size": "1"}, {"size": "192"}, {"size": "1"}, {"size": "1"}]}}}, "dtype": {"type": "DT_FLOAT"}}}, {"name": "BatchNormalization_28/mul", "op": "Const", "attr": {"value": {"tensor": {"dtype": "DT_FLOAT", "tensorShape": {"dim": [{"size": "1"}, {"size": "128"}, {"size": "1"}, {"size": "1"}]}}}, "dtype": {"type": "DT_FLOAT"}}}, {"name": "BatchNormalization_25/mul", "op": "Const", "attr": {"value": {"tensor": {"dtype": "DT_FLOAT", "tensorShape": {"dim": [{"size": "1"}, {"size": "160"}, {"size": "1"}, {"size": "1"}]}}}, "dtype": {"type": "DT_FLOAT"}}}, {"name": "BatchNormalization_21/mul", "op": "Const", "attr": {"value": {"tensor": {"dtype": "DT_FLOAT", "tensorShape": {"dim": [{"size": "1"}, {"size": "128"}, {"size": "1"}, {"size": "1"}]}}}, "dtype": {"type": "DT_FLOAT"}}}, {"name": "BatchNormalization_18/mul", "op": "Const", "attr": {"value": {"tensor": {"dtype": "DT_FLOAT", "tensorShape": {"dim": [{"size": "1"}, {"size": "128"}, {"size": "1"}, {"size": "1"}]}}}, "dtype": {"type": "DT_FLOAT"}}}, {"name": "BatchNormalization_14/mul", "op": "Const", "attr": {"value": {"tensor": {"dtype": "DT_FLOAT", "tensorShape": {"dim": [{"size": "1"}, {"size": "128"}, {"size": "1"}, {"size": "1"}]}}}, "dtype": {"type": "DT_FLOAT"}}}, {"name": "BatchNormalization_11/mul", "op": "Const", "attr": {"value": {"tensor": {"dtype": "DT_FLOAT", "tensorShape": {"dim": [{"size": "1"}, {"size": "96"}, {"size": "1"}, {"size": "1"}]}}}, "dtype": {"type": "DT_FLOAT"}}}, {"name": "BatchNormalization_7/mul", "op": "Const", "attr": {"value": {"tensor": {"dtype": "DT_FLOAT", "tensorShape": {"dim": [{"size": "1"}, {"size": "128"}, {"size": "1"}, {"size": "1"}]}}}, "dtype": {"type": "DT_FLOAT"}}}, {"name": "BatchNormalization_4/mul", "op": "Const", "attr": {"value": {"tensor": {"dtype": "DT_FLOAT", "tensorShape": {"dim": [{"size": "1"}, {"size": "64"}, {"size": "1"}, {"size": "1"}]}}}, "dtype": {"type": "DT_FLOAT"}}}, {"name": "BatchNormalization_1/mul", "op": "Const", "attr": {"value": {"tensor": {"dtype": "DT_FLOAT", "tensorShape": {"dim": [{"size": "1"}, {"size": "64"}, {"size": "1"}, {"size": "1"}]}}}, "dtype": {"type": "DT_FLOAT"}}}, {"name": "Const_607", "op": "Const", "attr": {"value": {"tensor": {"dtype": "DT_INT32", "tensorShape": {"dim": [{"size": "4"}, {"size": "2"}]}}}, "dtype": {"type": "DT_INT32"}}}, {"name": "split", "op": "Const", "attr": {"value": {"tensor": {"dtype": "DT_FLOAT", "tensorShape": {"dim": [{"size": "7"}, {"size": "7"}, {"size": "1"}, {"size": "64"}]}}}, "dtype": {"type": "DT_FLOAT"}}}, {"name": "BatchNormalization_1/sub", "op": "Const", "attr": {"value": {"tensor": {"dtype": "DT_FLOAT", "tensorShape": {"dim": [{"size": "1"}, {"size": "64"}, {"size": "1"}, {"size": "1"}]}}}, "dtype": {"type": "DT_FLOAT"}}}, {"name": "BatchNormalization_4/sub", "op": "Const", "attr": {"value": {"tensor": {"dtype": "DT_FLOAT", "tensorShape": {"dim": [{"size": "1"}, {"size": "64"}, {"size": "1"}, {"size": "1"}]}}}, "dtype": {"type": "DT_FLOAT"}}}, {"name": "split_2", "op": "Const", "attr": {"value": {"tensor": {"dtype": "DT_FLOAT", "tensorShape": {"dim": [{"size": "1"}, {"size": "1"}, {"size": "64"}, {"size": "128"}]}}}, "dtype": {"type": "DT_FLOAT"}}}, {"name": "BatchNormalization_7/sub", "op": "Const", "attr": {"dtype": {"type": "DT_FLOAT"}, "value": {"tensor": {"dtype": "DT_FLOAT", "tensorShape": {"dim": [{"size": "1"}, {"size": "128"}, {"size": "1"}, {"size": "1"}]}}}}}, {"name": "split_4", "op": "Const", "attr": {"value": {"tensor": {"dtype": "DT_FLOAT", "tensorShape": {"dim": [{"size": "3"}, {"size": "3"}, {"size": "128"}, {"size": "32"}]}}}, "dtype": {"type": "DT_FLOAT"}}}, {"name": "BatchNormalization_11/sub", "op": "Const", "attr": {"dtype": {"type": "DT_FLOAT"}, "value": {"tensor": {"dtype": "DT_FLOAT", "tensorShape": {"dim": [{"size": "1"}, {"size": "96"}, {"size": "1"}, {"size": "1"}]}}}}}, {"name": "split_6", "op": "Const", "attr": {"value": {"tensor": {"dtype": "DT_FLOAT", "tensorShape": {"dim": [{"size": "1"}, {"size": "1"}, {"size": "96"}, {"size": "128"}]}}}, "dtype": {"type": "DT_FLOAT"}}}, {"name": "BatchNormalization_14/sub", "op": "Const", "attr": {"value": {"tensor": {"dtype": "DT_FLOAT", "tensorShape": {"dim": [{"size": "1"}, {"size": "128"}, {"size": "1"}, {"size": "1"}]}}}, "dtype": {"type": "DT_FLOAT"}}}, {"name": "split_8", "op": "Const", "attr": {"value": {"tensor": {"dtype": "DT_FLOAT", "tensorShape": {"dim": [{"size": "3"}, {"size": "3"}, {"size": "128"}, {"size": "32"}]}}}, "dtype": {"type": "DT_FLOAT"}}}, {"name": "BatchNormalization_18/sub", "op": "Const", "attr": {"value": {"tensor": {"dtype": "DT_FLOAT", "tensorShape": {"dim": [{"size": "1"}, {"size": "128"}, {"size": "1"}, {"size": "1"}]}}}, "dtype": {"type": "DT_FLOAT"}}}, {"name": "split_10", "op": "Const", "attr": {"dtype": {"type": "DT_FLOAT"}, "value": {"tensor": {"dtype": "DT_FLOAT", "tensorShape": {"dim": [{"size": "1"}, {"size": "1"}, {"size": "128"}, {"size": "128"}]}}}}}, {"name": "BatchNormalization_21/sub", "op": "Const", "attr": {"value": {"tensor": {"dtype": "DT_FLOAT", "tensorShape": {"dim": [{"size": "1"}, {"size": "128"}, {"size": "1"}, {"size": "1"}]}}}, "dtype": {"type": "DT_FLOAT"}}}, {"name": "split_12", "op": "Const", "attr": {"value": {"tensor": {"dtype": "DT_FLOAT", "tensorShape": {"dim": [{"size": "3"}, {"size": "3"}, {"size": "128"}, {"size": "32"}]}}}, "dtype": {"type": "DT_FLOAT"}}}, {"name": "BatchNormalization_25/sub", "op": "Const", "attr": {"dtype": {"type": "DT_FLOAT"}, "value": {"tensor": {"dtype": "DT_FLOAT", "tensorShape": {"dim": [{"size": "1"}, {"size": "160"}, {"size": "1"}, {"size": "1"}]}}}}}, {"name": "split_14", "op": "Const", "attr": {"value": {"tensor": {"dtype": "DT_FLOAT", "tensorShape": {"dim": [{"size": "1"}, {"size": "1"}, {"size": "160"}, {"size": "128"}]}}}, "dtype": {"type": "DT_FLOAT"}}}, {"name": "BatchNormalization_28/sub", "op": "Const", "attr": {"dtype": {"type": "DT_FLOAT"}, "value": {"tensor": {"dtype": "DT_FLOAT", "tensorShape": {"dim": [{"size": "1"}, {"size": "128"}, {"size": "1"}, {"size": "1"}]}}}}}, {"name": "split_16", "op": "Const", "attr": {"value": {"tensor": {"dtype": "DT_FLOAT", "tensorShape": {"dim": [{"size": "3"}, {"size": "3"}, {"size": "128"}, {"size": "32"}]}}}, "dtype": {"type": "DT_FLOAT"}}}, {"name": "BatchNormalization_32/sub", "op": "Const", "attr": {"value": {"tensor": {"dtype": "DT_FLOAT", "tensorShape": {"dim": [{"size": "1"}, {"size": "192"}, {"size": "1"}, {"size": "1"}]}}}, "dtype": {"type": "DT_FLOAT"}}}, {"name": "split_18", "op": "Const", "attr": {"value": {"tensor": {"dtype": "DT_FLOAT", "tensorShape": {"dim": [{"size": "1"}, {"size": "1"}, {"size": "192"}, {"size": "128"}]}}}, "dtype": {"type": "DT_FLOAT"}}}, {"name": "BatchNormalization_35/sub", "op": "Const", "attr": {"dtype": {"type": "DT_FLOAT"}, "value": {"tensor": {"dtype": "DT_FLOAT", "tensorShape": {"dim": [{"size": "1"}, {"size": "128"}, {"size": "1"}, {"size": "1"}]}}}}}, {"name": "split_20", "op": "Const", "attr": {"value": {"tensor": {"dtype": "DT_FLOAT", "tensorShape": {"dim": [{"size": "3"}, {"size": "3"}, {"size": "128"}, {"size": "32"}]}}}, "dtype": {"type": "DT_FLOAT"}}}, {"name": "BatchNormalization_39/sub", "op": "Const", "attr": {"value": {"tensor": {"dtype": "DT_FLOAT", "tensorShape": {"dim": [{"size": "1"}, {"size": "224"}, {"size": "1"}, {"size": "1"}]}}}, "dtype": {"type": "DT_FLOAT"}}}, {"name": "split_22", "op": "Const", "attr": {"dtype": {"type": "DT_FLOAT"}, "value": {"tensor": {"dtype": "DT_FLOAT", "tensorShape": {"dim": [{"size": "1"}, {"size": "1"}, {"size": "224"}, {"size": "128"}]}}}}}, {"name": "BatchNormalization_42/sub", "op": "Const", "attr": {"dtype": {"type": "DT_FLOAT"}, "value": {"tensor": {"dtype": "DT_FLOAT", "tensorShape": {"dim": [{"size": "1"}, {"size": "128"}, {"size": "1"}, {"size": "1"}]}}}}}, {"name": "split_24", "op": "Const", "attr": {"value": {"tensor": {"dtype": "DT_FLOAT", "tensorShape": {"dim": [{"size": "3"}, {"size": "3"}, {"size": "128"}, {"size": "32"}]}}}, "dtype": {"type": "DT_FLOAT"}}}, {"name": "BatchNormalization_46/sub", "op": "Const", "attr": {"value": {"tensor": {"dtype": "DT_FLOAT", "tensorShape": {"dim": [{"size": "1"}, {"size": "256"}, {"size": "1"}, {"size": "1"}]}}}, "dtype": {"type": "DT_FLOAT"}}}, {"name": "split_26", "op": "Const", "attr": {"value": {"tensor": {"dtype": "DT_FLOAT", "tensorShape": {"dim": [{"size": "1"}, {"size": "1"}, {"size": "256"}, {"size": "128"}]}}}, "dtype": {"type": "DT_FLOAT"}}}, {"name": "BatchNormalization_51/sub", "op": "Const", "attr": {"value": {"tensor": {"dtype": "DT_FLOAT", "tensorShape": {"dim": [{"size": "1"}, {"size": "128"}, {"size": "1"}, {"size": "1"}]}}}, "dtype": {"type": "DT_FLOAT"}}}, {"name": "split_28", "op": "Const", "attr": {"value": {"tensor": {"dtype": "DT_FLOAT", "tensorShape": {"dim": [{"size": "1"}, {"size": "1"}, {"size": "128"}, {"size": "128"}]}}}, "dtype": {"type": "DT_FLOAT"}}}, {"name": "BatchNormalization_54/sub", "op": "Const", "attr": {"value": {"tensor": {"dtype": "DT_FLOAT", "tensorShape": {"dim": [{"size": "1"}, {"size": "128"}, {"size": "1"}, {"size": "1"}]}}}, "dtype": {"type": "DT_FLOAT"}}}, {"name": "split_30", "op": "Const", "attr": {"value": {"tensor": {"dtype": "DT_FLOAT", "tensorShape": {"dim": [{"size": "3"}, {"size": "3"}, {"size": "128"}, {"size": "32"}]}}}, "dtype": {"type": "DT_FLOAT"}}}, {"name": "BatchNormalization_58/sub", "op": "Const", "attr": {"dtype": {"type": "DT_FLOAT"}, "value": {"tensor": {"dtype": "DT_FLOAT", "tensorShape": {"dim": [{"size": "1"}, {"size": "160"}, {"size": "1"}, {"size": "1"}]}}}}}, {"name": "split_32", "op": "Const", "attr": {"dtype": {"type": "DT_FLOAT"}, "value": {"tensor": {"dtype": "DT_FLOAT", "tensorShape": {"dim": [{"size": "1"}, {"size": "1"}, {"size": "160"}, {"size": "128"}]}}}}}, {"name": "BatchNormalization_61/sub", "op": "Const", "attr": {"dtype": {"type": "DT_FLOAT"}, "value": {"tensor": {"dtype": "DT_FLOAT", "tensorShape": {"dim": [{"size": "1"}, {"size": "128"}, {"size": "1"}, {"size": "1"}]}}}}}, {"name": "split_34", "op": "Const", "attr": {"value": {"tensor": {"dtype": "DT_FLOAT", "tensorShape": {"dim": [{"size": "3"}, {"size": "3"}, {"size": "128"}, {"size": "32"}]}}}, "dtype": {"type": "DT_FLOAT"}}}, {"name": "BatchNormalization_65/sub", "op": "Const", "attr": {"dtype": {"type": "DT_FLOAT"}, "value": {"tensor": {"dtype": "DT_FLOAT", "tensorShape": {"dim": [{"size": "1"}, {"size": "192"}, {"size": "1"}, {"size": "1"}]}}}}}, {"name": "split_36", "op": "Const", "attr": {"value": {"tensor": {"dtype": "DT_FLOAT", "tensorShape": {"dim": [{"size": "1"}, {"size": "1"}, {"size": "192"}, {"size": "128"}]}}}, "dtype": {"type": "DT_FLOAT"}}}, {"name": "BatchNormalization_68/sub", "op": "Const", "attr": {"value": {"tensor": {"dtype": "DT_FLOAT", "tensorShape": {"dim": [{"size": "1"}, {"size": "128"}, {"size": "1"}, {"size": "1"}]}}}, "dtype": {"type": "DT_FLOAT"}}}, {"name": "split_38", "op": "Const", "attr": {"value": {"tensor": {"dtype": "DT_FLOAT", "tensorShape": {"dim": [{"size": "3"}, {"size": "3"}, {"size": "128"}, {"size": "32"}]}}}, "dtype": {"type": "DT_FLOAT"}}}, {"name": "BatchNormalization_72/sub", "op": "Const", "attr": {"value": {"tensor": {"dtype": "DT_FLOAT", "tensorShape": {"dim": [{"size": "1"}, {"size": "224"}, {"size": "1"}, {"size": "1"}]}}}, "dtype": {"type": "DT_FLOAT"}}}, {"name": "split_40", "op": "Const", "attr": {"value": {"tensor": {"dtype": "DT_FLOAT", "tensorShape": {"dim": [{"size": "1"}, {"size": "1"}, {"size": "224"}, {"size": "128"}]}}}, "dtype": {"type": "DT_FLOAT"}}}, {"name": "BatchNormalization_75/sub", "op": "Const", "attr": {"value": {"tensor": {"dtype": "DT_FLOAT", "tensorShape": {"dim": [{"size": "1"}, {"size": "128"}, {"size": "1"}, {"size": "1"}]}}}, "dtype": {"type": "DT_FLOAT"}}}, {"name": "split_42", "op": "Const", "attr": {"dtype": {"type": "DT_FLOAT"}, "value": {"tensor": {"dtype": "DT_FLOAT", "tensorShape": {"dim": [{"size": "3"}, {"size": "3"}, {"size": "128"}, {"size": "32"}]}}}}}, {"name": "BatchNormalization_79/sub", "op": "Const", "attr": {"value": {"tensor": {"dtype": "DT_FLOAT", "tensorShape": {"dim": [{"size": "1"}, {"size": "256"}, {"size": "1"}, {"size": "1"}]}}}, "dtype": {"type": "DT_FLOAT"}}}, {"name": "split_44", "op": "Const", "attr": {"dtype": {"type": "DT_FLOAT"}, "value": {"tensor": {"dtype": "DT_FLOAT", "tensorShape": {"dim": [{"size": "1"}, {"size": "1"}, {"size": "256"}, {"size": "128"}]}}}}}, {"name": "BatchNormalization_82/sub", "op": "Const", "attr": {"value": {"tensor": {"dtype": "DT_FLOAT", "tensorShape": {"dim": [{"size": "1"}, {"size": "128"}, {"size": "1"}, {"size": "1"}]}}}, "dtype": {"type": "DT_FLOAT"}}}, {"name": "split_46", "op": "Const", "attr": {"value": {"tensor": {"dtype": "DT_FLOAT", "tensorShape": {"dim": [{"size": "3"}, {"size": "3"}, {"size": "128"}, {"size": "32"}]}}}, "dtype": {"type": "DT_FLOAT"}}}, {"name": "BatchNormalization_86/sub", "op": "Const", "attr": {"value": {"tensor": {"dtype": "DT_FLOAT", "tensorShape": {"dim": [{"size": "1"}, {"size": "288"}, {"size": "1"}, {"size": "1"}]}}}, "dtype": {"type": "DT_FLOAT"}}}, {"name": "split_48", "op": "Const", "attr": {"value": {"tensor": {"dtype": "DT_FLOAT", "tensorShape": {"dim": [{"size": "1"}, {"size": "1"}, {"size": "288"}, {"size": "128"}]}}}, "dtype": {"type": "DT_FLOAT"}}}, {"name": "BatchNormalization_89/sub", "op": "Const", "attr": {"dtype": {"type": "DT_FLOAT"}, "value": {"tensor": {"dtype": "DT_FLOAT", "tensorShape": {"dim": [{"size": "1"}, {"size": "128"}, {"size": "1"}, {"size": "1"}]}}}}}, {"name": "split_50", "op": "Const", "attr": {"value": {"tensor": {"dtype": "DT_FLOAT", "tensorShape": {"dim": [{"size": "3"}, {"size": "3"}, {"size": "128"}, {"size": "32"}]}}}, "dtype": {"type": "DT_FLOAT"}}}, {"name": "BatchNormalization_93/sub", "op": "Const", "attr": {"dtype": {"type": "DT_FLOAT"}, "value": {"tensor": {"dtype": "DT_FLOAT", "tensorShape": {"dim": [{"size": "1"}, {"size": "320"}, {"size": "1"}, {"size": "1"}]}}}}}, {"name": "split_52", "op": "Const", "attr": {"dtype": {"type": "DT_FLOAT"}, "value": {"tensor": {"dtype": "DT_FLOAT", "tensorShape": {"dim": [{"size": "1"}, {"size": "1"}, {"size": "320"}, {"size": "128"}]}}}}}, {"name": "BatchNormalization_96/sub", "op": "Const", "attr": {"value": {"tensor": {"dtype": "DT_FLOAT", "tensorShape": {"dim": [{"size": "1"}, {"size": "128"}, {"size": "1"}, {"size": "1"}]}}}, "dtype": {"type": "DT_FLOAT"}}}, {"name": "split_54", "op": "Const", "attr": {"value": {"tensor": {"dtype": "DT_FLOAT", "tensorShape": {"dim": [{"size": "3"}, {"size": "3"}, {"size": "128"}, {"size": "32"}]}}}, "dtype": {"type": "DT_FLOAT"}}}, {"name": "BatchNormalization_100/sub", "op": "Const", "attr": {"value": {"tensor": {"dtype": "DT_FLOAT", "tensorShape": {"dim": [{"size": "1"}, {"size": "352"}, {"size": "1"}, {"size": "1"}]}}}, "dtype": {"type": "DT_FLOAT"}}}, {"name": "split_56", "op": "Const", "attr": {"dtype": {"type": "DT_FLOAT"}, "value": {"tensor": {"dtype": "DT_FLOAT", "tensorShape": {"dim": [{"size": "1"}, {"size": "1"}, {"size": "352"}, {"size": "128"}]}}}}}, {"name": "BatchNormalization_103/sub", "op": "Const", "attr": {"value": {"tensor": {"dtype": "DT_FLOAT", "tensorShape": {"dim": [{"size": "1"}, {"size": "128"}, {"size": "1"}, {"size": "1"}]}}}, "dtype": {"type": "DT_FLOAT"}}}, {"name": "split_58", "op": "Const", "attr": {"dtype": {"type": "DT_FLOAT"}, "value": {"tensor": {"dtype": "DT_FLOAT", "tensorShape": {"dim": [{"size": "3"}, {"size": "3"}, {"size": "128"}, {"size": "32"}]}}}}}, {"name": "BatchNormalization_107/sub", "op": "Const", "attr": {"value": {"tensor": {"dtype": "DT_FLOAT", "tensorShape": {"dim": [{"size": "1"}, {"size": "384"}, {"size": "1"}, {"size": "1"}]}}}, "dtype": {"type": "DT_FLOAT"}}}, {"name": "split_60", "op": "Const", "attr": {"dtype": {"type": "DT_FLOAT"}, "value": {"tensor": {"dtype": "DT_FLOAT", "tensorShape": {"dim": [{"size": "1"}, {"size": "1"}, {"size": "384"}, {"size": "128"}]}}}}}, {"name": "BatchNormalization_110/sub", "op": "Const", "attr": {"value": {"tensor": {"dtype": "DT_FLOAT", "tensorShape": {"dim": [{"size": "1"}, {"size": "128"}, {"size": "1"}, {"size": "1"}]}}}, "dtype": {"type": "DT_FLOAT"}}}, {"name": "split_62", "op": "Const", "attr": {"value": {"tensor": {"dtype": "DT_FLOAT", "tensorShape": {"dim": [{"size": "3"}, {"size": "3"}, {"size": "128"}, {"size": "32"}]}}}, "dtype": {"type": "DT_FLOAT"}}}, {"name": "BatchNormalization_114/sub", "op": "Const", "attr": {"dtype": {"type": "DT_FLOAT"}, "value": {"tensor": {"dtype": "DT_FLOAT", "tensorShape": {"dim": [{"size": "1"}, {"size": "416"}, {"size": "1"}, {"size": "1"}]}}}}}, {"name": "split_64", "op": "Const", "attr": {"value": {"tensor": {"dtype": "DT_FLOAT", "tensorShape": {"dim": [{"size": "1"}, {"size": "1"}, {"size": "416"}, {"size": "128"}]}}}, "dtype": {"type": "DT_FLOAT"}}}, {"name": "BatchNormalization_117/sub", "op": "Const", "attr": {"value": {"tensor": {"dtype": "DT_FLOAT", "tensorShape": {"dim": [{"size": "1"}, {"size": "128"}, {"size": "1"}, {"size": "1"}]}}}, "dtype": {"type": "DT_FLOAT"}}}, {"name": "split_66", "op": "Const", "attr": {"value": {"tensor": {"dtype": "DT_FLOAT", "tensorShape": {"dim": [{"size": "3"}, {"size": "3"}, {"size": "128"}, {"size": "32"}]}}}, "dtype": {"type": "DT_FLOAT"}}}, {"name": "BatchNormalization_121/sub", "op": "Const", "attr": {"value": {"tensor": {"dtype": "DT_FLOAT", "tensorShape": {"dim": [{"size": "1"}, {"size": "448"}, {"size": "1"}, {"size": "1"}]}}}, "dtype": {"type": "DT_FLOAT"}}}, {"name": "split_68", "op": "Const", "attr": {"value": {"tensor": {"dtype": "DT_FLOAT", "tensorShape": {"dim": [{"size": "1"}, {"size": "1"}, {"size": "448"}, {"size": "128"}]}}}, "dtype": {"type": "DT_FLOAT"}}}, {"name": "BatchNormalization_124/sub", "op": "Const", "attr": {"value": {"tensor": {"dtype": "DT_FLOAT", "tensorShape": {"dim": [{"size": "1"}, {"size": "128"}, {"size": "1"}, {"size": "1"}]}}}, "dtype": {"type": "DT_FLOAT"}}}, {"name": "split_70", "op": "Const", "attr": {"value": {"tensor": {"dtype": "DT_FLOAT", "tensorShape": {"dim": [{"size": "3"}, {"size": "3"}, {"size": "128"}, {"size": "32"}]}}}, "dtype": {"type": "DT_FLOAT"}}}, {"name": "BatchNormalization_128/sub", "op": "Const", "attr": {"value": {"tensor": {"dtype": "DT_FLOAT", "tensorShape": {"dim": [{"size": "1"}, {"size": "480"}, {"size": "1"}, {"size": "1"}]}}}, "dtype": {"type": "DT_FLOAT"}}}, {"name": "split_72", "op": "Const", "attr": {"dtype": {"type": "DT_FLOAT"}, "value": {"tensor": {"dtype": "DT_FLOAT", "tensorShape": {"dim": [{"size": "1"}, {"size": "1"}, {"size": "480"}, {"size": "128"}]}}}}}, {"name": "BatchNormalization_131/sub", "op": "Const", "attr": {"value": {"tensor": {"dtype": "DT_FLOAT", "tensorShape": {"dim": [{"size": "1"}, {"size": "128"}, {"size": "1"}, {"size": "1"}]}}}, "dtype": {"type": "DT_FLOAT"}}}, {"name": "split_74", "op": "Const", "attr": {"value": {"tensor": {"dtype": "DT_FLOAT", "tensorShape": {"dim": [{"size": "3"}, {"size": "3"}, {"size": "128"}, {"size": "32"}]}}}, "dtype": {"type": "DT_FLOAT"}}}, {"name": "BatchNormalization_135/sub", "op": "Const", "attr": {"value": {"tensor": {"dtype": "DT_FLOAT", "tensorShape": {"dim": [{"size": "1"}, {"size": "512"}, {"size": "1"}, {"size": "1"}]}}}, "dtype": {"type": "DT_FLOAT"}}}, {"name": "split_76", "op": "Const", "attr": {"value": {"tensor": {"dtype": "DT_FLOAT", "tensorShape": {"dim": [{"size": "1"}, {"size": "1"}, {"size": "512"}, {"size": "256"}]}}}, "dtype": {"type": "DT_FLOAT"}}}, {"name": "BatchNormalization_140/sub", "op": "Const", "attr": {"value": {"tensor": {"dtype": "DT_FLOAT", "tensorShape": {"dim": [{"size": "1"}, {"size": "256"}, {"size": "1"}, {"size": "1"}]}}}, "dtype": {"type": "DT_FLOAT"}}}, {"name": "split_78", "op": "Const", "attr": {"value": {"tensor": {"dtype": "DT_FLOAT", "tensorShape": {"dim": [{"size": "1"}, {"size": "1"}, {"size": "256"}, {"size": "128"}]}}}, "dtype": {"type": "DT_FLOAT"}}}, {"name": "BatchNormalization_143/sub", "op": "Const", "attr": {"dtype": {"type": "DT_FLOAT"}, "value": {"tensor": {"dtype": "DT_FLOAT", "tensorShape": {"dim": [{"size": "1"}, {"size": "128"}, {"size": "1"}, {"size": "1"}]}}}}}, {"name": "split_80", "op": "Const", "attr": {"value": {"tensor": {"dtype": "DT_FLOAT", "tensorShape": {"dim": [{"size": "3"}, {"size": "3"}, {"size": "128"}, {"size": "32"}]}}}, "dtype": {"type": "DT_FLOAT"}}}, {"name": "BatchNormalization_147/sub", "op": "Const", "attr": {"value": {"tensor": {"dtype": "DT_FLOAT", "tensorShape": {"dim": [{"size": "1"}, {"size": "288"}, {"size": "1"}, {"size": "1"}]}}}, "dtype": {"type": "DT_FLOAT"}}}, {"name": "split_82", "op": "Const", "attr": {"value": {"tensor": {"dtype": "DT_FLOAT", "tensorShape": {"dim": [{"size": "1"}, {"size": "1"}, {"size": "288"}, {"size": "128"}]}}}, "dtype": {"type": "DT_FLOAT"}}}, {"name": "BatchNormalization_150/sub", "op": "Const", "attr": {"value": {"tensor": {"dtype": "DT_FLOAT", "tensorShape": {"dim": [{"size": "1"}, {"size": "128"}, {"size": "1"}, {"size": "1"}]}}}, "dtype": {"type": "DT_FLOAT"}}}, {"name": "split_84", "op": "Const", "attr": {"value": {"tensor": {"dtype": "DT_FLOAT", "tensorShape": {"dim": [{"size": "3"}, {"size": "3"}, {"size": "128"}, {"size": "32"}]}}}, "dtype": {"type": "DT_FLOAT"}}}, {"name": "BatchNormalization_154/sub", "op": "Const", "attr": {"value": {"tensor": {"dtype": "DT_FLOAT", "tensorShape": {"dim": [{"size": "1"}, {"size": "320"}, {"size": "1"}, {"size": "1"}]}}}, "dtype": {"type": "DT_FLOAT"}}}, {"name": "split_86", "op": "Const", "attr": {"value": {"tensor": {"dtype": "DT_FLOAT", "tensorShape": {"dim": [{"size": "1"}, {"size": "1"}, {"size": "320"}, {"size": "128"}]}}}, "dtype": {"type": "DT_FLOAT"}}}, {"name": "BatchNormalization_157/sub", "op": "Const", "attr": {"value": {"tensor": {"dtype": "DT_FLOAT", "tensorShape": {"dim": [{"size": "1"}, {"size": "128"}, {"size": "1"}, {"size": "1"}]}}}, "dtype": {"type": "DT_FLOAT"}}}, {"name": "split_88", "op": "Const", "attr": {"value": {"tensor": {"dtype": "DT_FLOAT", "tensorShape": {"dim": [{"size": "3"}, {"size": "3"}, {"size": "128"}, {"size": "32"}]}}}, "dtype": {"type": "DT_FLOAT"}}}, {"name": "BatchNormalization_161/sub", "op": "Const", "attr": {"dtype": {"type": "DT_FLOAT"}, "value": {"tensor": {"dtype": "DT_FLOAT", "tensorShape": {"dim": [{"size": "1"}, {"size": "352"}, {"size": "1"}, {"size": "1"}]}}}}}, {"name": "split_90", "op": "Const", "attr": {"value": {"tensor": {"dtype": "DT_FLOAT", "tensorShape": {"dim": [{"size": "1"}, {"size": "1"}, {"size": "352"}, {"size": "128"}]}}}, "dtype": {"type": "DT_FLOAT"}}}, {"name": "BatchNormalization_164/sub", "op": "Const", "attr": {"value": {"tensor": {"dtype": "DT_FLOAT", "tensorShape": {"dim": [{"size": "1"}, {"size": "128"}, {"size": "1"}, {"size": "1"}]}}}, "dtype": {"type": "DT_FLOAT"}}}, {"name": "split_92", "op": "Const", "attr": {"value": {"tensor": {"dtype": "DT_FLOAT", "tensorShape": {"dim": [{"size": "3"}, {"size": "3"}, {"size": "128"}, {"size": "32"}]}}}, "dtype": {"type": "DT_FLOAT"}}}, {"name": "BatchNormalization_168/sub", "op": "Const", "attr": {"value": {"tensor": {"dtype": "DT_FLOAT", "tensorShape": {"dim": [{"size": "1"}, {"size": "384"}, {"size": "1"}, {"size": "1"}]}}}, "dtype": {"type": "DT_FLOAT"}}}, {"name": "split_94", "op": "Const", "attr": {"value": {"tensor": {"dtype": "DT_FLOAT", "tensorShape": {"dim": [{"size": "1"}, {"size": "1"}, {"size": "384"}, {"size": "128"}]}}}, "dtype": {"type": "DT_FLOAT"}}}, {"name": "BatchNormalization_171/sub", "op": "Const", "attr": {"value": {"tensor": {"dtype": "DT_FLOAT", "tensorShape": {"dim": [{"size": "1"}, {"size": "128"}, {"size": "1"}, {"size": "1"}]}}}, "dtype": {"type": "DT_FLOAT"}}}, {"name": "split_96", "op": "Const", "attr": {"value": {"tensor": {"dtype": "DT_FLOAT", "tensorShape": {"dim": [{"size": "3"}, {"size": "3"}, {"size": "128"}, {"size": "32"}]}}}, "dtype": {"type": "DT_FLOAT"}}}, {"name": "BatchNormalization_175/sub", "op": "Const", "attr": {"value": {"tensor": {"dtype": "DT_FLOAT", "tensorShape": {"dim": [{"size": "1"}, {"size": "416"}, {"size": "1"}, {"size": "1"}]}}}, "dtype": {"type": "DT_FLOAT"}}}, {"name": "split_98", "op": "Const", "attr": {"dtype": {"type": "DT_FLOAT"}, "value": {"tensor": {"dtype": "DT_FLOAT", "tensorShape": {"dim": [{"size": "1"}, {"size": "1"}, {"size": "416"}, {"size": "128"}]}}}}}, {"name": "BatchNormalization_178/sub", "op": "Const", "attr": {"dtype": {"type": "DT_FLOAT"}, "value": {"tensor": {"dtype": "DT_FLOAT", "tensorShape": {"dim": [{"size": "1"}, {"size": "128"}, {"size": "1"}, {"size": "1"}]}}}}}, {"name": "split_100", "op": "Const", "attr": {"dtype": {"type": "DT_FLOAT"}, "value": {"tensor": {"dtype": "DT_FLOAT", "tensorShape": {"dim": [{"size": "3"}, {"size": "3"}, {"size": "128"}, {"size": "32"}]}}}}}, {"name": "BatchNormalization_182/sub", "op": "Const", "attr": {"value": {"tensor": {"dtype": "DT_FLOAT", "tensorShape": {"dim": [{"size": "1"}, {"size": "448"}, {"size": "1"}, {"size": "1"}]}}}, "dtype": {"type": "DT_FLOAT"}}}, {"name": "split_102", "op": "Const", "attr": {"value": {"tensor": {"dtype": "DT_FLOAT", "tensorShape": {"dim": [{"size": "1"}, {"size": "1"}, {"size": "448"}, {"size": "128"}]}}}, "dtype": {"type": "DT_FLOAT"}}}, {"name": "BatchNormalization_185/sub", "op": "Const", "attr": {"value": {"tensor": {"dtype": "DT_FLOAT", "tensorShape": {"dim": [{"size": "1"}, {"size": "128"}, {"size": "1"}, {"size": "1"}]}}}, "dtype": {"type": "DT_FLOAT"}}}, {"name": "split_104", "op": "Const", "attr": {"value": {"tensor": {"dtype": "DT_FLOAT", "tensorShape": {"dim": [{"size": "3"}, {"size": "3"}, {"size": "128"}, {"size": "32"}]}}}, "dtype": {"type": "DT_FLOAT"}}}, {"name": "BatchNormalization_189/sub", "op": "Const", "attr": {"value": {"tensor": {"dtype": "DT_FLOAT", "tensorShape": {"dim": [{"size": "1"}, {"size": "480"}, {"size": "1"}, {"size": "1"}]}}}, "dtype": {"type": "DT_FLOAT"}}}, {"name": "split_106", "op": "Const", "attr": {"value": {"tensor": {"dtype": "DT_FLOAT", "tensorShape": {"dim": [{"size": "1"}, {"size": "1"}, {"size": "480"}, {"size": "128"}]}}}, "dtype": {"type": "DT_FLOAT"}}}, {"name": "BatchNormalization_192/sub", "op": "Const", "attr": {"value": {"tensor": {"dtype": "DT_FLOAT", "tensorShape": {"dim": [{"size": "1"}, {"size": "128"}, {"size": "1"}, {"size": "1"}]}}}, "dtype": {"type": "DT_FLOAT"}}}, {"name": "split_108", "op": "Const", "attr": {"value": {"tensor": {"dtype": "DT_FLOAT", "tensorShape": {"dim": [{"size": "3"}, {"size": "3"}, {"size": "128"}, {"size": "32"}]}}}, "dtype": {"type": "DT_FLOAT"}}}, {"name": "BatchNormalization_196/sub", "op": "Const", "attr": {"value": {"tensor": {"dtype": "DT_FLOAT", "tensorShape": {"dim": [{"size": "1"}, {"size": "512"}, {"size": "1"}, {"size": "1"}]}}}, "dtype": {"type": "DT_FLOAT"}}}, {"name": "split_110", "op": "Const", "attr": {"value": {"tensor": {"dtype": "DT_FLOAT", "tensorShape": {"dim": [{"size": "1"}, {"size": "1"}, {"size": "512"}, {"size": "128"}]}}}, "dtype": {"type": "DT_FLOAT"}}}, {"name": "BatchNormalization_199/sub", "op": "Const", "attr": {"value": {"tensor": {"dtype": "DT_FLOAT", "tensorShape": {"dim": [{"size": "1"}, {"size": "128"}, {"size": "1"}, {"size": "1"}]}}}, "dtype": {"type": "DT_FLOAT"}}}, {"name": "split_112", "op": "Const", "attr": {"value": {"tensor": {"dtype": "DT_FLOAT", "tensorShape": {"dim": [{"size": "3"}, {"size": "3"}, {"size": "128"}, {"size": "32"}]}}}, "dtype": {"type": "DT_FLOAT"}}}, {"name": "BatchNormalization_203/sub", "op": "Const", "attr": {"value": {"tensor": {"dtype": "DT_FLOAT", "tensorShape": {"dim": [{"size": "1"}, {"size": "544"}, {"size": "1"}, {"size": "1"}]}}}, "dtype": {"type": "DT_FLOAT"}}}, {"name": "split_114", "op": "Const", "attr": {"value": {"tensor": {"dtype": "DT_FLOAT", "tensorShape": {"dim": [{"size": "1"}, {"size": "1"}, {"size": "544"}, {"size": "128"}]}}}, "dtype": {"type": "DT_FLOAT"}}}, {"name": "BatchNormalization_206/sub", "op": "Const", "attr": {"dtype": {"type": "DT_FLOAT"}, "value": {"tensor": {"dtype": "DT_FLOAT", "tensorShape": {"dim": [{"size": "1"}, {"size": "128"}, {"size": "1"}, {"size": "1"}]}}}}}, {"name": "split_116", "op": "Const", "attr": {"value": {"tensor": {"dtype": "DT_FLOAT", "tensorShape": {"dim": [{"size": "3"}, {"size": "3"}, {"size": "128"}, {"size": "32"}]}}}, "dtype": {"type": "DT_FLOAT"}}}, {"name": "BatchNormalization_210/sub", "op": "Const", "attr": {"dtype": {"type": "DT_FLOAT"}, "value": {"tensor": {"dtype": "DT_FLOAT", "tensorShape": {"dim": [{"size": "1"}, {"size": "576"}, {"size": "1"}, {"size": "1"}]}}}}}, {"name": "split_118", "op": "Const", "attr": {"value": {"tensor": {"dtype": "DT_FLOAT", "tensorShape": {"dim": [{"size": "1"}, {"size": "1"}, {"size": "576"}, {"size": "128"}]}}}, "dtype": {"type": "DT_FLOAT"}}}, {"name": "BatchNormalization_213/sub", "op": "Const", "attr": {"value": {"tensor": {"dtype": "DT_FLOAT", "tensorShape": {"dim": [{"size": "1"}, {"size": "128"}, {"size": "1"}, {"size": "1"}]}}}, "dtype": {"type": "DT_FLOAT"}}}, {"name": "split_120", "op": "Const", "attr": {"dtype": {"type": "DT_FLOAT"}, "value": {"tensor": {"dtype": "DT_FLOAT", "tensorShape": {"dim": [{"size": "3"}, {"size": "3"}, {"size": "128"}, {"size": "32"}]}}}}}, {"name": "BatchNormalization_217/sub", "op": "Const", "attr": {"value": {"tensor": {"dtype": "DT_FLOAT", "tensorShape": {"dim": [{"size": "1"}, {"size": "608"}, {"size": "1"}, {"size": "1"}]}}}, "dtype": {"type": "DT_FLOAT"}}}, {"name": "split_122", "op": "Const", "attr": {"value": {"tensor": {"dtype": "DT_FLOAT", "tensorShape": {"dim": [{"size": "1"}, {"size": "1"}, {"size": "608"}, {"size": "128"}]}}}, "dtype": {"type": "DT_FLOAT"}}}, {"name": "BatchNormalization_220/sub", "op": "Const", "attr": {"value": {"tensor": {"dtype": "DT_FLOAT", "tensorShape": {"dim": [{"size": "1"}, {"size": "128"}, {"size": "1"}, {"size": "1"}]}}}, "dtype": {"type": "DT_FLOAT"}}}, {"name": "split_124", "op": "Const", "attr": {"value": {"tensor": {"dtype": "DT_FLOAT", "tensorShape": {"dim": [{"size": "3"}, {"size": "3"}, {"size": "128"}, {"size": "32"}]}}}, "dtype": {"type": "DT_FLOAT"}}}, {"name": "BatchNormalization_224/sub", "op": "Const", "attr": {"dtype": {"type": "DT_FLOAT"}, "value": {"tensor": {"dtype": "DT_FLOAT", "tensorShape": {"dim": [{"size": "1"}, {"size": "640"}, {"size": "1"}, {"size": "1"}]}}}}}, {"name": "split_126", "op": "Const", "attr": {"value": {"tensor": {"dtype": "DT_FLOAT", "tensorShape": {"dim": [{"size": "1"}, {"size": "1"}, {"size": "640"}, {"size": "128"}]}}}, "dtype": {"type": "DT_FLOAT"}}}, {"name": "BatchNormalization_227/sub", "op": "Const", "attr": {"value": {"tensor": {"dtype": "DT_FLOAT", "tensorShape": {"dim": [{"size": "1"}, {"size": "128"}, {"size": "1"}, {"size": "1"}]}}}, "dtype": {"type": "DT_FLOAT"}}}, {"name": "split_128", "op": "Const", "attr": {"dtype": {"type": "DT_FLOAT"}, "value": {"tensor": {"dtype": "DT_FLOAT", "tensorShape": {"dim": [{"size": "3"}, {"size": "3"}, {"size": "128"}, {"size": "32"}]}}}}}, {"name": "BatchNormalization_231/sub", "op": "Const", "attr": {"value": {"tensor": {"dtype": "DT_FLOAT", "tensorShape": {"dim": [{"size": "1"}, {"size": "672"}, {"size": "1"}, {"size": "1"}]}}}, "dtype": {"type": "DT_FLOAT"}}}, {"name": "split_130", "op": "Const", "attr": {"value": {"tensor": {"dtype": "DT_FLOAT", "tensorShape": {"dim": [{"size": "1"}, {"size": "1"}, {"size": "672"}, {"size": "128"}]}}}, "dtype": {"type": "DT_FLOAT"}}}, {"name": "BatchNormalization_234/sub", "op": "Const", "attr": {"value": {"tensor": {"dtype": "DT_FLOAT", "tensorShape": {"dim": [{"size": "1"}, {"size": "128"}, {"size": "1"}, {"size": "1"}]}}}, "dtype": {"type": "DT_FLOAT"}}}, {"name": "split_132", "op": "Const", "attr": {"value": {"tensor": {"dtype": "DT_FLOAT", "tensorShape": {"dim": [{"size": "3"}, {"size": "3"}, {"size": "128"}, {"size": "32"}]}}}, "dtype": {"type": "DT_FLOAT"}}}, {"name": "BatchNormalization_238/sub", "op": "Const", "attr": {"value": {"tensor": {"dtype": "DT_FLOAT", "tensorShape": {"dim": [{"size": "1"}, {"size": "704"}, {"size": "1"}, {"size": "1"}]}}}, "dtype": {"type": "DT_FLOAT"}}}, {"name": "split_134", "op": "Const", "attr": {"value": {"tensor": {"dtype": "DT_FLOAT", "tensorShape": {"dim": [{"size": "1"}, {"size": "1"}, {"size": "704"}, {"size": "128"}]}}}, "dtype": {"type": "DT_FLOAT"}}}, {"name": "BatchNormalization_241/sub", "op": "Const", "attr": {"value": {"tensor": {"dtype": "DT_FLOAT", "tensorShape": {"dim": [{"size": "1"}, {"size": "128"}, {"size": "1"}, {"size": "1"}]}}}, "dtype": {"type": "DT_FLOAT"}}}, {"name": "split_136", "op": "Const", "attr": {"value": {"tensor": {"dtype": "DT_FLOAT", "tensorShape": {"dim": [{"size": "3"}, {"size": "3"}, {"size": "128"}, {"size": "32"}]}}}, "dtype": {"type": "DT_FLOAT"}}}, {"name": "BatchNormalization_245/sub", "op": "Const", "attr": {"value": {"tensor": {"dtype": "DT_FLOAT", "tensorShape": {"dim": [{"size": "1"}, {"size": "736"}, {"size": "1"}, {"size": "1"}]}}}, "dtype": {"type": "DT_FLOAT"}}}, {"name": "split_138", "op": "Const", "attr": {"dtype": {"type": "DT_FLOAT"}, "value": {"tensor": {"dtype": "DT_FLOAT", "tensorShape": {"dim": [{"size": "1"}, {"size": "1"}, {"size": "736"}, {"size": "128"}]}}}}}, {"name": "BatchNormalization_248/sub", "op": "Const", "attr": {"value": {"tensor": {"dtype": "DT_FLOAT", "tensorShape": {"dim": [{"size": "1"}, {"size": "128"}, {"size": "1"}, {"size": "1"}]}}}, "dtype": {"type": "DT_FLOAT"}}}, {"name": "split_140", "op": "Const", "attr": {"value": {"tensor": {"dtype": "DT_FLOAT", "tensorShape": {"dim": [{"size": "3"}, {"size": "3"}, {"size": "128"}, {"size": "32"}]}}}, "dtype": {"type": "DT_FLOAT"}}}, {"name": "BatchNormalization_252/sub", "op": "Const", "attr": {"value": {"tensor": {"dtype": "DT_FLOAT", "tensorShape": {"dim": [{"size": "1"}, {"size": "768"}, {"size": "1"}, {"size": "1"}]}}}, "dtype": {"type": "DT_FLOAT"}}}, {"name": "split_142", "op": "Const", "attr": {"value": {"tensor": {"dtype": "DT_FLOAT", "tensorShape": {"dim": [{"size": "1"}, {"size": "1"}, {"size": "768"}, {"size": "128"}]}}}, "dtype": {"type": "DT_FLOAT"}}}, {"name": "BatchNormalization_255/sub", "op": "Const", "attr": {"dtype": {"type": "DT_FLOAT"}, "value": {"tensor": {"dtype": "DT_FLOAT", "tensorShape": {"dim": [{"size": "1"}, {"size": "128"}, {"size": "1"}, {"size": "1"}]}}}}}, {"name": "split_144", "op": "Const", "attr": {"value": {"tensor": {"dtype": "DT_FLOAT", "tensorShape": {"dim": [{"size": "3"}, {"size": "3"}, {"size": "128"}, {"size": "32"}]}}}, "dtype": {"type": "DT_FLOAT"}}}, {"name": "BatchNormalization_259/sub", "op": "Const", "attr": {"value": {"tensor": {"dtype": "DT_FLOAT", "tensorShape": {"dim": [{"size": "1"}, {"size": "800"}, {"size": "1"}, {"size": "1"}]}}}, "dtype": {"type": "DT_FLOAT"}}}, {"name": "split_146", "op": "Const", "attr": {"dtype": {"type": "DT_FLOAT"}, "value": {"tensor": {"dtype": "DT_FLOAT", "tensorShape": {"dim": [{"size": "1"}, {"size": "1"}, {"size": "800"}, {"size": "128"}]}}}}}, {"name": "BatchNormalization_262/sub", "op": "Const", "attr": {"value": {"tensor": {"dtype": "DT_FLOAT", "tensorShape": {"dim": [{"size": "1"}, {"size": "128"}, {"size": "1"}, {"size": "1"}]}}}, "dtype": {"type": "DT_FLOAT"}}}, {"name": "split_148", "op": "Const", "attr": {"dtype": {"type": "DT_FLOAT"}, "value": {"tensor": {"dtype": "DT_FLOAT", "tensorShape": {"dim": [{"size": "3"}, {"size": "3"}, {"size": "128"}, {"size": "32"}]}}}}}, {"name": "BatchNormalization_266/sub", "op": "Const", "attr": {"value": {"tensor": {"dtype": "DT_FLOAT", "tensorShape": {"dim": [{"size": "1"}, {"size": "832"}, {"size": "1"}, {"size": "1"}]}}}, "dtype": {"type": "DT_FLOAT"}}}, {"name": "split_150", "op": "Const", "attr": {"value": {"tensor": {"dtype": "DT_FLOAT", "tensorShape": {"dim": [{"size": "1"}, {"size": "1"}, {"size": "832"}, {"size": "128"}]}}}, "dtype": {"type": "DT_FLOAT"}}}, {"name": "BatchNormalization_269/sub", "op": "Const", "attr": {"dtype": {"type": "DT_FLOAT"}, "value": {"tensor": {"dtype": "DT_FLOAT", "tensorShape": {"dim": [{"size": "1"}, {"size": "128"}, {"size": "1"}, {"size": "1"}]}}}}}, {"name": "split_152", "op": "Const", "attr": {"dtype": {"type": "DT_FLOAT"}, "value": {"tensor": {"dtype": "DT_FLOAT", "tensorShape": {"dim": [{"size": "3"}, {"size": "3"}, {"size": "128"}, {"size": "32"}]}}}}}, {"name": "BatchNormalization_273/sub", "op": "Const", "attr": {"dtype": {"type": "DT_FLOAT"}, "value": {"tensor": {"dtype": "DT_FLOAT", "tensorShape": {"dim": [{"size": "1"}, {"size": "864"}, {"size": "1"}, {"size": "1"}]}}}}}, {"name": "split_154", "op": "Const", "attr": {"value": {"tensor": {"dtype": "DT_FLOAT", "tensorShape": {"dim": [{"size": "1"}, {"size": "1"}, {"size": "864"}, {"size": "128"}]}}}, "dtype": {"type": "DT_FLOAT"}}}, {"name": "BatchNormalization_276/sub", "op": "Const", "attr": {"value": {"tensor": {"dtype": "DT_FLOAT", "tensorShape": {"dim": [{"size": "1"}, {"size": "128"}, {"size": "1"}, {"size": "1"}]}}}, "dtype": {"type": "DT_FLOAT"}}}, {"name": "split_156", "op": "Const", "attr": {"dtype": {"type": "DT_FLOAT"}, "value": {"tensor": {"dtype": "DT_FLOAT", "tensorShape": {"dim": [{"size": "3"}, {"size": "3"}, {"size": "128"}, {"size": "32"}]}}}}}, {"name": "BatchNormalization_280/sub", "op": "Const", "attr": {"value": {"tensor": {"dtype": "DT_FLOAT", "tensorShape": {"dim": [{"size": "1"}, {"size": "896"}, {"size": "1"}, {"size": "1"}]}}}, "dtype": {"type": "DT_FLOAT"}}}, {"name": "split_158", "op": "Const", "attr": {"value": {"tensor": {"dtype": "DT_FLOAT", "tensorShape": {"dim": [{"size": "1"}, {"size": "1"}, {"size": "896"}, {"size": "128"}]}}}, "dtype": {"type": "DT_FLOAT"}}}, {"name": "BatchNormalization_283/sub", "op": "Const", "attr": {"value": {"tensor": {"dtype": "DT_FLOAT", "tensorShape": {"dim": [{"size": "1"}, {"size": "128"}, {"size": "1"}, {"size": "1"}]}}}, "dtype": {"type": "DT_FLOAT"}}}, {"name": "split_160", "op": "Const", "attr": {"value": {"tensor": {"dtype": "DT_FLOAT", "tensorShape": {"dim": [{"size": "3"}, {"size": "3"}, {"size": "128"}, {"size": "32"}]}}}, "dtype": {"type": "DT_FLOAT"}}}, {"name": "BatchNormalization_287/sub", "op": "Const", "attr": {"dtype": {"type": "DT_FLOAT"}, "value": {"tensor": {"dtype": "DT_FLOAT", "tensorShape": {"dim": [{"size": "1"}, {"size": "928"}, {"size": "1"}, {"size": "1"}]}}}}}, {"name": "split_162", "op": "Const", "attr": {"value": {"tensor": {"dtype": "DT_FLOAT", "tensorShape": {"dim": [{"size": "1"}, {"size": "1"}, {"size": "928"}, {"size": "128"}]}}}, "dtype": {"type": "DT_FLOAT"}}}, {"name": "BatchNormalization_290/sub", "op": "Const", "attr": {"value": {"tensor": {"dtype": "DT_FLOAT", "tensorShape": {"dim": [{"size": "1"}, {"size": "128"}, {"size": "1"}, {"size": "1"}]}}}, "dtype": {"type": "DT_FLOAT"}}}, {"name": "split_164", "op": "Const", "attr": {"value": {"tensor": {"dtype": "DT_FLOAT", "tensorShape": {"dim": [{"size": "3"}, {"size": "3"}, {"size": "128"}, {"size": "32"}]}}}, "dtype": {"type": "DT_FLOAT"}}}, {"name": "BatchNormalization_294/sub", "op": "Const", "attr": {"value": {"tensor": {"dtype": "DT_FLOAT", "tensorShape": {"dim": [{"size": "1"}, {"size": "960"}, {"size": "1"}, {"size": "1"}]}}}, "dtype": {"type": "DT_FLOAT"}}}, {"name": "split_166", "op": "Const", "attr": {"value": {"tensor": {"dtype": "DT_FLOAT", "tensorShape": {"dim": [{"size": "1"}, {"size": "1"}, {"size": "960"}, {"size": "128"}]}}}, "dtype": {"type": "DT_FLOAT"}}}, {"name": "BatchNormalization_297/sub", "op": "Const", "attr": {"value": {"tensor": {"dtype": "DT_FLOAT", "tensorShape": {"dim": [{"size": "1"}, {"size": "128"}, {"size": "1"}, {"size": "1"}]}}}, "dtype": {"type": "DT_FLOAT"}}}, {"name": "split_168", "op": "Const", "attr": {"value": {"tensor": {"dtype": "DT_FLOAT", "tensorShape": {"dim": [{"size": "3"}, {"size": "3"}, {"size": "128"}, {"size": "32"}]}}}, "dtype": {"type": "DT_FLOAT"}}}, {"name": "BatchNormalization_301/sub", "op": "Const", "attr": {"value": {"tensor": {"dtype": "DT_FLOAT", "tensorShape": {"dim": [{"size": "1"}, {"size": "992"}, {"size": "1"}, {"size": "1"}]}}}, "dtype": {"type": "DT_FLOAT"}}}, {"name": "split_170", "op": "Const", "attr": {"dtype": {"type": "DT_FLOAT"}, "value": {"tensor": {"dtype": "DT_FLOAT", "tensorShape": {"dim": [{"size": "1"}, {"size": "1"}, {"size": "992"}, {"size": "128"}]}}}}}, {"name": "BatchNormalization_304/sub", "op": "Const", "attr": {"value": {"tensor": {"dtype": "DT_FLOAT", "tensorShape": {"dim": [{"size": "1"}, {"size": "128"}, {"size": "1"}, {"size": "1"}]}}}, "dtype": {"type": "DT_FLOAT"}}}, {"name": "split_172", "op": "Const", "attr": {"dtype": {"type": "DT_FLOAT"}, "value": {"tensor": {"dtype": "DT_FLOAT", "tensorShape": {"dim": [{"size": "3"}, {"size": "3"}, {"size": "128"}, {"size": "32"}]}}}}}, {"name": "BatchNormalization_308/sub", "op": "Const", "attr": {"value": {"tensor": {"dtype": "DT_FLOAT", "tensorShape": {"dim": [{"size": "1"}, {"size": "1024"}, {"size": "1"}, {"size": "1"}]}}}, "dtype": {"type": "DT_FLOAT"}}}, {"name": "split_174", "op": "Const", "attr": {"value": {"tensor": {"dtype": "DT_FLOAT", "tensorShape": {"dim": [{"size": "1"}, {"size": "1"}, {"size": "1024"}, {"size": "512"}]}}}, "dtype": {"type": "DT_FLOAT"}}}, {"name": "BatchNormalization_313/sub", "op": "Const", "attr": {"value": {"tensor": {"dtype": "DT_FLOAT", "tensorShape": {"dim": [{"size": "1"}, {"size": "512"}, {"size": "1"}, {"size": "1"}]}}}, "dtype": {"type": "DT_FLOAT"}}}, {"name": "split_176", "op": "Const", "attr": {"dtype": {"type": "DT_FLOAT"}, "value": {"tensor": {"dtype": "DT_FLOAT", "tensorShape": {"dim": [{"size": "1"}, {"size": "1"}, {"size": "512"}, {"size": "128"}]}}}}}, {"name": "BatchNormalization_316/sub", "op": "Const", "attr": {"value": {"tensor": {"dtype": "DT_FLOAT", "tensorShape": {"dim": [{"size": "1"}, {"size": "128"}, {"size": "1"}, {"size": "1"}]}}}, "dtype": {"type": "DT_FLOAT"}}}, {"name": "split_178", "op": "Const", "attr": {"value": {"tensor": {"dtype": "DT_FLOAT", "tensorShape": {"dim": [{"size": "3"}, {"size": "3"}, {"size": "128"}, {"size": "32"}]}}}, "dtype": {"type": "DT_FLOAT"}}}, {"name": "BatchNormalization_320/sub", "op": "Const", "attr": {"value": {"tensor": {"dtype": "DT_FLOAT", "tensorShape": {"dim": [{"size": "1"}, {"size": "544"}, {"size": "1"}, {"size": "1"}]}}}, "dtype": {"type": "DT_FLOAT"}}}, {"name": "split_180", "op": "Const", "attr": {"value": {"tensor": {"dtype": "DT_FLOAT", "tensorShape": {"dim": [{"size": "1"}, {"size": "1"}, {"size": "544"}, {"size": "128"}]}}}, "dtype": {"type": "DT_FLOAT"}}}, {"name": "BatchNormalization_323/sub", "op": "Const", "attr": {"value": {"tensor": {"dtype": "DT_FLOAT", "tensorShape": {"dim": [{"size": "1"}, {"size": "128"}, {"size": "1"}, {"size": "1"}]}}}, "dtype": {"type": "DT_FLOAT"}}}, {"name": "split_182", "op": "Const", "attr": {"value": {"tensor": {"dtype": "DT_FLOAT", "tensorShape": {"dim": [{"size": "3"}, {"size": "3"}, {"size": "128"}, {"size": "32"}]}}}, "dtype": {"type": "DT_FLOAT"}}}, {"name": "BatchNormalization_327/sub", "op": "Const", "attr": {"value": {"tensor": {"dtype": "DT_FLOAT", "tensorShape": {"dim": [{"size": "1"}, {"size": "576"}, {"size": "1"}, {"size": "1"}]}}}, "dtype": {"type": "DT_FLOAT"}}}, {"name": "split_184", "op": "Const", "attr": {"dtype": {"type": "DT_FLOAT"}, "value": {"tensor": {"dtype": "DT_FLOAT", "tensorShape": {"dim": [{"size": "1"}, {"size": "1"}, {"size": "576"}, {"size": "128"}]}}}}}, {"name": "BatchNormalization_330/sub", "op": "Const", "attr": {"dtype": {"type": "DT_FLOAT"}, "value": {"tensor": {"dtype": "DT_FLOAT", "tensorShape": {"dim": [{"size": "1"}, {"size": "128"}, {"size": "1"}, {"size": "1"}]}}}}}, {"name": "split_186", "op": "Const", "attr": {"value": {"tensor": {"dtype": "DT_FLOAT", "tensorShape": {"dim": [{"size": "3"}, {"size": "3"}, {"size": "128"}, {"size": "32"}]}}}, "dtype": {"type": "DT_FLOAT"}}}, {"name": "BatchNormalization_334/sub", "op": "Const", "attr": {"value": {"tensor": {"dtype": "DT_FLOAT", "tensorShape": {"dim": [{"size": "1"}, {"size": "608"}, {"size": "1"}, {"size": "1"}]}}}, "dtype": {"type": "DT_FLOAT"}}}, {"name": "split_188", "op": "Const", "attr": {"dtype": {"type": "DT_FLOAT"}, "value": {"tensor": {"dtype": "DT_FLOAT", "tensorShape": {"dim": [{"size": "1"}, {"size": "1"}, {"size": "608"}, {"size": "128"}]}}}}}, {"name": "BatchNormalization_337/sub", "op": "Const", "attr": {"value": {"tensor": {"dtype": "DT_FLOAT", "tensorShape": {"dim": [{"size": "1"}, {"size": "128"}, {"size": "1"}, {"size": "1"}]}}}, "dtype": {"type": "DT_FLOAT"}}}, {"name": "split_190", "op": "Const", "attr": {"dtype": {"type": "DT_FLOAT"}, "value": {"tensor": {"dtype": "DT_FLOAT", "tensorShape": {"dim": [{"size": "3"}, {"size": "3"}, {"size": "128"}, {"size": "32"}]}}}}}, {"name": "BatchNormalization_341/sub", "op": "Const", "attr": {"value": {"tensor": {"dtype": "DT_FLOAT", "tensorShape": {"dim": [{"size": "1"}, {"size": "640"}, {"size": "1"}, {"size": "1"}]}}}, "dtype": {"type": "DT_FLOAT"}}}, {"name": "split_192", "op": "Const", "attr": {"value": {"tensor": {"dtype": "DT_FLOAT", "tensorShape": {"dim": [{"size": "1"}, {"size": "1"}, {"size": "640"}, {"size": "128"}]}}}, "dtype": {"type": "DT_FLOAT"}}}, {"name": "BatchNormalization_344/sub", "op": "Const", "attr": {"value": {"tensor": {"dtype": "DT_FLOAT", "tensorShape": {"dim": [{"size": "1"}, {"size": "128"}, {"size": "1"}, {"size": "1"}]}}}, "dtype": {"type": "DT_FLOAT"}}}, {"name": "split_194", "op": "Const", "attr": {"dtype": {"type": "DT_FLOAT"}, "value": {"tensor": {"dtype": "DT_FLOAT", "tensorShape": {"dim": [{"size": "3"}, {"size": "3"}, {"size": "128"}, {"size": "32"}]}}}}}, {"name": "BatchNormalization_348/sub", "op": "Const", "attr": {"dtype": {"type": "DT_FLOAT"}, "value": {"tensor": {"dtype": "DT_FLOAT", "tensorShape": {"dim": [{"size": "1"}, {"size": "672"}, {"size": "1"}, {"size": "1"}]}}}}}, {"name": "split_196", "op": "Const", "attr": {"value": {"tensor": {"dtype": "DT_FLOAT", "tensorShape": {"dim": [{"size": "1"}, {"size": "1"}, {"size": "672"}, {"size": "128"}]}}}, "dtype": {"type": "DT_FLOAT"}}}, {"name": "BatchNormalization_351/sub", "op": "Const", "attr": {"dtype": {"type": "DT_FLOAT"}, "value": {"tensor": {"dtype": "DT_FLOAT", "tensorShape": {"dim": [{"size": "1"}, {"size": "128"}, {"size": "1"}, {"size": "1"}]}}}}}, {"name": "split_198", "op": "Const", "attr": {"dtype": {"type": "DT_FLOAT"}, "value": {"tensor": {"dtype": "DT_FLOAT", "tensorShape": {"dim": [{"size": "3"}, {"size": "3"}, {"size": "128"}, {"size": "32"}]}}}}}, {"name": "BatchNormalization_355/sub", "op": "Const", "attr": {"value": {"tensor": {"dtype": "DT_FLOAT", "tensorShape": {"dim": [{"size": "1"}, {"size": "704"}, {"size": "1"}, {"size": "1"}]}}}, "dtype": {"type": "DT_FLOAT"}}}, {"name": "split_200", "op": "Const", "attr": {"value": {"tensor": {"dtype": "DT_FLOAT", "tensorShape": {"dim": [{"size": "1"}, {"size": "1"}, {"size": "704"}, {"size": "128"}]}}}, "dtype": {"type": "DT_FLOAT"}}}, {"name": "BatchNormalization_358/sub", "op": "Const", "attr": {"value": {"tensor": {"dtype": "DT_FLOAT", "tensorShape": {"dim": [{"size": "1"}, {"size": "128"}, {"size": "1"}, {"size": "1"}]}}}, "dtype": {"type": "DT_FLOAT"}}}, {"name": "split_202", "op": "Const", "attr": {"value": {"tensor": {"dtype": "DT_FLOAT", "tensorShape": {"dim": [{"size": "3"}, {"size": "3"}, {"size": "128"}, {"size": "32"}]}}}, "dtype": {"type": "DT_FLOAT"}}}, {"name": "BatchNormalization_362/sub", "op": "Const", "attr": {"value": {"tensor": {"dtype": "DT_FLOAT", "tensorShape": {"dim": [{"size": "1"}, {"size": "736"}, {"size": "1"}, {"size": "1"}]}}}, "dtype": {"type": "DT_FLOAT"}}}, {"name": "split_204", "op": "Const", "attr": {"dtype": {"type": "DT_FLOAT"}, "value": {"tensor": {"dtype": "DT_FLOAT", "tensorShape": {"dim": [{"size": "1"}, {"size": "1"}, {"size": "736"}, {"size": "128"}]}}}}}, {"name": "BatchNormalization_365/sub", "op": "Const", "attr": {"value": {"tensor": {"dtype": "DT_FLOAT", "tensorShape": {"dim": [{"size": "1"}, {"size": "128"}, {"size": "1"}, {"size": "1"}]}}}, "dtype": {"type": "DT_FLOAT"}}}, {"name": "split_206", "op": "Const", "attr": {"value": {"tensor": {"dtype": "DT_FLOAT", "tensorShape": {"dim": [{"size": "3"}, {"size": "3"}, {"size": "128"}, {"size": "32"}]}}}, "dtype": {"type": "DT_FLOAT"}}}, {"name": "BatchNormalization_369/sub", "op": "Const", "attr": {"dtype": {"type": "DT_FLOAT"}, "value": {"tensor": {"dtype": "DT_FLOAT", "tensorShape": {"dim": [{"size": "1"}, {"size": "768"}, {"size": "1"}, {"size": "1"}]}}}}}, {"name": "split_208", "op": "Const", "attr": {"value": {"tensor": {"dtype": "DT_FLOAT", "tensorShape": {"dim": [{"size": "1"}, {"size": "1"}, {"size": "768"}, {"size": "128"}]}}}, "dtype": {"type": "DT_FLOAT"}}}, {"name": "BatchNormalization_372/sub", "op": "Const", "attr": {"value": {"tensor": {"dtype": "DT_FLOAT", "tensorShape": {"dim": [{"size": "1"}, {"size": "128"}, {"size": "1"}, {"size": "1"}]}}}, "dtype": {"type": "DT_FLOAT"}}}, {"name": "split_210", "op": "Const", "attr": {"dtype": {"type": "DT_FLOAT"}, "value": {"tensor": {"dtype": "DT_FLOAT", "tensorShape": {"dim": [{"size": "3"}, {"size": "3"}, {"size": "128"}, {"size": "32"}]}}}}}, {"name": "BatchNormalization_376/sub", "op": "Const", "attr": {"value": {"tensor": {"dtype": "DT_FLOAT", "tensorShape": {"dim": [{"size": "1"}, {"size": "800"}, {"size": "1"}, {"size": "1"}]}}}, "dtype": {"type": "DT_FLOAT"}}}, {"name": "split_212", "op": "Const", "attr": {"value": {"tensor": {"dtype": "DT_FLOAT", "tensorShape": {"dim": [{"size": "1"}, {"size": "1"}, {"size": "800"}, {"size": "128"}]}}}, "dtype": {"type": "DT_FLOAT"}}}, {"name": "BatchNormalization_379/sub", "op": "Const", "attr": {"value": {"tensor": {"dtype": "DT_FLOAT", "tensorShape": {"dim": [{"size": "1"}, {"size": "128"}, {"size": "1"}, {"size": "1"}]}}}, "dtype": {"type": "DT_FLOAT"}}}, {"name": "split_214", "op": "Const", "attr": {"value": {"tensor": {"dtype": "DT_FLOAT", "tensorShape": {"dim": [{"size": "3"}, {"size": "3"}, {"size": "128"}, {"size": "32"}]}}}, "dtype": {"type": "DT_FLOAT"}}}, {"name": "BatchNormalization_383/sub", "op": "Const", "attr": {"value": {"tensor": {"dtype": "DT_FLOAT", "tensorShape": {"dim": [{"size": "1"}, {"size": "832"}, {"size": "1"}, {"size": "1"}]}}}, "dtype": {"type": "DT_FLOAT"}}}, {"name": "split_216", "op": "Const", "attr": {"value": {"tensor": {"dtype": "DT_FLOAT", "tensorShape": {"dim": [{"size": "1"}, {"size": "1"}, {"size": "832"}, {"size": "128"}]}}}, "dtype": {"type": "DT_FLOAT"}}}, {"name": "BatchNormalization_386/sub", "op": "Const", "attr": {"value": {"tensor": {"dtype": "DT_FLOAT", "tensorShape": {"dim": [{"size": "1"}, {"size": "128"}, {"size": "1"}, {"size": "1"}]}}}, "dtype": {"type": "DT_FLOAT"}}}, {"name": "split_218", "op": "Const", "attr": {"value": {"tensor": {"dtype": "DT_FLOAT", "tensorShape": {"dim": [{"size": "3"}, {"size": "3"}, {"size": "128"}, {"size": "32"}]}}}, "dtype": {"type": "DT_FLOAT"}}}, {"name": "BatchNormalization_390/sub", "op": "Const", "attr": {"value": {"tensor": {"dtype": "DT_FLOAT", "tensorShape": {"dim": [{"size": "1"}, {"size": "864"}, {"size": "1"}, {"size": "1"}]}}}, "dtype": {"type": "DT_FLOAT"}}}, {"name": "split_220", "op": "Const", "attr": {"dtype": {"type": "DT_FLOAT"}, "value": {"tensor": {"dtype": "DT_FLOAT", "tensorShape": {"dim": [{"size": "1"}, {"size": "1"}, {"size": "864"}, {"size": "128"}]}}}}}, {"name": "BatchNormalization_393/sub", "op": "Const", "attr": {"value": {"tensor": {"dtype": "DT_FLOAT", "tensorShape": {"dim": [{"size": "1"}, {"size": "128"}, {"size": "1"}, {"size": "1"}]}}}, "dtype": {"type": "DT_FLOAT"}}}, {"name": "split_222", "op": "Const", "attr": {"value": {"tensor": {"dtype": "DT_FLOAT", "tensorShape": {"dim": [{"size": "3"}, {"size": "3"}, {"size": "128"}, {"size": "32"}]}}}, "dtype": {"type": "DT_FLOAT"}}}, {"name": "BatchNormalization_397/sub", "op": "Const", "attr": {"dtype": {"type": "DT_FLOAT"}, "value": {"tensor": {"dtype": "DT_FLOAT", "tensorShape": {"dim": [{"size": "1"}, {"size": "896"}, {"size": "1"}, {"size": "1"}]}}}}}, {"name": "split_224", "op": "Const", "attr": {"dtype": {"type": "DT_FLOAT"}, "value": {"tensor": {"dtype": "DT_FLOAT", "tensorShape": {"dim": [{"size": "1"}, {"size": "1"}, {"size": "896"}, {"size": "128"}]}}}}}, {"name": "BatchNormalization_400/sub", "op": "Const", "attr": {"dtype": {"type": "DT_FLOAT"}, "value": {"tensor": {"dtype": "DT_FLOAT", "tensorShape": {"dim": [{"size": "1"}, {"size": "128"}, {"size": "1"}, {"size": "1"}]}}}}}, {"name": "split_226", "op": "Const", "attr": {"value": {"tensor": {"dtype": "DT_FLOAT", "tensorShape": {"dim": [{"size": "3"}, {"size": "3"}, {"size": "128"}, {"size": "32"}]}}}, "dtype": {"type": "DT_FLOAT"}}}, {"name": "BatchNormalization_404/sub", "op": "Const", "attr": {"value": {"tensor": {"dtype": "DT_FLOAT", "tensorShape": {"dim": [{"size": "1"}, {"size": "928"}, {"size": "1"}, {"size": "1"}]}}}, "dtype": {"type": "DT_FLOAT"}}}, {"name": "split_228", "op": "Const", "attr": {"value": {"tensor": {"dtype": "DT_FLOAT", "tensorShape": {"dim": [{"size": "1"}, {"size": "1"}, {"size": "928"}, {"size": "128"}]}}}, "dtype": {"type": "DT_FLOAT"}}}, {"name": "BatchNormalization_407/sub", "op": "Const", "attr": {"dtype": {"type": "DT_FLOAT"}, "value": {"tensor": {"dtype": "DT_FLOAT", "tensorShape": {"dim": [{"size": "1"}, {"size": "128"}, {"size": "1"}, {"size": "1"}]}}}}}, {"name": "split_230", "op": "Const", "attr": {"value": {"tensor": {"dtype": "DT_FLOAT", "tensorShape": {"dim": [{"size": "3"}, {"size": "3"}, {"size": "128"}, {"size": "32"}]}}}, "dtype": {"type": "DT_FLOAT"}}}, {"name": "BatchNormalization_411/sub", "op": "Const", "attr": {"dtype": {"type": "DT_FLOAT"}, "value": {"tensor": {"dtype": "DT_FLOAT", "tensorShape": {"dim": [{"size": "1"}, {"size": "960"}, {"size": "1"}, {"size": "1"}]}}}}}, {"name": "split_232", "op": "Const", "attr": {"value": {"tensor": {"dtype": "DT_FLOAT", "tensorShape": {"dim": [{"size": "1"}, {"size": "1"}, {"size": "960"}, {"size": "128"}]}}}, "dtype": {"type": "DT_FLOAT"}}}, {"name": "BatchNormalization_414/sub", "op": "Const", "attr": {"value": {"tensor": {"dtype": "DT_FLOAT", "tensorShape": {"dim": [{"size": "1"}, {"size": "128"}, {"size": "1"}, {"size": "1"}]}}}, "dtype": {"type": "DT_FLOAT"}}}, {"name": "split_234", "op": "Const", "attr": {"dtype": {"type": "DT_FLOAT"}, "value": {"tensor": {"dtype": "DT_FLOAT", "tensorShape": {"dim": [{"size": "3"}, {"size": "3"}, {"size": "128"}, {"size": "32"}]}}}}}, {"name": "BatchNormalization_418/sub", "op": "Const", "attr": {"value": {"tensor": {"dtype": "DT_FLOAT", "tensorShape": {"dim": [{"size": "1"}, {"size": "992"}, {"size": "1"}, {"size": "1"}]}}}, "dtype": {"type": "DT_FLOAT"}}}, {"name": "split_236", "op": "Const", "attr": {"value": {"tensor": {"dtype": "DT_FLOAT", "tensorShape": {"dim": [{"size": "1"}, {"size": "1"}, {"size": "992"}, {"size": "128"}]}}}, "dtype": {"type": "DT_FLOAT"}}}, {"name": "BatchNormalization_421/sub", "op": "Const", "attr": {"value": {"tensor": {"dtype": "DT_FLOAT", "tensorShape": {"dim": [{"size": "1"}, {"size": "128"}, {"size": "1"}, {"size": "1"}]}}}, "dtype": {"type": "DT_FLOAT"}}}, {"name": "Const_610", "op": "Const", "attr": {"value": {"tensor": {"dtype": "DT_INT32", "tensorShape": {"dim": [{"size": "4"}, {"size": "2"}]}}}, "dtype": {"type": "DT_INT32"}}}, {"name": "transpose_1/perm", "op": "Const", "attr": {"value": {"tensor": {"dtype": "DT_INT32", "tensorShape": {"dim": [{"size": "4"}]}}}, "dtype": {"type": "DT_INT32"}}}, {"name": "split_238", "op": "Const", "attr": {"dtype": {"type": "DT_FLOAT"}, "value": {"tensor": {"dtype": "DT_FLOAT", "tensorShape": {"dim": [{"size": "3"}, {"size": "3"}, {"size": "128"}, {"size": "32"}]}}}}}, {"name": "transpose_2/perm", "op": "Const", "attr": {"dtype": {"type": "DT_INT32"}, "value": {"tensor": {"dtype": "DT_INT32", "tensorShape": {"dim": [{"size": "4"}]}}}}}, {"name": "Concat_10/axis", "op": "Const", "attr": {"value": {"tensor": {"dtype": "DT_INT32", "tensorShape": {}}}, "dtype": {"type": "DT_INT32"}}}, {"name": "BatchNormalization_425/sub", "op": "Const", "attr": {"value": {"tensor": {"dtype": "DT_FLOAT", "tensorShape": {"dim": [{"size": "1"}, {"size": "1024"}, {"size": "1"}, {"size": "1"}]}}}, "dtype": {"type": "DT_FLOAT"}}}, {"name": "ConstantFolding/split_240-folded-1", "op": "Const", "attr": {"value": {"tensor": {"dtype": "DT_INT32", "tensorShape": {"dim": [{"size": "2"}]}}}, "dtype": {"type": "DT_INT32"}}}, {"name": "flatten/Reshape/shape", "op": "Const", "attr": {"value": {"tensor": {"dtype": "DT_INT32", "tensorShape": {"dim": [{"size": "2"}]}}}, "dtype": {"type": "DT_INT32"}}}, {"name": "transpose_368", "op": "Const", "attr": {"dtype": {"type": "DT_FLOAT"}, "value": {"tensor": {"dtype": "DT_FLOAT", "tensorShape": {"dim": [{"size": "1024"}, {"size": "18"}]}}}}}, {"name": "mul_1", "op": "Const", "attr": {"value": {"tensor": {"dtype": "DT_FLOAT", "tensorShape": {"dim": [{"size": "18"}]}}}, "dtype": {"type": "DT_FLOAT"}}}, {"name": "input.1", "op": "Placeholder", "attr": {"dtype": {"type": "DT_FLOAT"}, "shape": {"shape": {"dim": [{"size": "1"}, {"size": "1"}, {"size": "224"}, {"size": "224"}]}}}}, {"name": "Pad", "op": "Pad", "input": ["input.1", "Const_607"], "attr": {"T": {"type": "DT_FLOAT"}, "Tpaddings": {"type": "DT_INT32"}}}, {"name": "transpose_1", "op": "Transpose", "input": ["Pad", "transpose_1/perm"], "attr": {"T": {"type": "DT_FLOAT"}, "Tperm": {"type": "DT_INT32"}}}, {"name": "convolution", "op": "Conv2D", "input": ["transpose_1", "split"], "device": "/device:CPU:0", "attr": {"dilations": {"list": {"i": ["1", "1", "1", "1"]}}, "T": {"type": "DT_FLOAT"}, "data_format": {"s": "TkhXQw=="}, "strides": {"list": {"i": ["1", "2", "2", "1"]}}, "use_cudnn_on_gpu": {"b": true}, "explicit_paddings": {"list": {}}, "padding": {"s": "VkFMSUQ="}}}, {"name": "transpose_2", "op": "Transpose", "input": ["convolution", "transpose_2/perm"], "attr": {"Tperm": {"type": "DT_INT32"}, "T": {"type": "DT_FLOAT"}}}, {"name": "BatchNormalization_1/mul_1", "op": "Mul", "input": ["BatchNormalization_1/mul", "transpose_2"], "attr": {"T": {"type": "DT_FLOAT"}}}, {"name": "BatchNormalization_1/add_1", "op": "Add", "input": ["BatchNormalization_1/mul_1", "BatchNormalization_1/sub"], "attr": {"T": {"type": "DT_FLOAT"}}}, {"name": "Relu_2", "op": "Relu", "input": ["BatchNormalization_1/add_1"], "attr": {"T": {"type": "DT_FLOAT"}}}, {"name": "Pad_1", "op": "Pad", "input": ["Relu_2", "Const_610"], "attr": {"T": {"type": "DT_FLOAT"}, "Tpaddings": {"type": "DT_INT32"}}}, {"name": "transpose_3", "op": "Transpose", "input": ["Pad_1", "transpose_1/perm"], "attr": {"T": {"type": "DT_FLOAT"}, "Tperm": {"type": "DT_INT32"}}}, {"name": "max_pool", "op": "MaxPool", "input": ["transpose_3"], "attr": {"ksize": {"list": {"i": ["1", "3", "3", "1"]}}, "padding": {"s": "VkFMSUQ="}, "T": {"type": "DT_FLOAT"}, "strides": {"list": {"i": ["1", "2", "2", "1"]}}, "data_format": {"s": "TkhXQw=="}}}, {"name": "transpose_4", "op": "Transpose", "input": ["max_pool", "transpose_2/perm"], "attr": {"T": {"type": "DT_FLOAT"}, "Tperm": {"type": "DT_INT32"}}}, {"name": "BatchNormalization_4/mul_1", "op": "Mul", "input": ["BatchNormalization_4/mul", "transpose_4"], "attr": {"T": {"type": "DT_FLOAT"}}}, {"name": "BatchNormalization_4/add_1", "op": "Add", "input": ["BatchNormalization_4/mul_1", "BatchNormalization_4/sub"], "attr": {"T": {"type": "DT_FLOAT"}}}, {"name": "Relu_5", "op": "Relu", "input": ["BatchNormalization_4/add_1"], "attr": {"T": {"type": "DT_FLOAT"}}}, {"name": "transpose_6", "op": "Transpose", "input": ["Relu_5", "transpose_1/perm"], "attr": {"T": {"type": "DT_FLOAT"}, "Tperm": {"type": "DT_INT32"}}}, {"name": "convolution_1", "op": "Conv2D", "input": ["transpose_6", "split_2"], "device": "/device:CPU:0", "attr": {"dilations": {"list": {"i": ["1", "1", "1", "1"]}}, "T": {"type": "DT_FLOAT"}, "strides": {"list": {"i": ["1", "1", "1", "1"]}}, "data_format": {"s": "TkhXQw=="}, "explicit_paddings": {"list": {}}, "use_cudnn_on_gpu": {"b": true}, "padding": {"s": "VkFMSUQ="}}}, {"name": "transpose_7", "op": "Transpose", "input": ["convolution_1", "transpose_2/perm"], "attr": {"Tperm": {"type": "DT_INT32"}, "T": {"type": "DT_FLOAT"}}}, {"name": "BatchNormalization_7/mul_1", "op": "Mul", "input": ["BatchNormalization_7/mul", "transpose_7"], "attr": {"T": {"type": "DT_FLOAT"}}}, {"name": "BatchNormalization_7/add_1", "op": "Add", "input": ["BatchNormalization_7/mul_1", "BatchNormalization_7/sub"], "attr": {"T": {"type": "DT_FLOAT"}}}, {"name": "Relu_8", "op": "Relu", "input": ["BatchNormalization_7/add_1"], "attr": {"T": {"type": "DT_FLOAT"}}}, {"name": "Pad_3", "op": "Pad", "input": ["Relu_8", "Const_610"], "attr": {"T": {"type": "DT_FLOAT"}, "Tpaddings": {"type": "DT_INT32"}}}, {"name": "transpose_9", "op": "Transpose", "input": ["Pad_3", "transpose_1/perm"], "attr": {"Tperm": {"type": "DT_INT32"}, "T": {"type": "DT_FLOAT"}}}, {"name": "convolution_2", "op": "Conv2D", "input": ["transpose_9", "split_4"], "device": "/device:CPU:0", "attr": {"dilations": {"list": {"i": ["1", "1", "1", "1"]}}, "T": {"type": "DT_FLOAT"}, "data_format": {"s": "TkhXQw=="}, "strides": {"list": {"i": ["1", "1", "1", "1"]}}, "use_cudnn_on_gpu": {"b": true}, "explicit_paddings": {"list": {}}, "padding": {"s": "VkFMSUQ="}}}, {"name": "transpose_10", "op": "Transpose", "input": ["convolution_2", "transpose_2/perm"], "attr": {"Tperm": {"type": "DT_INT32"}, "T": {"type": "DT_FLOAT"}}}, {"name": "Concat_10", "op": "ConcatV2", "input": ["transpose_4", "transpose_10", "Concat_10/axis"], "attr": {"Tidx": {"type": "DT_INT32"}, "T": {"type": "DT_FLOAT"}, "N": {"i": "2"}}}, {"name": "BatchNormalization_11/mul_1", "op": "Mul", "input": ["BatchNormalization_11/mul", "Concat_10"], "attr": {"T": {"type": "DT_FLOAT"}}}, {"name": "BatchNormalization_11/add_1", "op": "Add", "input": ["BatchNormalization_11/mul_1", "BatchNormalization_11/sub"], "attr": {"T": {"type": "DT_FLOAT"}}}, {"name": "Relu_12", "op": "Relu", "input": ["BatchNormalization_11/add_1"], "attr": {"T": {"type": "DT_FLOAT"}}}, {"name": "transpose_12", "op": "Transpose", "input": ["Relu_12", "transpose_1/perm"], "attr": {"Tperm": {"type": "DT_INT32"}, "T": {"type": "DT_FLOAT"}}}, {"name": "convolution_3", "op": "Conv2D", "input": ["transpose_12", "split_6"], "device": "/device:CPU:0", "attr": {"T": {"type": "DT_FLOAT"}, "strides": {"list": {"i": ["1", "1", "1", "1"]}}, "data_format": {"s": "TkhXQw=="}, "use_cudnn_on_gpu": {"b": true}, "explicit_paddings": {"list": {}}, "padding": {"s": "VkFMSUQ="}, "dilations": {"list": {"i": ["1", "1", "1", "1"]}}}}, {"name": "transpose_13", "op": "Transpose", "input": ["convolution_3", "transpose_2/perm"], "attr": {"Tperm": {"type": "DT_INT32"}, "T": {"type": "DT_FLOAT"}}}, {"name": "BatchNormalization_14/mul_1", "op": "Mul", "input": ["BatchNormalization_14/mul", "transpose_13"], "attr": {"T": {"type": "DT_FLOAT"}}}, {"name": "BatchNormalization_14/add_1", "op": "Add", "input": ["BatchNormalization_14/mul_1", "BatchNormalization_14/sub"], "attr": {"T": {"type": "DT_FLOAT"}}}, {"name": "Relu_15", "op": "Relu", "input": ["BatchNormalization_14/add_1"], "attr": {"T": {"type": "DT_FLOAT"}}}, {"name": "Pad_5", "op": "Pad", "input": ["Relu_15", "Const_610"], "attr": {"T": {"type": "DT_FLOAT"}, "Tpaddings": {"type": "DT_INT32"}}}, {"name": "transpose_15", "op": "Transpose", "input": ["Pad_5", "transpose_1/perm"], "attr": {"Tperm": {"type": "DT_INT32"}, "T": {"type": "DT_FLOAT"}}}, {"name": "convolution_4", "op": "Conv2D", "input": ["transpose_15", "split_8"], "device": "/device:CPU:0", "attr": {"T": {"type": "DT_FLOAT"}, "data_format": {"s": "TkhXQw=="}, "strides": {"list": {"i": ["1", "1", "1", "1"]}}, "use_cudnn_on_gpu": {"b": true}, "explicit_paddings": {"list": {}}, "padding": {"s": "VkFMSUQ="}, "dilations": {"list": {"i": ["1", "1", "1", "1"]}}}}, {"name": "transpose_16", "op": "Transpose", "input": ["convolution_4", "transpose_2/perm"], "attr": {"Tperm": {"type": "DT_INT32"}, "T": {"type": "DT_FLOAT"}}}, {"name": "Concat_17", "op": "ConcatV2", "input": ["Concat_10", "transpose_16", "Concat_10/axis"], "attr": {"T": {"type": "DT_FLOAT"}, "N": {"i": "2"}, "Tidx": {"type": "DT_INT32"}}}, {"name": "BatchNormalization_18/mul_1", "op": "Mul", "input": ["BatchNormalization_18/mul", "Concat_17"], "attr": {"T": {"type": "DT_FLOAT"}}}, {"name": "BatchNormalization_18/add_1", "op": "Add", "input": ["BatchNormalization_18/mul_1", "BatchNormalization_18/sub"], "attr": {"T": {"type": "DT_FLOAT"}}}, {"name": "Relu_19", "op": "Relu", "input": ["BatchNormalization_18/add_1"], "attr": {"T": {"type": "DT_FLOAT"}}}, {"name": "transpose_18", "op": "Transpose", "input": ["Relu_19", "transpose_1/perm"], "attr": {"Tperm": {"type": "DT_INT32"}, "T": {"type": "DT_FLOAT"}}}, {"name": "convolution_5", "op": "Conv2D", "input": ["transpose_18", "split_10"], "device": "/device:CPU:0", "attr": {"dilations": {"list": {"i": ["1", "1", "1", "1"]}}, "T": {"type": "DT_FLOAT"}, "strides": {"list": {"i": ["1", "1", "1", "1"]}}, "data_format": {"s": "TkhXQw=="}, "explicit_paddings": {"list": {}}, "use_cudnn_on_gpu": {"b": true}, "padding": {"s": "VkFMSUQ="}}}, {"name": "transpose_19", "op": "Transpose", "input": ["convolution_5", "transpose_2/perm"], "attr": {"Tperm": {"type": "DT_INT32"}, "T": {"type": "DT_FLOAT"}}}, {"name": "BatchNormalization_21/mul_1", "op": "Mul", "input": ["BatchNormalization_21/mul", "transpose_19"], "attr": {"T": {"type": "DT_FLOAT"}}}, {"name": "BatchNormalization_21/add_1", "op": "Add", "input": ["BatchNormalization_21/mul_1", "BatchNormalization_21/sub"], "attr": {"T": {"type": "DT_FLOAT"}}}, {"name": "Relu_22", "op": "Relu", "input": ["BatchNormalization_21/add_1"], "attr": {"T": {"type": "DT_FLOAT"}}}, {"name": "Pad_7", "op": "Pad", "input": ["Relu_22", "Const_610"], "attr": {"T": {"type": "DT_FLOAT"}, "Tpaddings": {"type": "DT_INT32"}}}, {"name": "transpose_21", "op": "Transpose", "input": ["Pad_7", "transpose_1/perm"], "attr": {"T": {"type": "DT_FLOAT"}, "Tperm": {"type": "DT_INT32"}}}, {"name": "convolution_6", "op": "Conv2D", "input": ["transpose_21", "split_12"], "device": "/device:CPU:0", "attr": {"T": {"type": "DT_FLOAT"}, "strides": {"list": {"i": ["1", "1", "1", "1"]}}, "data_format": {"s": "TkhXQw=="}, "explicit_paddings": {"list": {}}, "use_cudnn_on_gpu": {"b": true}, "padding": {"s": "VkFMSUQ="}, "dilations": {"list": {"i": ["1", "1", "1", "1"]}}}}, {"name": "transpose_22", "op": "Transpose", "input": ["convolution_6", "transpose_2/perm"], "attr": {"Tperm": {"type": "DT_INT32"}, "T": {"type": "DT_FLOAT"}}}, {"name": "Concat_24", "op": "ConcatV2", "input": ["Concat_17", "transpose_22", "Concat_10/axis"], "attr": {"T": {"type": "DT_FLOAT"}, "N": {"i": "2"}, "Tidx": {"type": "DT_INT32"}}}, {"name": "BatchNormalization_25/mul_1", "op": "Mul", "input": ["BatchNormalization_25/mul", "Concat_24"], "attr": {"T": {"type": "DT_FLOAT"}}}, {"name": "BatchNormalization_25/add_1", "op": "Add", "input": ["BatchNormalization_25/mul_1", "BatchNormalization_25/sub"], "attr": {"T": {"type": "DT_FLOAT"}}}, {"name": "Relu_26", "op": "Relu", "input": ["BatchNormalization_25/add_1"], "attr": {"T": {"type": "DT_FLOAT"}}}, {"name": "transpose_24", "op": "Transpose", "input": ["Relu_26", "transpose_1/perm"], "attr": {"Tperm": {"type": "DT_INT32"}, "T": {"type": "DT_FLOAT"}}}, {"name": "convolution_7", "op": "Conv2D", "input": ["transpose_24", "split_14"], "device": "/device:CPU:0", "attr": {"dilations": {"list": {"i": ["1", "1", "1", "1"]}}, "T": {"type": "DT_FLOAT"}, "strides": {"list": {"i": ["1", "1", "1", "1"]}}, "data_format": {"s": "TkhXQw=="}, "use_cudnn_on_gpu": {"b": true}, "explicit_paddings": {"list": {}}, "padding": {"s": "VkFMSUQ="}}}, {"name": "transpose_25", "op": "Transpose", "input": ["convolution_7", "transpose_2/perm"], "attr": {"Tperm": {"type": "DT_INT32"}, "T": {"type": "DT_FLOAT"}}}, {"name": "BatchNormalization_28/mul_1", "op": "Mul", "input": ["BatchNormalization_28/mul", "transpose_25"], "attr": {"T": {"type": "DT_FLOAT"}}}, {"name": "BatchNormalization_28/add_1", "op": "Add", "input": ["BatchNormalization_28/mul_1", "BatchNormalization_28/sub"], "attr": {"T": {"type": "DT_FLOAT"}}}, {"name": "Relu_29", "op": "Relu", "input": ["BatchNormalization_28/add_1"], "attr": {"T": {"type": "DT_FLOAT"}}}, {"name": "Pad_9", "op": "Pad", "input": ["Relu_29", "Const_610"], "attr": {"T": {"type": "DT_FLOAT"}, "Tpaddings": {"type": "DT_INT32"}}}, {"name": "transpose_27", "op": "Transpose", "input": ["Pad_9", "transpose_1/perm"], "attr": {"Tperm": {"type": "DT_INT32"}, "T": {"type": "DT_FLOAT"}}}, {"name": "convolution_8", "op": "Conv2D", "input": ["transpose_27", "split_16"], "device": "/device:CPU:0", "attr": {"dilations": {"list": {"i": ["1", "1", "1", "1"]}}, "T": {"type": "DT_FLOAT"}, "strides": {"list": {"i": ["1", "1", "1", "1"]}}, "data_format": {"s": "TkhXQw=="}, "use_cudnn_on_gpu": {"b": true}, "explicit_paddings": {"list": {}}, "padding": {"s": "VkFMSUQ="}}}, {"name": "transpose_28", "op": "Transpose", "input": ["convolution_8", "transpose_2/perm"], "attr": {"Tperm": {"type": "DT_INT32"}, "T": {"type": "DT_FLOAT"}}}, {"name": "Concat_31", "op": "ConcatV2", "input": ["Concat_24", "transpose_28", "Concat_10/axis"], "attr": {"N": {"i": "2"}, "Tidx": {"type": "DT_INT32"}, "T": {"type": "DT_FLOAT"}}}, {"name": "BatchNormalization_32/mul_1", "op": "Mul", "input": ["BatchNormalization_32/mul", "Concat_31"], "attr": {"T": {"type": "DT_FLOAT"}}}, {"name": "BatchNormalization_32/add_1", "op": "Add", "input": ["BatchNormalization_32/mul_1", "BatchNormalization_32/sub"], "attr": {"T": {"type": "DT_FLOAT"}}}, {"name": "Relu_33", "op": "Relu", "input": ["BatchNormalization_32/add_1"], "attr": {"T": {"type": "DT_FLOAT"}}}, {"name": "transpose_30", "op": "Transpose", "input": ["Relu_33", "transpose_1/perm"], "attr": {"Tperm": {"type": "DT_INT32"}, "T": {"type": "DT_FLOAT"}}}, {"name": "convolution_9", "op": "Conv2D", "input": ["transpose_30", "split_18"], "device": "/device:CPU:0", "attr": {"T": {"type": "DT_FLOAT"}, "strides": {"list": {"i": ["1", "1", "1", "1"]}}, "data_format": {"s": "TkhXQw=="}, "use_cudnn_on_gpu": {"b": true}, "explicit_paddings": {"list": {}}, "padding": {"s": "VkFMSUQ="}, "dilations": {"list": {"i": ["1", "1", "1", "1"]}}}}, {"name": "transpose_31", "op": "Transpose", "input": ["convolution_9", "transpose_2/perm"], "attr": {"T": {"type": "DT_FLOAT"}, "Tperm": {"type": "DT_INT32"}}}, {"name": "BatchNormalization_35/mul_1", "op": "Mul", "input": ["BatchNormalization_35/mul", "transpose_31"], "attr": {"T": {"type": "DT_FLOAT"}}}, {"name": "BatchNormalization_35/add_1", "op": "Add", "input": ["BatchNormalization_35/mul_1", "BatchNormalization_35/sub"], "attr": {"T": {"type": "DT_FLOAT"}}}, {"name": "Relu_36", "op": "Relu", "input": ["BatchNormalization_35/add_1"], "attr": {"T": {"type": "DT_FLOAT"}}}, {"name": "Pad_11", "op": "Pad", "input": ["Relu_36", "Const_610"], "attr": {"T": {"type": "DT_FLOAT"}, "Tpaddings": {"type": "DT_INT32"}}}, {"name": "transpose_33", "op": "Transpose", "input": ["Pad_11", "transpose_1/perm"], "attr": {"Tperm": {"type": "DT_INT32"}, "T": {"type": "DT_FLOAT"}}}, {"name": "convolution_10", "op": "Conv2D", "input": ["transpose_33", "split_20"], "device": "/device:CPU:0", "attr": {"dilations": {"list": {"i": ["1", "1", "1", "1"]}}, "T": {"type": "DT_FLOAT"}, "strides": {"list": {"i": ["1", "1", "1", "1"]}}, "data_format": {"s": "TkhXQw=="}, "use_cudnn_on_gpu": {"b": true}, "explicit_paddings": {"list": {}}, "padding": {"s": "VkFMSUQ="}}}, {"name": "transpose_34", "op": "Transpose", "input": ["convolution_10", "transpose_2/perm"], "attr": {"T": {"type": "DT_FLOAT"}, "Tperm": {"type": "DT_INT32"}}}, {"name": "Concat_38", "op": "ConcatV2", "input": ["Concat_31", "transpose_34", "Concat_10/axis"], "attr": {"Tidx": {"type": "DT_INT32"}, "T": {"type": "DT_FLOAT"}, "N": {"i": "2"}}}, {"name": "BatchNormalization_39/mul_1", "op": "Mul", "input": ["BatchNormalization_39/mul", "Concat_38"], "attr": {"T": {"type": "DT_FLOAT"}}}, {"name": "BatchNormalization_39/add_1", "op": "Add", "input": ["BatchNormalization_39/mul_1", "BatchNormalization_39/sub"], "attr": {"T": {"type": "DT_FLOAT"}}}, {"name": "Relu_40", "op": "Relu", "input": ["BatchNormalization_39/add_1"], "attr": {"T": {"type": "DT_FLOAT"}}}, {"name": "transpose_36", "op": "Transpose", "input": ["Relu_40", "transpose_1/perm"], "attr": {"T": {"type": "DT_FLOAT"}, "Tperm": {"type": "DT_INT32"}}}, {"name": "convolution_11", "op": "Conv2D", "input": ["transpose_36", "split_22"], "device": "/device:CPU:0", "attr": {"T": {"type": "DT_FLOAT"}, "data_format": {"s": "TkhXQw=="}, "strides": {"list": {"i": ["1", "1", "1", "1"]}}, "use_cudnn_on_gpu": {"b": true}, "explicit_paddings": {"list": {}}, "padding": {"s": "VkFMSUQ="}, "dilations": {"list": {"i": ["1", "1", "1", "1"]}}}}, {"name": "transpose_37", "op": "Transpose", "input": ["convolution_11", "transpose_2/perm"], "attr": {"T": {"type": "DT_FLOAT"}, "Tperm": {"type": "DT_INT32"}}}, {"name": "BatchNormalization_42/mul_1", "op": "Mul", "input": ["BatchNormalization_42/mul", "transpose_37"], "attr": {"T": {"type": "DT_FLOAT"}}}, {"name": "BatchNormalization_42/add_1", "op": "Add", "input": ["BatchNormalization_42/mul_1", "BatchNormalization_42/sub"], "attr": {"T": {"type": "DT_FLOAT"}}}, {"name": "Relu_43", "op": "Relu", "input": ["BatchNormalization_42/add_1"], "attr": {"T": {"type": "DT_FLOAT"}}}, {"name": "Pad_13", "op": "Pad", "input": ["Relu_43", "Const_610"], "attr": {"Tpaddings": {"type": "DT_INT32"}, "T": {"type": "DT_FLOAT"}}}, {"name": "transpose_39", "op": "Transpose", "input": ["Pad_13", "transpose_1/perm"], "attr": {"Tperm": {"type": "DT_INT32"}, "T": {"type": "DT_FLOAT"}}}, {"name": "convolution_12", "op": "Conv2D", "input": ["transpose_39", "split_24"], "device": "/device:CPU:0", "attr": {"padding": {"s": "VkFMSUQ="}, "dilations": {"list": {"i": ["1", "1", "1", "1"]}}, "T": {"type": "DT_FLOAT"}, "data_format": {"s": "TkhXQw=="}, "strides": {"list": {"i": ["1", "1", "1", "1"]}}, "explicit_paddings": {"list": {}}, "use_cudnn_on_gpu": {"b": true}}}, {"name": "transpose_40", "op": "Transpose", "input": ["convolution_12", "transpose_2/perm"], "attr": {"Tperm": {"type": "DT_INT32"}, "T": {"type": "DT_FLOAT"}}}, {"name": "Concat_45", "op": "ConcatV2", "input": ["Concat_38", "transpose_40", "Concat_10/axis"], "attr": {"T": {"type": "DT_FLOAT"}, "N": {"i": "2"}, "Tidx": {"type": "DT_INT32"}}}, {"name": "BatchNormalization_46/mul_1", "op": "Mul", "input": ["BatchNormalization_46/mul", "Concat_45"], "attr": {"T": {"type": "DT_FLOAT"}}}, {"name": "BatchNormalization_46/add_1", "op": "Add", "input": ["BatchNormalization_46/mul_1", "BatchNormalization_46/sub"], "attr": {"T": {"type": "DT_FLOAT"}}}, {"name": "Relu_47", "op": "Relu", "input": ["BatchNormalization_46/add_1"], "attr": {"T": {"type": "DT_FLOAT"}}}, {"name": "transpose_42", "op": "Transpose", "input": ["Relu_47", "transpose_1/perm"], "attr": {"Tperm": {"type": "DT_INT32"}, "T": {"type": "DT_FLOAT"}}}, {"name": "convolution_13", "op": "Conv2D", "input": ["transpose_42", "split_26"], "device": "/device:CPU:0", "attr": {"dilations": {"list": {"i": ["1", "1", "1", "1"]}}, "T": {"type": "DT_FLOAT"}, "strides": {"list": {"i": ["1", "1", "1", "1"]}}, "data_format": {"s": "TkhXQw=="}, "use_cudnn_on_gpu": {"b": true}, "explicit_paddings": {"list": {}}, "padding": {"s": "VkFMSUQ="}}}, {"name": "avg_pool", "op": "AvgPool", "input": ["convolution_13"], "attr": {"ksize": {"list": {"i": ["1", "2", "2", "1"]}}, "padding": {"s": "VkFMSUQ="}, "T": {"type": "DT_FLOAT"}, "data_format": {"s": "TkhXQw=="}, "strides": {"list": {"i": ["1", "2", "2", "1"]}}}}, {"name": "transpose_45", "op": "Transpose", "input": ["avg_pool", "transpose_2/perm"], "attr": {"T": {"type": "DT_FLOAT"}, "Tperm": {"type": "DT_INT32"}}}, {"name": "BatchNormalization_51/mul_1", "op": "Mul", "input": ["BatchNormalization_51/mul", "transpose_45"], "attr": {"T": {"type": "DT_FLOAT"}}}, {"name": "BatchNormalization_51/add_1", "op": "Add", "input": ["BatchNormalization_51/mul_1", "BatchNormalization_51/sub"], "attr": {"T": {"type": "DT_FLOAT"}}}, {"name": "Relu_52", "op": "Relu", "input": ["BatchNormalization_51/add_1"], "attr": {"T": {"type": "DT_FLOAT"}}}, {"name": "transpose_47", "op": "Transpose", "input": ["Relu_52", "transpose_1/perm"], "attr": {"T": {"type": "DT_FLOAT"}, "Tperm": {"type": "DT_INT32"}}}, {"name": "convolution_14", "op": "Conv2D", "input": ["transpose_47", "split_28"], "device": "/device:CPU:0", "attr": {"padding": {"s": "VkFMSUQ="}, "dilations": {"list": {"i": ["1", "1", "1", "1"]}}, "T": {"type": "DT_FLOAT"}, "strides": {"list": {"i": ["1", "1", "1", "1"]}}, "data_format": {"s": "TkhXQw=="}, "explicit_paddings": {"list": {}}, "use_cudnn_on_gpu": {"b": true}}}, {"name": "transpose_48", "op": "Transpose", "input": ["convolution_14", "transpose_2/perm"], "attr": {"Tperm": {"type": "DT_INT32"}, "T": {"type": "DT_FLOAT"}}}, {"name": "BatchNormalization_54/mul_1", "op": "Mul", "input": ["BatchNormalization_54/mul", "transpose_48"], "attr": {"T": {"type": "DT_FLOAT"}}}, {"name": "BatchNormalization_54/add_1", "op": "Add", "input": ["BatchNormalization_54/mul_1", "BatchNormalization_54/sub"], "attr": {"T": {"type": "DT_FLOAT"}}}, {"name": "Relu_55", "op": "Relu", "input": ["BatchNormalization_54/add_1"], "attr": {"T": {"type": "DT_FLOAT"}}}, {"name": "Pad_16", "op": "Pad", "input": ["Relu_55", "Const_610"], "attr": {"T": {"type": "DT_FLOAT"}, "Tpaddings": {"type": "DT_INT32"}}}, {"name": "transpose_50", "op": "Transpose", "input": ["Pad_16", "transpose_1/perm"], "attr": {"Tperm": {"type": "DT_INT32"}, "T": {"type": "DT_FLOAT"}}}, {"name": "convolution_15", "op": "Conv2D", "input": ["transpose_50", "split_30"], "device": "/device:CPU:0", "attr": {"dilations": {"list": {"i": ["1", "1", "1", "1"]}}, "T": {"type": "DT_FLOAT"}, "data_format": {"s": "TkhXQw=="}, "strides": {"list": {"i": ["1", "1", "1", "1"]}}, "use_cudnn_on_gpu": {"b": true}, "explicit_paddings": {"list": {}}, "padding": {"s": "VkFMSUQ="}}}, {"name": "transpose_51", "op": "Transpose", "input": ["convolution_15", "transpose_2/perm"], "attr": {"T": {"type": "DT_FLOAT"}, "Tperm": {"type": "DT_INT32"}}}, {"name": "Concat_57", "op": "ConcatV2", "input": ["transpose_45", "transpose_51", "Concat_10/axis"], "attr": {"T": {"type": "DT_FLOAT"}, "N": {"i": "2"}, "Tidx": {"type": "DT_INT32"}}}, {"name": "BatchNormalization_58/mul_1", "op": "Mul", "input": ["BatchNormalization_58/mul", "Concat_57"], "attr": {"T": {"type": "DT_FLOAT"}}}, {"name": "BatchNormalization_58/add_1", "op": "Add", "input": ["BatchNormalization_58/mul_1", "BatchNormalization_58/sub"], "attr": {"T": {"type": "DT_FLOAT"}}}, {"name": "Relu_59", "op": "Relu", "input": ["BatchNormalization_58/add_1"], "attr": {"T": {"type": "DT_FLOAT"}}}, {"name": "transpose_53", "op": "Transpose", "input": ["Relu_59", "transpose_1/perm"], "attr": {"Tperm": {"type": "DT_INT32"}, "T": {"type": "DT_FLOAT"}}}, {"name": "convolution_16", "op": "Conv2D", "input": ["transpose_53", "split_32"], "device": "/device:CPU:0", "attr": {"dilations": {"list": {"i": ["1", "1", "1", "1"]}}, "T": {"type": "DT_FLOAT"}, "strides": {"list": {"i": ["1", "1", "1", "1"]}}, "data_format": {"s": "TkhXQw=="}, "use_cudnn_on_gpu": {"b": true}, "explicit_paddings": {"list": {}}, "padding": {"s": "VkFMSUQ="}}}, {"name": "transpose_54", "op": "Transpose", "input": ["convolution_16", "transpose_2/perm"], "attr": {"Tperm": {"type": "DT_INT32"}, "T": {"type": "DT_FLOAT"}}}, {"name": "BatchNormalization_61/mul_1", "op": "Mul", "input": ["BatchNormalization_61/mul", "transpose_54"], "attr": {"T": {"type": "DT_FLOAT"}}}, {"name": "BatchNormalization_61/add_1", "op": "Add", "input": ["BatchNormalization_61/mul_1", "BatchNormalization_61/sub"], "attr": {"T": {"type": "DT_FLOAT"}}}, {"name": "Relu_62", "op": "Relu", "input": ["BatchNormalization_61/add_1"], "attr": {"T": {"type": "DT_FLOAT"}}}, {"name": "Pad_18", "op": "Pad", "input": ["Relu_62", "Const_610"], "attr": {"T": {"type": "DT_FLOAT"}, "Tpaddings": {"type": "DT_INT32"}}}, {"name": "transpose_56", "op": "Transpose", "input": ["Pad_18", "transpose_1/perm"], "attr": {"Tperm": {"type": "DT_INT32"}, "T": {"type": "DT_FLOAT"}}}, {"name": "convolution_17", "op": "Conv2D", "input": ["transpose_56", "split_34"], "device": "/device:CPU:0", "attr": {"dilations": {"list": {"i": ["1", "1", "1", "1"]}}, "T": {"type": "DT_FLOAT"}, "data_format": {"s": "TkhXQw=="}, "strides": {"list": {"i": ["1", "1", "1", "1"]}}, "explicit_paddings": {"list": {}}, "use_cudnn_on_gpu": {"b": true}, "padding": {"s": "VkFMSUQ="}}}, {"name": "transpose_57", "op": "Transpose", "input": ["convolution_17", "transpose_2/perm"], "attr": {"T": {"type": "DT_FLOAT"}, "Tperm": {"type": "DT_INT32"}}}, {"name": "Concat_64", "op": "ConcatV2", "input": ["Concat_57", "transpose_57", "Concat_10/axis"], "attr": {"T": {"type": "DT_FLOAT"}, "N": {"i": "2"}, "Tidx": {"type": "DT_INT32"}}}, {"name": "BatchNormalization_65/mul_1", "op": "Mul", "input": ["BatchNormalization_65/mul", "Concat_64"], "attr": {"T": {"type": "DT_FLOAT"}}}, {"name": "BatchNormalization_65/add_1", "op": "Add", "input": ["BatchNormalization_65/mul_1", "BatchNormalization_65/sub"], "attr": {"T": {"type": "DT_FLOAT"}}}, {"name": "Relu_66", "op": "Relu", "input": ["BatchNormalization_65/add_1"], "attr": {"T": {"type": "DT_FLOAT"}}}, {"name": "transpose_59", "op": "Transpose", "input": ["Relu_66", "transpose_1/perm"], "attr": {"T": {"type": "DT_FLOAT"}, "Tperm": {"type": "DT_INT32"}}}, {"name": "convolution_18", "op": "Conv2D", "input": ["transpose_59", "split_36"], "device": "/device:CPU:0", "attr": {"padding": {"s": "VkFMSUQ="}, "dilations": {"list": {"i": ["1", "1", "1", "1"]}}, "T": {"type": "DT_FLOAT"}, "strides": {"list": {"i": ["1", "1", "1", "1"]}}, "data_format": {"s": "TkhXQw=="}, "use_cudnn_on_gpu": {"b": true}, "explicit_paddings": {"list": {}}}}, {"name": "transpose_60", "op": "Transpose", "input": ["convolution_18", "transpose_2/perm"], "attr": {"Tperm": {"type": "DT_INT32"}, "T": {"type": "DT_FLOAT"}}}, {"name": "BatchNormalization_68/mul_1", "op": "Mul", "input": ["BatchNormalization_68/mul", "transpose_60"], "attr": {"T": {"type": "DT_FLOAT"}}}, {"name": "BatchNormalization_68/add_1", "op": "Add", "input": ["BatchNormalization_68/mul_1", "BatchNormalization_68/sub"], "attr": {"T": {"type": "DT_FLOAT"}}}, {"name": "Relu_69", "op": "Relu", "input": ["BatchNormalization_68/add_1"], "attr": {"T": {"type": "DT_FLOAT"}}}, {"name": "Pad_20", "op": "Pad", "input": ["Relu_69", "Const_610"], "attr": {"T": {"type": "DT_FLOAT"}, "Tpaddings": {"type": "DT_INT32"}}}, {"name": "transpose_62", "op": "Transpose", "input": ["Pad_20", "transpose_1/perm"], "attr": {"Tperm": {"type": "DT_INT32"}, "T": {"type": "DT_FLOAT"}}}, {"name": "convolution_19", "op": "Conv2D", "input": ["transpose_62", "split_38"], "device": "/device:CPU:0", "attr": {"T": {"type": "DT_FLOAT"}, "data_format": {"s": "TkhXQw=="}, "strides": {"list": {"i": ["1", "1", "1", "1"]}}, "explicit_paddings": {"list": {}}, "use_cudnn_on_gpu": {"b": true}, "padding": {"s": "VkFMSUQ="}, "dilations": {"list": {"i": ["1", "1", "1", "1"]}}}}, {"name": "transpose_63", "op": "Transpose", "input": ["convolution_19", "transpose_2/perm"], "attr": {"T": {"type": "DT_FLOAT"}, "Tperm": {"type": "DT_INT32"}}}, {"name": "Concat_71", "op": "ConcatV2", "input": ["Concat_64", "transpose_63", "Concat_10/axis"], "attr": {"N": {"i": "2"}, "Tidx": {"type": "DT_INT32"}, "T": {"type": "DT_FLOAT"}}}, {"name": "BatchNormalization_72/mul_1", "op": "Mul", "input": ["BatchNormalization_72/mul", "Concat_71"], "attr": {"T": {"type": "DT_FLOAT"}}}, {"name": "BatchNormalization_72/add_1", "op": "Add", "input": ["BatchNormalization_72/mul_1", "BatchNormalization_72/sub"], "attr": {"T": {"type": "DT_FLOAT"}}}, {"name": "Relu_73", "op": "Relu", "input": ["BatchNormalization_72/add_1"], "attr": {"T": {"type": "DT_FLOAT"}}}, {"name": "transpose_65", "op": "Transpose", "input": ["Relu_73", "transpose_1/perm"], "attr": {"T": {"type": "DT_FLOAT"}, "Tperm": {"type": "DT_INT32"}}}, {"name": "convolution_20", "op": "Conv2D", "input": ["transpose_65", "split_40"], "device": "/device:CPU:0", "attr": {"T": {"type": "DT_FLOAT"}, "strides": {"list": {"i": ["1", "1", "1", "1"]}}, "data_format": {"s": "TkhXQw=="}, "explicit_paddings": {"list": {}}, "use_cudnn_on_gpu": {"b": true}, "padding": {"s": "VkFMSUQ="}, "dilations": {"list": {"i": ["1", "1", "1", "1"]}}}}, {"name": "transpose_66", "op": "Transpose", "input": ["convolution_20", "transpose_2/perm"], "attr": {"T": {"type": "DT_FLOAT"}, "Tperm": {"type": "DT_INT32"}}}, {"name": "BatchNormalization_75/mul_1", "op": "Mul", "input": ["BatchNormalization_75/mul", "transpose_66"], "attr": {"T": {"type": "DT_FLOAT"}}}, {"name": "BatchNormalization_75/add_1", "op": "Add", "input": ["BatchNormalization_75/mul_1", "BatchNormalization_75/sub"], "attr": {"T": {"type": "DT_FLOAT"}}}, {"name": "Relu_76", "op": "Relu", "input": ["BatchNormalization_75/add_1"], "attr": {"T": {"type": "DT_FLOAT"}}}, {"name": "Pad_22", "op": "Pad", "input": ["Relu_76", "Const_610"], "attr": {"Tpaddings": {"type": "DT_INT32"}, "T": {"type": "DT_FLOAT"}}}, {"name": "transpose_68", "op": "Transpose", "input": ["Pad_22", "transpose_1/perm"], "attr": {"T": {"type": "DT_FLOAT"}, "Tperm": {"type": "DT_INT32"}}}, {"name": "convolution_21", "op": "Conv2D", "input": ["transpose_68", "split_42"], "device": "/device:CPU:0", "attr": {"T": {"type": "DT_FLOAT"}, "data_format": {"s": "TkhXQw=="}, "strides": {"list": {"i": ["1", "1", "1", "1"]}}, "explicit_paddings": {"list": {}}, "use_cudnn_on_gpu": {"b": true}, "padding": {"s": "VkFMSUQ="}, "dilations": {"list": {"i": ["1", "1", "1", "1"]}}}}, {"name": "transpose_69", "op": "Transpose", "input": ["convolution_21", "transpose_2/perm"], "attr": {"Tperm": {"type": "DT_INT32"}, "T": {"type": "DT_FLOAT"}}}, {"name": "Concat_78", "op": "ConcatV2", "input": ["Concat_71", "transpose_69", "Concat_10/axis"], "attr": {"Tidx": {"type": "DT_INT32"}, "T": {"type": "DT_FLOAT"}, "N": {"i": "2"}}}, {"name": "BatchNormalization_79/mul_1", "op": "Mul", "input": ["BatchNormalization_79/mul", "Concat_78"], "attr": {"T": {"type": "DT_FLOAT"}}}, {"name": "BatchNormalization_79/add_1", "op": "Add", "input": ["BatchNormalization_79/mul_1", "BatchNormalization_79/sub"], "attr": {"T": {"type": "DT_FLOAT"}}}, {"name": "Relu_80", "op": "Relu", "input": ["BatchNormalization_79/add_1"], "attr": {"T": {"type": "DT_FLOAT"}}}, {"name": "transpose_71", "op": "Transpose", "input": ["Relu_80", "transpose_1/perm"], "attr": {"Tperm": {"type": "DT_INT32"}, "T": {"type": "DT_FLOAT"}}}, {"name": "convolution_22", "op": "Conv2D", "input": ["transpose_71", "split_44"], "device": "/device:CPU:0", "attr": {"padding": {"s": "VkFMSUQ="}, "dilations": {"list": {"i": ["1", "1", "1", "1"]}}, "T": {"type": "DT_FLOAT"}, "strides": {"list": {"i": ["1", "1", "1", "1"]}}, "data_format": {"s": "TkhXQw=="}, "explicit_paddings": {"list": {}}, "use_cudnn_on_gpu": {"b": true}}}, {"name": "transpose_72", "op": "Transpose", "input": ["convolution_22", "transpose_2/perm"], "attr": {"T": {"type": "DT_FLOAT"}, "Tperm": {"type": "DT_INT32"}}}, {"name": "BatchNormalization_82/mul_1", "op": "Mul", "input": ["BatchNormalization_82/mul", "transpose_72"], "attr": {"T": {"type": "DT_FLOAT"}}}, {"name": "BatchNormalization_82/add_1", "op": "Add", "input": ["BatchNormalization_82/mul_1", "BatchNormalization_82/sub"], "attr": {"T": {"type": "DT_FLOAT"}}}, {"name": "Relu_83", "op": "Relu", "input": ["BatchNormalization_82/add_1"], "attr": {"T": {"type": "DT_FLOAT"}}}, {"name": "Pad_24", "op": "Pad", "input": ["Relu_83", "Const_610"], "attr": {"T": {"type": "DT_FLOAT"}, "Tpaddings": {"type": "DT_INT32"}}}, {"name": "transpose_74", "op": "Transpose", "input": ["Pad_24", "transpose_1/perm"], "attr": {"Tperm": {"type": "DT_INT32"}, "T": {"type": "DT_FLOAT"}}}, {"name": "convolution_23", "op": "Conv2D", "input": ["transpose_74", "split_46"], "device": "/device:CPU:0", "attr": {"T": {"type": "DT_FLOAT"}, "strides": {"list": {"i": ["1", "1", "1", "1"]}}, "data_format": {"s": "TkhXQw=="}, "use_cudnn_on_gpu": {"b": true}, "explicit_paddings": {"list": {}}, "padding": {"s": "VkFMSUQ="}, "dilations": {"list": {"i": ["1", "1", "1", "1"]}}}}, {"name": "transpose_75", "op": "Transpose", "input": ["convolution_23", "transpose_2/perm"], "attr": {"Tperm": {"type": "DT_INT32"}, "T": {"type": "DT_FLOAT"}}}, {"name": "Concat_85", "op": "ConcatV2", "input": ["Concat_78", "transpose_75", "Concat_10/axis"], "attr": {"T": {"type": "DT_FLOAT"}, "N": {"i": "2"}, "Tidx": {"type": "DT_INT32"}}}, {"name": "BatchNormalization_86/mul_1", "op": "Mul", "input": ["BatchNormalization_86/mul", "Concat_85"], "attr": {"T": {"type": "DT_FLOAT"}}}, {"name": "BatchNormalization_86/add_1", "op": "Add", "input": ["BatchNormalization_86/mul_1", "BatchNormalization_86/sub"], "attr": {"T": {"type": "DT_FLOAT"}}}, {"name": "Relu_87", "op": "Relu", "input": ["BatchNormalization_86/add_1"], "attr": {"T": {"type": "DT_FLOAT"}}}, {"name": "transpose_77", "op": "Transpose", "input": ["Relu_87", "transpose_1/perm"], "attr": {"T": {"type": "DT_FLOAT"}, "Tperm": {"type": "DT_INT32"}}}, {"name": "convolution_24", "op": "Conv2D", "input": ["transpose_77", "split_48"], "device": "/device:CPU:0", "attr": {"dilations": {"list": {"i": ["1", "1", "1", "1"]}}, "T": {"type": "DT_FLOAT"}, "data_format": {"s": "TkhXQw=="}, "strides": {"list": {"i": ["1", "1", "1", "1"]}}, "explicit_paddings": {"list": {}}, "use_cudnn_on_gpu": {"b": true}, "padding": {"s": "VkFMSUQ="}}}, {"name": "transpose_78", "op": "Transpose", "input": ["convolution_24", "transpose_2/perm"], "attr": {"T": {"type": "DT_FLOAT"}, "Tperm": {"type": "DT_INT32"}}}, {"name": "BatchNormalization_89/mul_1", "op": "Mul", "input": ["BatchNormalization_89/mul", "transpose_78"], "attr": {"T": {"type": "DT_FLOAT"}}}, {"name": "BatchNormalization_89/add_1", "op": "Add", "input": ["BatchNormalization_89/mul_1", "BatchNormalization_89/sub"], "attr": {"T": {"type": "DT_FLOAT"}}}, {"name": "Relu_90", "op": "Relu", "input": ["BatchNormalization_89/add_1"], "attr": {"T": {"type": "DT_FLOAT"}}}, {"name": "Pad_26", "op": "Pad", "input": ["Relu_90", "Const_610"], "attr": {"T": {"type": "DT_FLOAT"}, "Tpaddings": {"type": "DT_INT32"}}}, {"name": "transpose_80", "op": "Transpose", "input": ["Pad_26", "transpose_1/perm"], "attr": {"T": {"type": "DT_FLOAT"}, "Tperm": {"type": "DT_INT32"}}}, {"name": "convolution_25", "op": "Conv2D", "input": ["transpose_80", "split_50"], "device": "/device:CPU:0", "attr": {"dilations": {"list": {"i": ["1", "1", "1", "1"]}}, "T": {"type": "DT_FLOAT"}, "strides": {"list": {"i": ["1", "1", "1", "1"]}}, "data_format": {"s": "TkhXQw=="}, "explicit_paddings": {"list": {}}, "use_cudnn_on_gpu": {"b": true}, "padding": {"s": "VkFMSUQ="}}}, {"name": "transpose_81", "op": "Transpose", "input": ["convolution_25", "transpose_2/perm"], "attr": {"Tperm": {"type": "DT_INT32"}, "T": {"type": "DT_FLOAT"}}}, {"name": "Concat_92", "op": "ConcatV2", "input": ["Concat_85", "transpose_81", "Concat_10/axis"], "attr": {"T": {"type": "DT_FLOAT"}, "N": {"i": "2"}, "Tidx": {"type": "DT_INT32"}}}, {"name": "BatchNormalization_93/mul_1", "op": "Mul", "input": ["BatchNormalization_93/mul", "Concat_92"], "attr": {"T": {"type": "DT_FLOAT"}}}, {"name": "BatchNormalization_93/add_1", "op": "Add", "input": ["BatchNormalization_93/mul_1", "BatchNormalization_93/sub"], "attr": {"T": {"type": "DT_FLOAT"}}}, {"name": "Relu_94", "op": "Relu", "input": ["BatchNormalization_93/add_1"], "attr": {"T": {"type": "DT_FLOAT"}}}, {"name": "transpose_83", "op": "Transpose", "input": ["Relu_94", "transpose_1/perm"], "attr": {"Tperm": {"type": "DT_INT32"}, "T": {"type": "DT_FLOAT"}}}, {"name": "convolution_26", "op": "Conv2D", "input": ["transpose_83", "split_52"], "device": "/device:CPU:0", "attr": {"dilations": {"list": {"i": ["1", "1", "1", "1"]}}, "T": {"type": "DT_FLOAT"}, "data_format": {"s": "TkhXQw=="}, "strides": {"list": {"i": ["1", "1", "1", "1"]}}, "explicit_paddings": {"list": {}}, "use_cudnn_on_gpu": {"b": true}, "padding": {"s": "VkFMSUQ="}}}, {"name": "transpose_84", "op": "Transpose", "input": ["convolution_26", "transpose_2/perm"], "attr": {"T": {"type": "DT_FLOAT"}, "Tperm": {"type": "DT_INT32"}}}, {"name": "BatchNormalization_96/mul_1", "op": "Mul", "input": ["BatchNormalization_96/mul", "transpose_84"], "attr": {"T": {"type": "DT_FLOAT"}}}, {"name": "BatchNormalization_96/add_1", "op": "Add", "input": ["BatchNormalization_96/mul_1", "BatchNormalization_96/sub"], "attr": {"T": {"type": "DT_FLOAT"}}}, {"name": "Relu_97", "op": "Relu", "input": ["BatchNormalization_96/add_1"], "attr": {"T": {"type": "DT_FLOAT"}}}, {"name": "Pad_28", "op": "Pad", "input": ["Relu_97", "Const_610"], "attr": {"Tpaddings": {"type": "DT_INT32"}, "T": {"type": "DT_FLOAT"}}}, {"name": "transpose_86", "op": "Transpose", "input": ["Pad_28", "transpose_1/perm"], "attr": {"T": {"type": "DT_FLOAT"}, "Tperm": {"type": "DT_INT32"}}}, {"name": "convolution_27", "op": "Conv2D", "input": ["transpose_86", "split_54"], "device": "/device:CPU:0", "attr": {"padding": {"s": "VkFMSUQ="}, "dilations": {"list": {"i": ["1", "1", "1", "1"]}}, "T": {"type": "DT_FLOAT"}, "data_format": {"s": "TkhXQw=="}, "strides": {"list": {"i": ["1", "1", "1", "1"]}}, "explicit_paddings": {"list": {}}, "use_cudnn_on_gpu": {"b": true}}}, {"name": "transpose_87", "op": "Transpose", "input": ["convolution_27", "transpose_2/perm"], "attr": {"Tperm": {"type": "DT_INT32"}, "T": {"type": "DT_FLOAT"}}}, {"name": "Concat_99", "op": "ConcatV2", "input": ["Concat_92", "transpose_87", "Concat_10/axis"], "attr": {"T": {"type": "DT_FLOAT"}, "N": {"i": "2"}, "Tidx": {"type": "DT_INT32"}}}, {"name": "BatchNormalization_100/mul_1", "op": "Mul", "input": ["BatchNormalization_100/mul", "Concat_99"], "attr": {"T": {"type": "DT_FLOAT"}}}, {"name": "BatchNormalization_100/add_1", "op": "Add", "input": ["BatchNormalization_100/mul_1", "BatchNormalization_100/sub"], "attr": {"T": {"type": "DT_FLOAT"}}}, {"name": "Relu_101", "op": "Relu", "input": ["BatchNormalization_100/add_1"], "attr": {"T": {"type": "DT_FLOAT"}}}, {"name": "transpose_89", "op": "Transpose", "input": ["Relu_101", "transpose_1/perm"], "attr": {"Tperm": {"type": "DT_INT32"}, "T": {"type": "DT_FLOAT"}}}, {"name": "convolution_28", "op": "Conv2D", "input": ["transpose_89", "split_56"], "device": "/device:CPU:0", "attr": {"padding": {"s": "VkFMSUQ="}, "dilations": {"list": {"i": ["1", "1", "1", "1"]}}, "T": {"type": "DT_FLOAT"}, "data_format": {"s": "TkhXQw=="}, "strides": {"list": {"i": ["1", "1", "1", "1"]}}, "explicit_paddings": {"list": {}}, "use_cudnn_on_gpu": {"b": true}}}, {"name": "transpose_90", "op": "Transpose", "input": ["convolution_28", "transpose_2/perm"], "attr": {"T": {"type": "DT_FLOAT"}, "Tperm": {"type": "DT_INT32"}}}, {"name": "BatchNormalization_103/mul_1", "op": "Mul", "input": ["BatchNormalization_103/mul", "transpose_90"], "attr": {"T": {"type": "DT_FLOAT"}}}, {"name": "BatchNormalization_103/add_1", "op": "Add", "input": ["BatchNormalization_103/mul_1", "BatchNormalization_103/sub"], "attr": {"T": {"type": "DT_FLOAT"}}}, {"name": "Relu_104", "op": "Relu", "input": ["BatchNormalization_103/add_1"], "attr": {"T": {"type": "DT_FLOAT"}}}, {"name": "Pad_30", "op": "Pad", "input": ["Relu_104", "Const_610"], "attr": {"T": {"type": "DT_FLOAT"}, "Tpaddings": {"type": "DT_INT32"}}}, {"name": "transpose_92", "op": "Transpose", "input": ["Pad_30", "transpose_1/perm"], "attr": {"T": {"type": "DT_FLOAT"}, "Tperm": {"type": "DT_INT32"}}}, {"name": "convolution_29", "op": "Conv2D", "input": ["transpose_92", "split_58"], "device": "/device:CPU:0", "attr": {"padding": {"s": "VkFMSUQ="}, "dilations": {"list": {"i": ["1", "1", "1", "1"]}}, "T": {"type": "DT_FLOAT"}, "data_format": {"s": "TkhXQw=="}, "strides": {"list": {"i": ["1", "1", "1", "1"]}}, "explicit_paddings": {"list": {}}, "use_cudnn_on_gpu": {"b": true}}}, {"name": "transpose_93", "op": "Transpose", "input": ["convolution_29", "transpose_2/perm"], "attr": {"T": {"type": "DT_FLOAT"}, "Tperm": {"type": "DT_INT32"}}}, {"name": "Concat_106", "op": "ConcatV2", "input": ["Concat_99", "transpose_93", "Concat_10/axis"], "attr": {"T": {"type": "DT_FLOAT"}, "N": {"i": "2"}, "Tidx": {"type": "DT_INT32"}}}, {"name": "BatchNormalization_107/mul_1", "op": "Mul", "input": ["BatchNormalization_107/mul", "Concat_106"], "attr": {"T": {"type": "DT_FLOAT"}}}, {"name": "BatchNormalization_107/add_1", "op": "Add", "input": ["BatchNormalization_107/mul_1", "BatchNormalization_107/sub"], "attr": {"T": {"type": "DT_FLOAT"}}}, {"name": "Relu_108", "op": "Relu", "input": ["BatchNormalization_107/add_1"], "attr": {"T": {"type": "DT_FLOAT"}}}, {"name": "transpose_95", "op": "Transpose", "input": ["Relu_108", "transpose_1/perm"], "attr": {"T": {"type": "DT_FLOAT"}, "Tperm": {"type": "DT_INT32"}}}, {"name": "convolution_30", "op": "Conv2D", "input": ["transpose_95", "split_60"], "device": "/device:CPU:0", "attr": {"dilations": {"list": {"i": ["1", "1", "1", "1"]}}, "T": {"type": "DT_FLOAT"}, "strides": {"list": {"i": ["1", "1", "1", "1"]}}, "data_format": {"s": "TkhXQw=="}, "use_cudnn_on_gpu": {"b": true}, "explicit_paddings": {"list": {}}, "padding": {"s": "VkFMSUQ="}}}, {"name": "transpose_96", "op": "Transpose", "input": ["convolution_30", "transpose_2/perm"], "attr": {"Tperm": {"type": "DT_INT32"}, "T": {"type": "DT_FLOAT"}}}, {"name": "BatchNormalization_110/mul_1", "op": "Mul", "input": ["BatchNormalization_110/mul", "transpose_96"], "attr": {"T": {"type": "DT_FLOAT"}}}, {"name": "BatchNormalization_110/add_1", "op": "Add", "input": ["BatchNormalization_110/mul_1", "BatchNormalization_110/sub"], "attr": {"T": {"type": "DT_FLOAT"}}}, {"name": "Relu_111", "op": "Relu", "input": ["BatchNormalization_110/add_1"], "attr": {"T": {"type": "DT_FLOAT"}}}, {"name": "Pad_32", "op": "Pad", "input": ["Relu_111", "Const_610"], "attr": {"T": {"type": "DT_FLOAT"}, "Tpaddings": {"type": "DT_INT32"}}}, {"name": "transpose_98", "op": "Transpose", "input": ["Pad_32", "transpose_1/perm"], "attr": {"Tperm": {"type": "DT_INT32"}, "T": {"type": "DT_FLOAT"}}}, {"name": "convolution_31", "op": "Conv2D", "input": ["transpose_98", "split_62"], "device": "/device:CPU:0", "attr": {"dilations": {"list": {"i": ["1", "1", "1", "1"]}}, "T": {"type": "DT_FLOAT"}, "strides": {"list": {"i": ["1", "1", "1", "1"]}}, "data_format": {"s": "TkhXQw=="}, "explicit_paddings": {"list": {}}, "use_cudnn_on_gpu": {"b": true}, "padding": {"s": "VkFMSUQ="}}}, {"name": "transpose_99", "op": "Transpose", "input": ["convolution_31", "transpose_2/perm"], "attr": {"Tperm": {"type": "DT_INT32"}, "T": {"type": "DT_FLOAT"}}}, {"name": "Concat_113", "op": "ConcatV2", "input": ["Concat_106", "transpose_99", "Concat_10/axis"], "attr": {"Tidx": {"type": "DT_INT32"}, "T": {"type": "DT_FLOAT"}, "N": {"i": "2"}}}, {"name": "BatchNormalization_114/mul_1", "op": "Mul", "input": ["BatchNormalization_114/mul", "Concat_113"], "attr": {"T": {"type": "DT_FLOAT"}}}, {"name": "BatchNormalization_114/add_1", "op": "Add", "input": ["BatchNormalization_114/mul_1", "BatchNormalization_114/sub"], "attr": {"T": {"type": "DT_FLOAT"}}}, {"name": "Relu_115", "op": "Relu", "input": ["BatchNormalization_114/add_1"], "attr": {"T": {"type": "DT_FLOAT"}}}, {"name": "transpose_101", "op": "Transpose", "input": ["Relu_115", "transpose_1/perm"], "attr": {"Tperm": {"type": "DT_INT32"}, "T": {"type": "DT_FLOAT"}}}, {"name": "convolution_32", "op": "Conv2D", "input": ["transpose_101", "split_64"], "device": "/device:CPU:0", "attr": {"padding": {"s": "VkFMSUQ="}, "dilations": {"list": {"i": ["1", "1", "1", "1"]}}, "T": {"type": "DT_FLOAT"}, "strides": {"list": {"i": ["1", "1", "1", "1"]}}, "data_format": {"s": "TkhXQw=="}, "explicit_paddings": {"list": {}}, "use_cudnn_on_gpu": {"b": true}}}, {"name": "transpose_102", "op": "Transpose", "input": ["convolution_32", "transpose_2/perm"], "attr": {"T": {"type": "DT_FLOAT"}, "Tperm": {"type": "DT_INT32"}}}, {"name": "BatchNormalization_117/mul_1", "op": "Mul", "input": ["BatchNormalization_117/mul", "transpose_102"], "attr": {"T": {"type": "DT_FLOAT"}}}, {"name": "BatchNormalization_117/add_1", "op": "Add", "input": ["BatchNormalization_117/mul_1", "BatchNormalization_117/sub"], "attr": {"T": {"type": "DT_FLOAT"}}}, {"name": "Relu_118", "op": "Relu", "input": ["BatchNormalization_117/add_1"], "attr": {"T": {"type": "DT_FLOAT"}}}, {"name": "Pad_34", "op": "Pad", "input": ["Relu_118", "Const_610"], "attr": {"T": {"type": "DT_FLOAT"}, "Tpaddings": {"type": "DT_INT32"}}}, {"name": "transpose_104", "op": "Transpose", "input": ["Pad_34", "transpose_1/perm"], "attr": {"T": {"type": "DT_FLOAT"}, "Tperm": {"type": "DT_INT32"}}}, {"name": "convolution_33", "op": "Conv2D", "input": ["transpose_104", "split_66"], "device": "/device:CPU:0", "attr": {"dilations": {"list": {"i": ["1", "1", "1", "1"]}}, "T": {"type": "DT_FLOAT"}, "strides": {"list": {"i": ["1", "1", "1", "1"]}}, "data_format": {"s": "TkhXQw=="}, "explicit_paddings": {"list": {}}, "use_cudnn_on_gpu": {"b": true}, "padding": {"s": "VkFMSUQ="}}}, {"name": "transpose_105", "op": "Transpose", "input": ["convolution_33", "transpose_2/perm"], "attr": {"T": {"type": "DT_FLOAT"}, "Tperm": {"type": "DT_INT32"}}}, {"name": "Concat_120", "op": "ConcatV2", "input": ["Concat_113", "transpose_105", "Concat_10/axis"], "attr": {"T": {"type": "DT_FLOAT"}, "N": {"i": "2"}, "Tidx": {"type": "DT_INT32"}}}, {"name": "BatchNormalization_121/mul_1", "op": "Mul", "input": ["BatchNormalization_121/mul", "Concat_120"], "attr": {"T": {"type": "DT_FLOAT"}}}, {"name": "BatchNormalization_121/add_1", "op": "Add", "input": ["BatchNormalization_121/mul_1", "BatchNormalization_121/sub"], "attr": {"T": {"type": "DT_FLOAT"}}}, {"name": "Relu_122", "op": "Relu", "input": ["BatchNormalization_121/add_1"], "attr": {"T": {"type": "DT_FLOAT"}}}, {"name": "transpose_107", "op": "Transpose", "input": ["Relu_122", "transpose_1/perm"], "attr": {"Tperm": {"type": "DT_INT32"}, "T": {"type": "DT_FLOAT"}}}, {"name": "convolution_34", "op": "Conv2D", "input": ["transpose_107", "split_68"], "device": "/device:CPU:0", "attr": {"T": {"type": "DT_FLOAT"}, "strides": {"list": {"i": ["1", "1", "1", "1"]}}, "data_format": {"s": "TkhXQw=="}, "use_cudnn_on_gpu": {"b": true}, "explicit_paddings": {"list": {}}, "padding": {"s": "VkFMSUQ="}, "dilations": {"list": {"i": ["1", "1", "1", "1"]}}}}, {"name": "transpose_108", "op": "Transpose", "input": ["convolution_34", "transpose_2/perm"], "attr": {"T": {"type": "DT_FLOAT"}, "Tperm": {"type": "DT_INT32"}}}, {"name": "BatchNormalization_124/mul_1", "op": "Mul", "input": ["BatchNormalization_124/mul", "transpose_108"], "attr": {"T": {"type": "DT_FLOAT"}}}, {"name": "BatchNormalization_124/add_1", "op": "Add", "input": ["BatchNormalization_124/mul_1", "BatchNormalization_124/sub"], "attr": {"T": {"type": "DT_FLOAT"}}}, {"name": "Relu_125", "op": "Relu", "input": ["BatchNormalization_124/add_1"], "attr": {"T": {"type": "DT_FLOAT"}}}, {"name": "Pad_36", "op": "Pad", "input": ["Relu_125", "Const_610"], "attr": {"T": {"type": "DT_FLOAT"}, "Tpaddings": {"type": "DT_INT32"}}}, {"name": "transpose_110", "op": "Transpose", "input": ["Pad_36", "transpose_1/perm"], "attr": {"Tperm": {"type": "DT_INT32"}, "T": {"type": "DT_FLOAT"}}}, {"name": "convolution_35", "op": "Conv2D", "input": ["transpose_110", "split_70"], "device": "/device:CPU:0", "attr": {"dilations": {"list": {"i": ["1", "1", "1", "1"]}}, "T": {"type": "DT_FLOAT"}, "strides": {"list": {"i": ["1", "1", "1", "1"]}}, "data_format": {"s": "TkhXQw=="}, "explicit_paddings": {"list": {}}, "use_cudnn_on_gpu": {"b": true}, "padding": {"s": "VkFMSUQ="}}}, {"name": "transpose_111", "op": "Transpose", "input": ["convolution_35", "transpose_2/perm"], "attr": {"T": {"type": "DT_FLOAT"}, "Tperm": {"type": "DT_INT32"}}}, {"name": "Concat_127", "op": "ConcatV2", "input": ["Concat_120", "transpose_111", "Concat_10/axis"], "attr": {"Tidx": {"type": "DT_INT32"}, "T": {"type": "DT_FLOAT"}, "N": {"i": "2"}}}, {"name": "BatchNormalization_128/mul_1", "op": "Mul", "input": ["BatchNormalization_128/mul", "Concat_127"], "attr": {"T": {"type": "DT_FLOAT"}}}, {"name": "BatchNormalization_128/add_1", "op": "Add", "input": ["BatchNormalization_128/mul_1", "BatchNormalization_128/sub"], "attr": {"T": {"type": "DT_FLOAT"}}}, {"name": "Relu_129", "op": "Relu", "input": ["BatchNormalization_128/add_1"], "attr": {"T": {"type": "DT_FLOAT"}}}, {"name": "transpose_113", "op": "Transpose", "input": ["Relu_129", "transpose_1/perm"], "attr": {"Tperm": {"type": "DT_INT32"}, "T": {"type": "DT_FLOAT"}}}, {"name": "convolution_36", "op": "Conv2D", "input": ["transpose_113", "split_72"], "device": "/device:CPU:0", "attr": {"padding": {"s": "VkFMSUQ="}, "dilations": {"list": {"i": ["1", "1", "1", "1"]}}, "T": {"type": "DT_FLOAT"}, "data_format": {"s": "TkhXQw=="}, "strides": {"list": {"i": ["1", "1", "1", "1"]}}, "explicit_paddings": {"list": {}}, "use_cudnn_on_gpu": {"b": true}}}, {"name": "transpose_114", "op": "Transpose", "input": ["convolution_36", "transpose_2/perm"], "attr": {"T": {"type": "DT_FLOAT"}, "Tperm": {"type": "DT_INT32"}}}, {"name": "BatchNormalization_131/mul_1", "op": "Mul", "input": ["BatchNormalization_131/mul", "transpose_114"], "attr": {"T": {"type": "DT_FLOAT"}}}, {"name": "BatchNormalization_131/add_1", "op": "Add", "input": ["BatchNormalization_131/mul_1", "BatchNormalization_131/sub"], "attr": {"T": {"type": "DT_FLOAT"}}}, {"name": "Relu_132", "op": "Relu", "input": ["BatchNormalization_131/add_1"], "attr": {"T": {"type": "DT_FLOAT"}}}, {"name": "Pad_38", "op": "Pad", "input": ["Relu_132", "Const_610"], "attr": {"T": {"type": "DT_FLOAT"}, "Tpaddings": {"type": "DT_INT32"}}}, {"name": "transpose_116", "op": "Transpose", "input": ["Pad_38", "transpose_1/perm"], "attr": {"T": {"type": "DT_FLOAT"}, "Tperm": {"type": "DT_INT32"}}}, {"name": "convolution_37", "op": "Conv2D", "input": ["transpose_116", "split_74"], "device": "/device:CPU:0", "attr": {"padding": {"s": "VkFMSUQ="}, "dilations": {"list": {"i": ["1", "1", "1", "1"]}}, "T": {"type": "DT_FLOAT"}, "data_format": {"s": "TkhXQw=="}, "strides": {"list": {"i": ["1", "1", "1", "1"]}}, "use_cudnn_on_gpu": {"b": true}, "explicit_paddings": {"list": {}}}}, {"name": "transpose_117", "op": "Transpose", "input": ["convolution_37", "transpose_2/perm"], "attr": {"Tperm": {"type": "DT_INT32"}, "T": {"type": "DT_FLOAT"}}}, {"name": "Concat_134", "op": "ConcatV2", "input": ["Concat_127", "transpose_117", "Concat_10/axis"], "attr": {"Tidx": {"type": "DT_INT32"}, "T": {"type": "DT_FLOAT"}, "N": {"i": "2"}}}, {"name": "BatchNormalization_135/mul_1", "op": "Mul", "input": ["BatchNormalization_135/mul", "Concat_134"], "attr": {"T": {"type": "DT_FLOAT"}}}, {"name": "BatchNormalization_135/add_1", "op": "Add", "input": ["BatchNormalization_135/mul_1", "BatchNormalization_135/sub"], "attr": {"T": {"type": "DT_FLOAT"}}}, {"name": "Relu_136", "op": "Relu", "input": ["BatchNormalization_135/add_1"], "attr": {"T": {"type": "DT_FLOAT"}}}, {"name": "transpose_119", "op": "Transpose", "input": ["Relu_136", "transpose_1/perm"], "attr": {"T": {"type": "DT_FLOAT"}, "Tperm": {"type": "DT_INT32"}}}, {"name": "convolution_38", "op": "Conv2D", "input": ["transpose_119", "split_76"], "device": "/device:CPU:0", "attr": {"dilations": {"list": {"i": ["1", "1", "1", "1"]}}, "T": {"type": "DT_FLOAT"}, "strides": {"list": {"i": ["1", "1", "1", "1"]}}, "data_format": {"s": "TkhXQw=="}, "use_cudnn_on_gpu": {"b": true}, "explicit_paddings": {"list": {}}, "padding": {"s": "VkFMSUQ="}}}, {"name": "avg_pool_1", "op": "AvgPool", "input": ["convolution_38"], "attr": {"T": {"type": "DT_FLOAT"}, "strides": {"list": {"i": ["1", "2", "2", "1"]}}, "data_format": {"s": "TkhXQw=="}, "ksize": {"list": {"i": ["1", "2", "2", "1"]}}, "padding": {"s": "VkFMSUQ="}}}, {"name": "transpose_122", "op": "Transpose", "input": ["avg_pool_1", "transpose_2/perm"], "attr": {"Tperm": {"type": "DT_INT32"}, "T": {"type": "DT_FLOAT"}}}, {"name": "BatchNormalization_140/mul_1", "op": "Mul", "input": ["BatchNormalization_140/mul", "transpose_122"], "attr": {"T": {"type": "DT_FLOAT"}}}, {"name": "BatchNormalization_140/add_1", "op": "Add", "input": ["BatchNormalization_140/mul_1", "BatchNormalization_140/sub"], "attr": {"T": {"type": "DT_FLOAT"}}}, {"name": "Relu_141", "op": "Relu", "input": ["BatchNormalization_140/add_1"], "attr": {"T": {"type": "DT_FLOAT"}}}, {"name": "transpose_124", "op": "Transpose", "input": ["Relu_141", "transpose_1/perm"], "attr": {"T": {"type": "DT_FLOAT"}, "Tperm": {"type": "DT_INT32"}}}, {"name": "convolution_39", "op": "Conv2D", "input": ["transpose_124", "split_78"], "device": "/device:CPU:0", "attr": {"padding": {"s": "VkFMSUQ="}, "dilations": {"list": {"i": ["1", "1", "1", "1"]}}, "T": {"type": "DT_FLOAT"}, "strides": {"list": {"i": ["1", "1", "1", "1"]}}, "data_format": {"s": "TkhXQw=="}, "explicit_paddings": {"list": {}}, "use_cudnn_on_gpu": {"b": true}}}, {"name": "transpose_125", "op": "Transpose", "input": ["convolution_39", "transpose_2/perm"], "attr": {"Tperm": {"type": "DT_INT32"}, "T": {"type": "DT_FLOAT"}}}, {"name": "BatchNormalization_143/mul_1", "op": "Mul", "input": ["BatchNormalization_143/mul", "transpose_125"], "attr": {"T": {"type": "DT_FLOAT"}}}, {"name": "BatchNormalization_143/add_1", "op": "Add", "input": ["BatchNormalization_143/mul_1", "BatchNormalization_143/sub"], "attr": {"T": {"type": "DT_FLOAT"}}}, {"name": "Relu_144", "op": "Relu", "input": ["BatchNormalization_143/add_1"], "attr": {"T": {"type": "DT_FLOAT"}}}, {"name": "Pad_41", "op": "Pad", "input": ["Relu_144", "Const_610"], "attr": {"T": {"type": "DT_FLOAT"}, "Tpaddings": {"type": "DT_INT32"}}}, {"name": "transpose_127", "op": "Transpose", "input": ["Pad_41", "transpose_1/perm"], "attr": {"T": {"type": "DT_FLOAT"}, "Tperm": {"type": "DT_INT32"}}}, {"name": "convolution_40", "op": "Conv2D", "input": ["transpose_127", "split_80"], "device": "/device:CPU:0", "attr": {"strides": {"list": {"i": ["1", "1", "1", "1"]}}, "data_format": {"s": "TkhXQw=="}, "use_cudnn_on_gpu": {"b": true}, "explicit_paddings": {"list": {}}, "padding": {"s": "VkFMSUQ="}, "dilations": {"list": {"i": ["1", "1", "1", "1"]}}, "T": {"type": "DT_FLOAT"}}}, {"name": "transpose_128", "op": "Transpose", "input": ["convolution_40", "transpose_2/perm"], "attr": {"T": {"type": "DT_FLOAT"}, "Tperm": {"type": "DT_INT32"}}}, {"name": "Concat_146", "op": "ConcatV2", "input": ["transpose_122", "transpose_128", "Concat_10/axis"], "attr": {"Tidx": {"type": "DT_INT32"}, "T": {"type": "DT_FLOAT"}, "N": {"i": "2"}}}, {"name": "BatchNormalization_147/mul_1", "op": "Mul", "input": ["BatchNormalization_147/mul", "Concat_146"], "attr": {"T": {"type": "DT_FLOAT"}}}, {"name": "BatchNormalization_147/add_1", "op": "Add", "input": ["BatchNormalization_147/mul_1", "BatchNormalization_147/sub"], "attr": {"T": {"type": "DT_FLOAT"}}}, {"name": "Relu_148", "op": "Relu", "input": ["BatchNormalization_147/add_1"], "attr": {"T": {"type": "DT_FLOAT"}}}, {"name": "transpose_130", "op": "Transpose", "input": ["Relu_148", "transpose_1/perm"], "attr": {"Tperm": {"type": "DT_INT32"}, "T": {"type": "DT_FLOAT"}}}, {"name": "convolution_41", "op": "Conv2D", "input": ["transpose_130", "split_82"], "device": "/device:CPU:0", "attr": {"padding": {"s": "VkFMSUQ="}, "dilations": {"list": {"i": ["1", "1", "1", "1"]}}, "T": {"type": "DT_FLOAT"}, "data_format": {"s": "TkhXQw=="}, "strides": {"list": {"i": ["1", "1", "1", "1"]}}, "explicit_paddings": {"list": {}}, "use_cudnn_on_gpu": {"b": true}}}, {"name": "transpose_131", "op": "Transpose", "input": ["convolution_41", "transpose_2/perm"], "attr": {"Tperm": {"type": "DT_INT32"}, "T": {"type": "DT_FLOAT"}}}, {"name": "BatchNormalization_150/mul_1", "op": "Mul", "input": ["BatchNormalization_150/mul", "transpose_131"], "attr": {"T": {"type": "DT_FLOAT"}}}, {"name": "BatchNormalization_150/add_1", "op": "Add", "input": ["BatchNormalization_150/mul_1", "BatchNormalization_150/sub"], "attr": {"T": {"type": "DT_FLOAT"}}}, {"name": "Relu_151", "op": "Relu", "input": ["BatchNormalization_150/add_1"], "attr": {"T": {"type": "DT_FLOAT"}}}, {"name": "Pad_43", "op": "Pad", "input": ["Relu_151", "Const_610"], "attr": {"T": {"type": "DT_FLOAT"}, "Tpaddings": {"type": "DT_INT32"}}}, {"name": "transpose_133", "op": "Transpose", "input": ["Pad_43", "transpose_1/perm"], "attr": {"Tperm": {"type": "DT_INT32"}, "T": {"type": "DT_FLOAT"}}}, {"name": "convolution_42", "op": "Conv2D", "input": ["transpose_133", "split_84"], "device": "/device:CPU:0", "attr": {"dilations": {"list": {"i": ["1", "1", "1", "1"]}}, "T": {"type": "DT_FLOAT"}, "data_format": {"s": "TkhXQw=="}, "strides": {"list": {"i": ["1", "1", "1", "1"]}}, "use_cudnn_on_gpu": {"b": true}, "explicit_paddings": {"list": {}}, "padding": {"s": "VkFMSUQ="}}}, {"name": "transpose_134", "op": "Transpose", "input": ["convolution_42", "transpose_2/perm"], "attr": {"Tperm": {"type": "DT_INT32"}, "T": {"type": "DT_FLOAT"}}}, {"name": "Concat_153", "op": "ConcatV2", "input": ["Concat_146", "transpose_134", "Concat_10/axis"], "attr": {"N": {"i": "2"}, "Tidx": {"type": "DT_INT32"}, "T": {"type": "DT_FLOAT"}}}, {"name": "BatchNormalization_154/mul_1", "op": "Mul", "input": ["BatchNormalization_154/mul", "Concat_153"], "attr": {"T": {"type": "DT_FLOAT"}}}, {"name": "BatchNormalization_154/add_1", "op": "Add", "input": ["BatchNormalization_154/mul_1", "BatchNormalization_154/sub"], "attr": {"T": {"type": "DT_FLOAT"}}}, {"name": "Relu_155", "op": "Relu", "input": ["BatchNormalization_154/add_1"], "attr": {"T": {"type": "DT_FLOAT"}}}, {"name": "transpose_136", "op": "Transpose", "input": ["Relu_155", "transpose_1/perm"], "attr": {"Tperm": {"type": "DT_INT32"}, "T": {"type": "DT_FLOAT"}}}, {"name": "convolution_43", "op": "Conv2D", "input": ["transpose_136", "split_86"], "device": "/device:CPU:0", "attr": {"dilations": {"list": {"i": ["1", "1", "1", "1"]}}, "T": {"type": "DT_FLOAT"}, "data_format": {"s": "TkhXQw=="}, "strides": {"list": {"i": ["1", "1", "1", "1"]}}, "use_cudnn_on_gpu": {"b": true}, "explicit_paddings": {"list": {}}, "padding": {"s": "VkFMSUQ="}}}, {"name": "transpose_137", "op": "Transpose", "input": ["convolution_43", "transpose_2/perm"], "attr": {"Tperm": {"type": "DT_INT32"}, "T": {"type": "DT_FLOAT"}}}, {"name": "BatchNormalization_157/mul_1", "op": "Mul", "input": ["BatchNormalization_157/mul", "transpose_137"], "attr": {"T": {"type": "DT_FLOAT"}}}, {"name": "BatchNormalization_157/add_1", "op": "Add", "input": ["BatchNormalization_157/mul_1", "BatchNormalization_157/sub"], "attr": {"T": {"type": "DT_FLOAT"}}}, {"name": "Relu_158", "op": "Relu", "input": ["BatchNormalization_157/add_1"], "attr": {"T": {"type": "DT_FLOAT"}}}, {"name": "Pad_45", "op": "Pad", "input": ["Relu_158", "Const_610"], "attr": {"T": {"type": "DT_FLOAT"}, "Tpaddings": {"type": "DT_INT32"}}}, {"name": "transpose_139", "op": "Transpose", "input": ["Pad_45", "transpose_1/perm"], "attr": {"T": {"type": "DT_FLOAT"}, "Tperm": {"type": "DT_INT32"}}}, {"name": "convolution_44", "op": "Conv2D", "input": ["transpose_139", "split_88"], "device": "/device:CPU:0", "attr": {"dilations": {"list": {"i": ["1", "1", "1", "1"]}}, "T": {"type": "DT_FLOAT"}, "strides": {"list": {"i": ["1", "1", "1", "1"]}}, "data_format": {"s": "TkhXQw=="}, "use_cudnn_on_gpu": {"b": true}, "explicit_paddings": {"list": {}}, "padding": {"s": "VkFMSUQ="}}}, {"name": "transpose_140", "op": "Transpose", "input": ["convolution_44", "transpose_2/perm"], "attr": {"T": {"type": "DT_FLOAT"}, "Tperm": {"type": "DT_INT32"}}}, {"name": "Concat_160", "op": "ConcatV2", "input": ["Concat_153", "transpose_140", "Concat_10/axis"], "attr": {"T": {"type": "DT_FLOAT"}, "N": {"i": "2"}, "Tidx": {"type": "DT_INT32"}}}, {"name": "BatchNormalization_161/mul_1", "op": "Mul", "input": ["BatchNormalization_161/mul", "Concat_160"], "attr": {"T": {"type": "DT_FLOAT"}}}, {"name": "BatchNormalization_161/add_1", "op": "Add", "input": ["BatchNormalization_161/mul_1", "BatchNormalization_161/sub"], "attr": {"T": {"type": "DT_FLOAT"}}}, {"name": "Relu_162", "op": "Relu", "input": ["BatchNormalization_161/add_1"], "attr": {"T": {"type": "DT_FLOAT"}}}, {"name": "transpose_142", "op": "Transpose", "input": ["Relu_162", "transpose_1/perm"], "attr": {"T": {"type": "DT_FLOAT"}, "Tperm": {"type": "DT_INT32"}}}, {"name": "convolution_45", "op": "Conv2D", "input": ["transpose_142", "split_90"], "device": "/device:CPU:0", "attr": {"dilations": {"list": {"i": ["1", "1", "1", "1"]}}, "T": {"type": "DT_FLOAT"}, "data_format": {"s": "TkhXQw=="}, "strides": {"list": {"i": ["1", "1", "1", "1"]}}, "explicit_paddings": {"list": {}}, "use_cudnn_on_gpu": {"b": true}, "padding": {"s": "VkFMSUQ="}}}, {"name": "transpose_143", "op": "Transpose", "input": ["convolution_45", "transpose_2/perm"], "attr": {"Tperm": {"type": "DT_INT32"}, "T": {"type": "DT_FLOAT"}}}, {"name": "BatchNormalization_164/mul_1", "op": "Mul", "input": ["BatchNormalization_164/mul", "transpose_143"], "attr": {"T": {"type": "DT_FLOAT"}}}, {"name": "BatchNormalization_164/add_1", "op": "Add", "input": ["BatchNormalization_164/mul_1", "BatchNormalization_164/sub"], "attr": {"T": {"type": "DT_FLOAT"}}}, {"name": "Relu_165", "op": "Relu", "input": ["BatchNormalization_164/add_1"], "attr": {"T": {"type": "DT_FLOAT"}}}, {"name": "Pad_47", "op": "Pad", "input": ["Relu_165", "Const_610"], "attr": {"T": {"type": "DT_FLOAT"}, "Tpaddings": {"type": "DT_INT32"}}}, {"name": "transpose_145", "op": "Transpose", "input": ["Pad_47", "transpose_1/perm"], "attr": {"Tperm": {"type": "DT_INT32"}, "T": {"type": "DT_FLOAT"}}}, {"name": "convolution_46", "op": "Conv2D", "input": ["transpose_145", "split_92"], "device": "/device:CPU:0", "attr": {"T": {"type": "DT_FLOAT"}, "data_format": {"s": "TkhXQw=="}, "strides": {"list": {"i": ["1", "1", "1", "1"]}}, "use_cudnn_on_gpu": {"b": true}, "explicit_paddings": {"list": {}}, "padding": {"s": "VkFMSUQ="}, "dilations": {"list": {"i": ["1", "1", "1", "1"]}}}}, {"name": "transpose_146", "op": "Transpose", "input": ["convolution_46", "transpose_2/perm"], "attr": {"T": {"type": "DT_FLOAT"}, "Tperm": {"type": "DT_INT32"}}}, {"name": "Concat_167", "op": "ConcatV2", "input": ["Concat_160", "transpose_146", "Concat_10/axis"], "attr": {"T": {"type": "DT_FLOAT"}, "N": {"i": "2"}, "Tidx": {"type": "DT_INT32"}}}, {"name": "BatchNormalization_168/mul_1", "op": "Mul", "input": ["BatchNormalization_168/mul", "Concat_167"], "attr": {"T": {"type": "DT_FLOAT"}}}, {"name": "BatchNormalization_168/add_1", "op": "Add", "input": ["BatchNormalization_168/mul_1", "BatchNormalization_168/sub"], "attr": {"T": {"type": "DT_FLOAT"}}}, {"name": "Relu_169", "op": "Relu", "input": ["BatchNormalization_168/add_1"], "attr": {"T": {"type": "DT_FLOAT"}}}, {"name": "transpose_148", "op": "Transpose", "input": ["Relu_169", "transpose_1/perm"], "attr": {"Tperm": {"type": "DT_INT32"}, "T": {"type": "DT_FLOAT"}}}, {"name": "convolution_47", "op": "Conv2D", "input": ["transpose_148", "split_94"], "device": "/device:CPU:0", "attr": {"dilations": {"list": {"i": ["1", "1", "1", "1"]}}, "T": {"type": "DT_FLOAT"}, "strides": {"list": {"i": ["1", "1", "1", "1"]}}, "data_format": {"s": "TkhXQw=="}, "use_cudnn_on_gpu": {"b": true}, "explicit_paddings": {"list": {}}, "padding": {"s": "VkFMSUQ="}}}, {"name": "transpose_149", "op": "Transpose", "input": ["convolution_47", "transpose_2/perm"], "attr": {"T": {"type": "DT_FLOAT"}, "Tperm": {"type": "DT_INT32"}}}, {"name": "BatchNormalization_171/mul_1", "op": "Mul", "input": ["BatchNormalization_171/mul", "transpose_149"], "attr": {"T": {"type": "DT_FLOAT"}}}, {"name": "BatchNormalization_171/add_1", "op": "Add", "input": ["BatchNormalization_171/mul_1", "BatchNormalization_171/sub"], "attr": {"T": {"type": "DT_FLOAT"}}}, {"name": "Relu_172", "op": "Relu", "input": ["BatchNormalization_171/add_1"], "attr": {"T": {"type": "DT_FLOAT"}}}, {"name": "Pad_50", "op": "Pad", "input": ["Relu_172", "Const_610"], "attr": {"T": {"type": "DT_FLOAT"}, "Tpaddings": {"type": "DT_INT32"}}}, {"name": "transpose_151", "op": "Transpose", "input": ["Pad_50", "transpose_1/perm"], "attr": {"T": {"type": "DT_FLOAT"}, "Tperm": {"type": "DT_INT32"}}}, {"name": "convolution_48", "op": "Conv2D", "input": ["transpose_151", "split_96"], "device": "/device:CPU:0", "attr": {"padding": {"s": "VkFMSUQ="}, "dilations": {"list": {"i": ["1", "1", "1", "1"]}}, "T": {"type": "DT_FLOAT"}, "strides": {"list": {"i": ["1", "1", "1", "1"]}}, "data_format": {"s": "TkhXQw=="}, "use_cudnn_on_gpu": {"b": true}, "explicit_paddings": {"list": {}}}}, {"name": "transpose_152", "op": "Transpose", "input": ["convolution_48", "transpose_2/perm"], "attr": {"Tperm": {"type": "DT_INT32"}, "T": {"type": "DT_FLOAT"}}}, {"name": "Concat_174", "op": "ConcatV2", "input": ["Concat_167", "transpose_152", "Concat_10/axis"], "attr": {"Tidx": {"type": "DT_INT32"}, "T": {"type": "DT_FLOAT"}, "N": {"i": "2"}}}, {"name": "BatchNormalization_175/mul_1", "op": "Mul", "input": ["BatchNormalization_175/mul", "Concat_174"], "attr": {"T": {"type": "DT_FLOAT"}}}, {"name": "BatchNormalization_175/add_1", "op": "Add", "input": ["BatchNormalization_175/mul_1", "BatchNormalization_175/sub"], "attr": {"T": {"type": "DT_FLOAT"}}}, {"name": "Relu_176", "op": "Relu", "input": ["BatchNormalization_175/add_1"], "attr": {"T": {"type": "DT_FLOAT"}}}, {"name": "transpose_154", "op": "Transpose", "input": ["Relu_176", "transpose_1/perm"], "attr": {"T": {"type": "DT_FLOAT"}, "Tperm": {"type": "DT_INT32"}}}, {"name": "convolution_49", "op": "Conv2D", "input": ["transpose_154", "split_98"], "device": "/device:CPU:0", "attr": {"dilations": {"list": {"i": ["1", "1", "1", "1"]}}, "T": {"type": "DT_FLOAT"}, "data_format": {"s": "TkhXQw=="}, "strides": {"list": {"i": ["1", "1", "1", "1"]}}, "use_cudnn_on_gpu": {"b": true}, "explicit_paddings": {"list": {}}, "padding": {"s": "VkFMSUQ="}}}, {"name": "transpose_155", "op": "Transpose", "input": ["convolution_49", "transpose_2/perm"], "attr": {"T": {"type": "DT_FLOAT"}, "Tperm": {"type": "DT_INT32"}}}, {"name": "BatchNormalization_178/mul_1", "op": "Mul", "input": ["BatchNormalization_178/mul", "transpose_155"], "attr": {"T": {"type": "DT_FLOAT"}}}, {"name": "BatchNormalization_178/add_1", "op": "Add", "input": ["BatchNormalization_178/mul_1", "BatchNormalization_178/sub"], "attr": {"T": {"type": "DT_FLOAT"}}}, {"name": "Relu_179", "op": "Relu", "input": ["BatchNormalization_178/add_1"], "attr": {"T": {"type": "DT_FLOAT"}}}, {"name": "Pad_52", "op": "Pad", "input": ["Relu_179", "Const_610"], "attr": {"Tpaddings": {"type": "DT_INT32"}, "T": {"type": "DT_FLOAT"}}}, {"name": "transpose_157", "op": "Transpose", "input": ["Pad_52", "transpose_1/perm"], "attr": {"T": {"type": "DT_FLOAT"}, "Tperm": {"type": "DT_INT32"}}}, {"name": "convolution_50", "op": "Conv2D", "input": ["transpose_157", "split_100"], "device": "/device:CPU:0", "attr": {"dilations": {"list": {"i": ["1", "1", "1", "1"]}}, "T": {"type": "DT_FLOAT"}, "strides": {"list": {"i": ["1", "1", "1", "1"]}}, "data_format": {"s": "TkhXQw=="}, "explicit_paddings": {"list": {}}, "use_cudnn_on_gpu": {"b": true}, "padding": {"s": "VkFMSUQ="}}}, {"name": "transpose_158", "op": "Transpose", "input": ["convolution_50", "transpose_2/perm"], "attr": {"Tperm": {"type": "DT_INT32"}, "T": {"type": "DT_FLOAT"}}}, {"name": "Concat_181", "op": "ConcatV2", "input": ["Concat_174", "transpose_158", "Concat_10/axis"], "attr": {"T": {"type": "DT_FLOAT"}, "N": {"i": "2"}, "Tidx": {"type": "DT_INT32"}}}, {"name": "BatchNormalization_182/mul_1", "op": "Mul", "input": ["BatchNormalization_182/mul", "Concat_181"], "attr": {"T": {"type": "DT_FLOAT"}}}, {"name": "BatchNormalization_182/add_1", "op": "Add", "input": ["BatchNormalization_182/mul_1", "BatchNormalization_182/sub"], "attr": {"T": {"type": "DT_FLOAT"}}}, {"name": "Relu_183", "op": "Relu", "input": ["BatchNormalization_182/add_1"], "attr": {"T": {"type": "DT_FLOAT"}}}, {"name": "transpose_160", "op": "Transpose", "input": ["Relu_183", "transpose_1/perm"], "attr": {"Tperm": {"type": "DT_INT32"}, "T": {"type": "DT_FLOAT"}}}, {"name": "convolution_51", "op": "Conv2D", "input": ["transpose_160", "split_102"], "device": "/device:CPU:0", "attr": {"padding": {"s": "VkFMSUQ="}, "dilations": {"list": {"i": ["1", "1", "1", "1"]}}, "T": {"type": "DT_FLOAT"}, "da…
": "DT_FLOAT"}}}, {"name": "Pad_107", "op": "Pad", "input": ["Relu_373", "Const_610"], "attr": {"T": {"type": "DT_FLOAT"}, "Tpaddings": {"type": "DT_INT32"}}}, {"name": "transpose_324", "op": "Transpose", "input": ["Pad_107", "transpose_1/perm"], "attr": {"T": {"type": "DT_FLOAT"}, "Tperm": {"type": "DT_INT32"}}}, {"name": "convolution_105", "op": "Conv2D", "input": ["transpose_324", "split_210"], "device": "/device:CPU:0", "attr": {"dilations": {"list": {"i": ["1", "1", "1", "1"]}}, "T": {"type": "DT_FLOAT"}, "data_format": {"s": "TkhXQw=="}, "strides": {"list": {"i": ["1", "1", "1", "1"]}}, "explicit_paddings": {"list": {}}, "use_cudnn_on_gpu": {"b": true}, "padding": {"s": "VkFMSUQ="}}}, {"name": "transpose_325", "op": "Transpose", "input": ["convolution_105", "transpose_2/perm"], "attr": {"T": {"type": "DT_FLOAT"}, "Tperm": {"type": "DT_INT32"}}}, {"name": "Concat_375", "op": "ConcatV2", "input": ["Concat_368", "transpose_325", "Concat_10/axis"], "attr": {"T": {"type": "DT_FLOAT"}, "N": {"i": "2"}, "Tidx": {"type": "DT_INT32"}}}, {"name": "BatchNormalization_376/mul_1", "op": "Mul", "input": ["BatchNormalization_376/mul", "Concat_375"], "attr": {"T": {"type": "DT_FLOAT"}}}, {"name": "BatchNormalization_376/add_1", "op": "Add", "input": ["BatchNormalization_376/mul_1", "BatchNormalization_376/sub"], "attr": {"T": {"type": "DT_FLOAT"}}}, {"name": "Relu_377", "op": "Relu", "input": ["BatchNormalization_376/add_1"], "attr": {"T": {"type": "DT_FLOAT"}}}, {"name": "transpose_327", "op": "Transpose", "input": ["Relu_377", "transpose_1/perm"], "attr": {"Tperm": {"type": "DT_INT32"}, "T": {"type": "DT_FLOAT"}}}, {"name": "convolution_106", "op": "Conv2D", "input": ["transpose_327", "split_212"], "device": "/device:CPU:0", "attr": {"dilations": {"list": {"i": ["1", "1", "1", "1"]}}, "T": {"type": "DT_FLOAT"}, "strides": {"list": {"i": ["1", "1", "1", "1"]}}, "data_format": {"s": "TkhXQw=="}, "use_cudnn_on_gpu": {"b": true}, "explicit_paddings": {"list": {}}, "padding": {"s": "VkFMSUQ="}}}, {"name": "transpose_328", "op": "Transpose", "input": ["convolution_106", "transpose_2/perm"], "attr": {"Tperm": {"type": "DT_INT32"}, "T": {"type": "DT_FLOAT"}}}, {"name": "BatchNormalization_379/mul_1", "op": "Mul", "input": ["BatchNormalization_379/mul", "transpose_328"], "attr": {"T": {"type": "DT_FLOAT"}}}, {"name": "BatchNormalization_379/add_1", "op": "Add", "input": ["BatchNormalization_379/mul_1", "BatchNormalization_379/sub"], "attr": {"T": {"type": "DT_FLOAT"}}}, {"name": "Relu_380", "op": "Relu", "input": ["BatchNormalization_379/add_1"], "attr": {"T": {"type": "DT_FLOAT"}}}, {"name": "Pad_109", "op": "Pad", "input": ["Relu_380", "Const_610"], "attr": {"T": {"type": "DT_FLOAT"}, "Tpaddings": {"type": "DT_INT32"}}}, {"name": "transpose_330", "op": "Transpose", "input": ["Pad_109", "transpose_1/perm"], "attr": {"T": {"type": "DT_FLOAT"}, "Tperm": {"type": "DT_INT32"}}}, {"name": "convolution_107", "op": "Conv2D", "input": ["transpose_330", "split_214"], "device": "/device:CPU:0", "attr": {"dilations": {"list": {"i": ["1", "1", "1", "1"]}}, "T": {"type": "DT_FLOAT"}, "strides": {"list": {"i": ["1", "1", "1", "1"]}}, "data_format": {"s": "TkhXQw=="}, "explicit_paddings": {"list": {}}, "use_cudnn_on_gpu": {"b": true}, "padding": {"s": "VkFMSUQ="}}}, {"name": "transpose_331", "op": "Transpose", "input": ["convolution_107", "transpose_2/perm"], "attr": {"Tperm": {"type": "DT_INT32"}, "T": {"type": "DT_FLOAT"}}}, {"name": "Concat_382", "op": "ConcatV2", "input": ["Concat_375", "transpose_331", "Concat_10/axis"], "attr": {"T": {"type": "DT_FLOAT"}, "N": {"i": "2"}, "Tidx": {"type": "DT_INT32"}}}, {"name": "BatchNormalization_383/mul_1", "op": "Mul", "input": ["BatchNormalization_383/mul", "Concat_382"], "attr": {"T": {"type": "DT_FLOAT"}}}, {"name": "BatchNormalization_383/add_1", "op": "Add", "input": ["BatchNormalization_383/mul_1", "BatchNormalization_383/sub"], "attr": {"T": {"type": "DT_FLOAT"}}}, {"name": "Relu_384", "op": "Relu", "input": ["BatchNormalization_383/add_1"], "attr": {"T": {"type": "DT_FLOAT"}}}, {"name": "transpose_333", "op": "Transpose", "input": ["Relu_384", "transpose_1/perm"], "attr": {"T": {"type": "DT_FLOAT"}, "Tperm": {"type": "DT_INT32"}}}, {"name": "convolution_108", "op": "Conv2D", "input": ["transpose_333", "split_216"], "device": "/device:CPU:0", "attr": {"strides": {"list": {"i": ["1", "1", "1", "1"]}}, "data_format": {"s": "TkhXQw=="}, "explicit_paddings": {"list": {}}, "use_cudnn_on_gpu": {"b": true}, "padding": {"s": "VkFMSUQ="}, "dilations": {"list": {"i": ["1", "1", "1", "1"]}}, "T": {"type": "DT_FLOAT"}}}, {"name": "transpose_334", "op": "Transpose", "input": ["convolution_108", "transpose_2/perm"], "attr": {"Tperm": {"type": "DT_INT32"}, "T": {"type": "DT_FLOAT"}}}, {"name": "BatchNormalization_386/mul_1", "op": "Mul", "input": ["BatchNormalization_386/mul", "transpose_334"], "attr": {"T": {"type": "DT_FLOAT"}}}, {"name": "BatchNormalization_386/add_1", "op": "Add", "input": ["BatchNormalization_386/mul_1", "BatchNormalization_386/sub"], "attr": {"T": {"type": "DT_FLOAT"}}}, {"name": "Relu_387", "op": "Relu", "input": ["BatchNormalization_386/add_1"], "attr": {"T": {"type": "DT_FLOAT"}}}, {"name": "Pad_111", "op": "Pad", "input": ["Relu_387", "Const_610"], "attr": {"Tpaddings": {"type": "DT_INT32"}, "T": {"type": "DT_FLOAT"}}}, {"name": "transpose_336", "op": "Transpose", "input": ["Pad_111", "transpose_1/perm"], "attr": {"T": {"type": "DT_FLOAT"}, "Tperm": {"type": "DT_INT32"}}}, {"name": "convolution_109", "op": "Conv2D", "input": ["transpose_336", "split_218"], "device": "/device:CPU:0", "attr": {"padding": {"s": "VkFMSUQ="}, "dilations": {"list": {"i": ["1", "1", "1", "1"]}}, "T": {"type": "DT_FLOAT"}, "data_format": {"s": "TkhXQw=="}, "strides": {"list": {"i": ["1", "1", "1", "1"]}}, "explicit_paddings": {"list": {}}, "use_cudnn_on_gpu": {"b": true}}}, {"name": "transpose_337", "op": "Transpose", "input": ["convolution_109", "transpose_2/perm"], "attr": {"T": {"type": "DT_FLOAT"}, "Tperm": {"type": "DT_INT32"}}}, {"name": "Concat_389", "op": "ConcatV2", "input": ["Concat_382", "transpose_337", "Concat_10/axis"], "attr": {"T": {"type": "DT_FLOAT"}, "N": {"i": "2"}, "Tidx": {"type": "DT_INT32"}}}, {"name": "BatchNormalization_390/mul_1", "op": "Mul", "input": ["BatchNormalization_390/mul", "Concat_389"], "attr": {"T": {"type": "DT_FLOAT"}}}, {"name": "BatchNormalization_390/add_1", "op": "Add", "input": ["BatchNormalization_390/mul_1", "BatchNormalization_390/sub"], "attr": {"T": {"type": "DT_FLOAT"}}}, {"name": "Relu_391", "op": "Relu", "input": ["BatchNormalization_390/add_1"], "attr": {"T": {"type": "DT_FLOAT"}}}, {"name": "transpose_339", "op": "Transpose", "input": ["Relu_391", "transpose_1/perm"], "attr": {"T": {"type": "DT_FLOAT"}, "Tperm": {"type": "DT_INT32"}}}, {"name": "convolution_110", "op": "Conv2D", "input": ["transpose_339", "split_220"], "device": "/device:CPU:0", "attr": {"dilations": {"list": {"i": ["1", "1", "1", "1"]}}, "T": {"type": "DT_FLOAT"}, "strides": {"list": {"i": ["1", "1", "1", "1"]}}, "data_format": {"s": "TkhXQw=="}, "use_cudnn_on_gpu": {"b": true}, "explicit_paddings": {"list": {}}, "padding": {"s": "VkFMSUQ="}}}, {"name": "transpose_340", "op": "Transpose", "input": ["convolution_110", "transpose_2/perm"], "attr": {"Tperm": {"type": "DT_INT32"}, "T": {"type": "DT_FLOAT"}}}, {"name": "BatchNormalization_393/mul_1", "op": "Mul", "input": ["BatchNormalization_393/mul", "transpose_340"], "attr": {"T": {"type": "DT_FLOAT"}}}, {"name": "BatchNormalization_393/add_1", "op": "Add", "input": ["BatchNormalization_393/mul_1", "BatchNormalization_393/sub"], "attr": {"T": {"type": "DT_FLOAT"}}}, {"name": "Relu_394", "op": "Relu", "input": ["BatchNormalization_393/add_1"], "attr": {"T": {"type": "DT_FLOAT"}}}, {"name": "Pad_113", "op": "Pad", "input": ["Relu_394", "Const_610"], "attr": {"T": {"type": "DT_FLOAT"}, "Tpaddings": {"type": "DT_INT32"}}}, {"name": "transpose_342", "op": "Transpose", "input": ["Pad_113", "transpose_1/perm"], "attr": {"Tperm": {"type": "DT_INT32"}, "T": {"type": "DT_FLOAT"}}}, {"name": "convolution_111", "op": "Conv2D", "input": ["transpose_342", "split_222"], "device": "/device:CPU:0", "attr": {"data_format": {"s": "TkhXQw=="}, "strides": {"list": {"i": ["1", "1", "1", "1"]}}, "explicit_paddings": {"list": {}}, "use_cudnn_on_gpu": {"b": true}, "padding": {"s": "VkFMSUQ="}, "dilations": {"list": {"i": ["1", "1", "1", "1"]}}, "T": {"type": "DT_FLOAT"}}}, {"name": "transpose_343", "op": "Transpose", "input": ["convolution_111", "transpose_2/perm"], "attr": {"T": {"type": "DT_FLOAT"}, "Tperm": {"type": "DT_INT32"}}}, {"name": "Concat_396", "op": "ConcatV2", "input": ["Concat_389", "transpose_343", "Concat_10/axis"], "attr": {"T": {"type": "DT_FLOAT"}, "N": {"i": "2"}, "Tidx": {"type": "DT_INT32"}}}, {"name": "BatchNormalization_397/mul_1", "op": "Mul", "input": ["BatchNormalization_397/mul", "Concat_396"], "attr": {"T": {"type": "DT_FLOAT"}}}, {"name": "BatchNormalization_397/add_1", "op": "Add", "input": ["BatchNormalization_397/mul_1", "BatchNormalization_397/sub"], "attr": {"T": {"type": "DT_FLOAT"}}}, {"name": "Relu_398", "op": "Relu", "input": ["BatchNormalization_397/add_1"], "attr": {"T": {"type": "DT_FLOAT"}}}, {"name": "transpose_345", "op": "Transpose", "input": ["Relu_398", "transpose_1/perm"], "attr": {"T": {"type": "DT_FLOAT"}, "Tperm": {"type": "DT_INT32"}}}, {"name": "convolution_112", "op": "Conv2D", "input": ["transpose_345", "split_224"], "device": "/device:CPU:0", "attr": {"dilations": {"list": {"i": ["1", "1", "1", "1"]}}, "T": {"type": "DT_FLOAT"}, "strides": {"list": {"i": ["1", "1", "1", "1"]}}, "data_format": {"s": "TkhXQw=="}, "use_cudnn_on_gpu": {"b": true}, "explicit_paddings": {"list": {}}, "padding": {"s": "VkFMSUQ="}}}, {"name": "transpose_346", "op": "Transpose", "input": ["convolution_112", "transpose_2/perm"], "attr": {"T": {"type": "DT_FLOAT"}, "Tperm": {"type": "DT_INT32"}}}, {"name": "BatchNormalization_400/mul_1", "op": "Mul", "input": ["BatchNormalization_400/mul", "transpose_346"], "attr": {"T": {"type": "DT_FLOAT"}}}, {"name": "BatchNormalization_400/add_1", "op": "Add", "input": ["BatchNormalization_400/mul_1", "BatchNormalization_400/sub"], "attr": {"T": {"type": "DT_FLOAT"}}}, {"name": "Relu_401", "op": "Relu", "input": ["BatchNormalization_400/add_1"], "attr": {"T": {"type": "DT_FLOAT"}}}, {"name": "Pad_115", "op": "Pad", "input": ["Relu_401", "Const_610"], "attr": {"T": {"type": "DT_FLOAT"}, "Tpaddings": {"type": "DT_INT32"}}}, {"name": "transpose_348", "op": "Transpose", "input": ["Pad_115", "transpose_1/perm"], "attr": {"Tperm": {"type": "DT_INT32"}, "T": {"type": "DT_FLOAT"}}}, {"name": "convolution_113", "op": "Conv2D", "input": ["transpose_348", "split_226"], "device": "/device:CPU:0", "attr": {"padding": {"s": "VkFMSUQ="}, "dilations": {"list": {"i": ["1", "1", "1", "1"]}}, "T": {"type": "DT_FLOAT"}, "strides": {"list": {"i": ["1", "1", "1", "1"]}}, "data_format": {"s": "TkhXQw=="}, "use_cudnn_on_gpu": {"b": true}, "explicit_paddings": {"list": {}}}}, {"name": "transpose_349", "op": "Transpose", "input": ["convolution_113", "transpose_2/perm"], "attr": {"Tperm": {"type": "DT_INT32"}, "T": {"type": "DT_FLOAT"}}}, {"name": "Concat_403", "op": "ConcatV2", "input": ["Concat_396", "transpose_349", "Concat_10/axis"], "attr": {"T": {"type": "DT_FLOAT"}, "N": {"i": "2"}, "Tidx": {"type": "DT_INT32"}}}, {"name": "BatchNormalization_404/mul_1", "op": "Mul", "input": ["BatchNormalization_404/mul", "Concat_403"], "attr": {"T": {"type": "DT_FLOAT"}}}, {"name": "BatchNormalization_404/add_1", "op": "Add", "input": ["BatchNormalization_404/mul_1", "BatchNormalization_404/sub"], "attr": {"T": {"type": "DT_FLOAT"}}}, {"name": "Relu_405", "op": "Relu", "input": ["BatchNormalization_404/add_1"], "attr": {"T": {"type": "DT_FLOAT"}}}, {"name": "transpose_351", "op": "Transpose", "input": ["Relu_405", "transpose_1/perm"], "attr": {"Tperm": {"type": "DT_INT32"}, "T": {"type": "DT_FLOAT"}}}, {"name": "convolution_114", "op": "Conv2D", "input": ["transpose_351", "split_228"], "device": "/device:CPU:0", "attr": {"padding": {"s": "VkFMSUQ="}, "dilations": {"list": {"i": ["1", "1", "1", "1"]}}, "T": {"type": "DT_FLOAT"}, "strides": {"list": {"i": ["1", "1", "1", "1"]}}, "data_format": {"s": "TkhXQw=="}, "use_cudnn_on_gpu": {"b": true}, "explicit_paddings": {"list": {}}}}, {"name": "transpose_352", "op": "Transpose", "input": ["convolution_114", "transpose_2/perm"], "attr": {"Tperm": {"type": "DT_INT32"}, "T": {"type": "DT_FLOAT"}}}, {"name": "BatchNormalization_407/mul_1", "op": "Mul", "input": ["BatchNormalization_407/mul", "transpose_352"], "attr": {"T": {"type": "DT_FLOAT"}}}, {"name": "BatchNormalization_407/add_1", "op": "Add", "input": ["BatchNormalization_407/mul_1", "BatchNormalization_407/sub"], "attr": {"T": {"type": "DT_FLOAT"}}}, {"name": "Relu_408", "op": "Relu", "input": ["BatchNormalization_407/add_1"], "attr": {"T": {"type": "DT_FLOAT"}}}, {"name": "Pad_117", "op": "Pad", "input": ["Relu_408", "Const_610"], "attr": {"T": {"type": "DT_FLOAT"}, "Tpaddings": {"type": "DT_INT32"}}}, {"name": "transpose_354", "op": "Transpose", "input": ["Pad_117", "transpose_1/perm"], "attr": {"Tperm": {"type": "DT_INT32"}, "T": {"type": "DT_FLOAT"}}}, {"name": "convolution_115", "op": "Conv2D", "input": ["transpose_354", "split_230"], "device": "/device:CPU:0", "attr": {"padding": {"s": "VkFMSUQ="}, "dilations": {"list": {"i": ["1", "1", "1", "1"]}}, "T": {"type": "DT_FLOAT"}, "data_format": {"s": "TkhXQw=="}, "strides": {"list": {"i": ["1", "1", "1", "1"]}}, "use_cudnn_on_gpu": {"b": true}, "explicit_paddings": {"list": {}}}}, {"name": "transpose_355", "op": "Transpose", "input": ["convolution_115", "transpose_2/perm"], "attr": {"Tperm": {"type": "DT_INT32"}, "T": {"type": "DT_FLOAT"}}}, {"name": "Concat_410", "op": "ConcatV2", "input": ["Concat_403", "transpose_355", "Concat_10/axis"], "attr": {"Tidx": {"type": "DT_INT32"}, "T": {"type": "DT_FLOAT"}, "N": {"i": "2"}}}, {"name": "BatchNormalization_411/mul_1", "op": "Mul", "input": ["BatchNormalization_411/mul", "Concat_410"], "attr": {"T": {"type": "DT_FLOAT"}}}, {"name": "BatchNormalization_411/add_1", "op": "Add", "input": ["BatchNormalization_411/mul_1", "BatchNormalization_411/sub"], "attr": {"T": {"type": "DT_FLOAT"}}}, {"name": "Relu_412", "op": "Relu", "input": ["BatchNormalization_411/add_1"], "attr": {"T": {"type": "DT_FLOAT"}}}, {"name": "transpose_357", "op": "Transpose", "input": ["Relu_412", "transpose_1/perm"], "attr": {"Tperm": {"type": "DT_INT32"}, "T": {"type": "DT_FLOAT"}}}, {"name": "convolution_116", "op": "Conv2D", "input": ["transpose_357", "split_232"], "device": "/device:CPU:0", "attr": {"dilations": {"list": {"i": ["1", "1", "1", "1"]}}, "T": {"type": "DT_FLOAT"}, "strides": {"list": {"i": ["1", "1", "1", "1"]}}, "data_format": {"s": "TkhXQw=="}, "explicit_paddings": {"list": {}}, "use_cudnn_on_gpu": {"b": true}, "padding": {"s": "VkFMSUQ="}}}, {"name": "transpose_358", "op": "Transpose", "input": ["convolution_116", "transpose_2/perm"], "attr": {"Tperm": {"type": "DT_INT32"}, "T": {"type": "DT_FLOAT"}}}, {"name": "BatchNormalization_414/mul_1", "op": "Mul", "input": ["BatchNormalization_414/mul", "transpose_358"], "attr": {"T": {"type": "DT_FLOAT"}}}, {"name": "BatchNormalization_414/add_1", "op": "Add", "input": ["BatchNormalization_414/mul_1", "BatchNormalization_414/sub"], "attr": {"T": {"type": "DT_FLOAT"}}}, {"name": "Relu_415", "op": "Relu", "input": ["BatchNormalization_414/add_1"], "attr": {"T": {"type": "DT_FLOAT"}}}, {"name": "Pad_119", "op": "Pad", "input": ["Relu_415", "Const_610"], "attr": {"T": {"type": "DT_FLOAT"}, "Tpaddings": {"type": "DT_INT32"}}}, {"name": "transpose_360", "op": "Transpose", "input": ["Pad_119", "transpose_1/perm"], "attr": {"T": {"type": "DT_FLOAT"}, "Tperm": {"type": "DT_INT32"}}}, {"name": "convolution_117", "op": "Conv2D", "input": ["transpose_360", "split_234"], "device": "/device:CPU:0", "attr": {"padding": {"s": "VkFMSUQ="}, "dilations": {"list": {"i": ["1", "1", "1", "1"]}}, "T": {"type": "DT_FLOAT"}, "data_format": {"s": "TkhXQw=="}, "strides": {"list": {"i": ["1", "1", "1", "1"]}}, "use_cudnn_on_gpu": {"b": true}, "explicit_paddings": {"list": {}}}}, {"name": "transpose_361", "op": "Transpose", "input": ["convolution_117", "transpose_2/perm"], "attr": {"Tperm": {"type": "DT_INT32"}, "T": {"type": "DT_FLOAT"}}}, {"name": "Concat_417", "op": "ConcatV2", "input": ["Concat_410", "transpose_361", "Concat_10/axis"], "attr": {"T": {"type": "DT_FLOAT"}, "N": {"i": "2"}, "Tidx": {"type": "DT_INT32"}}}, {"name": "BatchNormalization_418/mul_1", "op": "Mul", "input": ["BatchNormalization_418/mul", "Concat_417"], "attr": {"T": {"type": "DT_FLOAT"}}}, {"name": "BatchNormalization_418/add_1", "op": "Add", "input": ["BatchNormalization_418/mul_1", "BatchNormalization_418/sub"], "attr": {"T": {"type": "DT_FLOAT"}}}, {"name": "Relu_419", "op": "Relu", "input": ["BatchNormalization_418/add_1"], "attr": {"T": {"type": "DT_FLOAT"}}}, {"name": "transpose_363", "op": "Transpose", "input": ["Relu_419", "transpose_1/perm"], "attr": {"T": {"type": "DT_FLOAT"}, "Tperm": {"type": "DT_INT32"}}}, {"name": "convolution_118", "op": "Conv2D", "input": ["transpose_363", "split_236"], "device": "/device:CPU:0", "attr": {"data_format": {"s": "TkhXQw=="}, "strides": {"list": {"i": ["1", "1", "1", "1"]}}, "explicit_paddings": {"list": {}}, "use_cudnn_on_gpu": {"b": true}, "padding": {"s": "VkFMSUQ="}, "dilations": {"list": {"i": ["1", "1", "1", "1"]}}, "T": {"type": "DT_FLOAT"}}}, {"name": "transpose_364", "op": "Transpose", "input": ["convolution_118", "transpose_2/perm"], "attr": {"T": {"type": "DT_FLOAT"}, "Tperm": {"type": "DT_INT32"}}}, {"name": "BatchNormalization_421/mul_1", "op": "Mul", "input": ["BatchNormalization_421/mul", "transpose_364"], "attr": {"T": {"type": "DT_FLOAT"}}}, {"name": "BatchNormalization_421/add_1", "op": "Add", "input": ["BatchNormalization_421/mul_1", "BatchNormalization_421/sub"], "attr": {"T": {"type": "DT_FLOAT"}}}, {"name": "Relu_422", "op": "Relu", "input": ["BatchNormalization_421/add_1"], "attr": {"T": {"type": "DT_FLOAT"}}}, {"name": "Pad_121", "op": "Pad", "input": ["Relu_422", "Const_610"], "attr": {"T": {"type": "DT_FLOAT"}, "Tpaddings": {"type": "DT_INT32"}}}, {"name": "transpose_366", "op": "Transpose", "input": ["Pad_121", "transpose_1/perm"], "attr": {"T": {"type": "DT_FLOAT"}, "Tperm": {"type": "DT_INT32"}}}, {"name": "convolution_119", "op": "Conv2D", "input": ["transpose_366", "split_238"], "device": "/device:CPU:0", "attr": {"T": {"type": "DT_FLOAT"}, "data_format": {"s": "TkhXQw=="}, "strides": {"list": {"i": ["1", "1", "1", "1"]}}, "explicit_paddings": {"list": {}}, "use_cudnn_on_gpu": {"b": true}, "padding": {"s": "VkFMSUQ="}, "dilations": {"list": {"i": ["1", "1", "1", "1"]}}}}, {"name": "transpose_367", "op": "Transpose", "input": ["convolution_119", "transpose_2/perm"], "attr": {"T": {"type": "DT_FLOAT"}, "Tperm": {"type": "DT_INT32"}}}, {"name": "Concat_424", "op": "ConcatV2", "input": ["Concat_417", "transpose_367", "Concat_10/axis"], "attr": {"N": {"i": "2"}, "Tidx": {"type": "DT_INT32"}, "T": {"type": "DT_FLOAT"}}}, {"name": "BatchNormalization_425/mul_1", "op": "Mul", "input": ["BatchNormalization_425/mul", "Concat_424"], "attr": {"T": {"type": "DT_FLOAT"}}}, {"name": "BatchNormalization_425/add_1", "op": "Add", "input": ["BatchNormalization_425/mul_1", "BatchNormalization_425/sub"], "attr": {"T": {"type": "DT_FLOAT"}}}, {"name": "Relu_426", "op": "Relu", "input": ["BatchNormalization_425/add_1"], "attr": {"T": {"type": "DT_FLOAT"}}}, {"name": "Mean", "op": "Mean", "input": ["Relu_426", "ConstantFolding/split_240-folded-1"], "attr": {"keep_dims": {"b": true}, "Tidx": {"type": "DT_INT32"}, "T": {"type": "DT_FLOAT"}}}, {"name": "flatten/Reshape", "op": "Reshape", "input": ["Mean", "flatten/Reshape/shape"], "attr": {"T": {"type": "DT_FLOAT"}, "Tshape": {"type": "DT_INT32"}}}, {"name": "MatMul", "op": "MatMul", "input": ["flatten/Reshape", "transpose_368"], "device": "/device:CPU:0", "attr": {"transpose_b": {"b": false}, "T": {"type": "DT_FLOAT"}, "transpose_a": {"b": false}}}, {"name": "add_1", "op": "Add", "input": ["MatMul", "mul_1"], "attr": {"T": {"type": "DT_FLOAT"}}}, {"name": "Sigmoid_435", "op": "Sigmoid", "input": ["add_1"], "attr": {"T": {"type": "DT_FLOAT"}}}], "library": {}, "versions": {}}, "weightsManifest": [{"paths": ["group1-shard1of7.bin", "group1-shard2of7.bin", "group1-shard3of7.bin", "group1-shard4of7.bin", "group1-shard5of7.bin", "group1-shard6of7.bin", "group1-shard7of7.bin"], "weights": [{"name": "BatchNormalization_425/mul", "shape": [1, 1024, 1, 1], "dtype": "float32"}, {"name": "BatchNormalization_421/mul", "shape": [1, 128, 1, 1], "dtype": "float32"}, {"name": "BatchNormalization_418/mul", "shape": [1, 992, 1, 1], "dtype": "float32"}, {"name": "BatchNormalization_414/mul", "shape": [1, 128, 1, 1], "dtype": "float32"}, {"name": "BatchNormalization_411/mul", "shape": [1, 960, 1, 1], "dtype": "float32"}, {"name": "BatchNormalization_407/mul", "shape": [1, 128, 1, 1], "dtype": "float32"}, {"name": "BatchNormalization_404/mul", "shape": [1, 928, 1, 1], "dtype": "float32"}, {"name": "BatchNormalization_400/mul", "shape": [1, 128, 1, 1], "dtype": "float32"}, {"name": "BatchNormalization_397/mul", "shape": [1, 896, 1, 1], "dtype": "float32"}, {"name": "BatchNormalization_393/mul", "shape": [1, 128, 1, 1], "dtype": "float32"}, {"name": "BatchNormalization_390/mul", "shape": [1, 864, 1, 1], "dtype": "float32"}, {"name": "BatchNormalization_386/mul", "shape": [1, 128, 1, 1], "dtype": "float32"}, {"name": "BatchNormalization_383/mul", "shape": [1, 832, 1, 1], "dtype": "float32"}, {"name": "BatchNormalization_379/mul", "shape": [1, 128, 1, 1], "dtype": "float32"}, {"name": "BatchNormalization_376/mul", "shape": [1, 800, 1, 1], "dtype": "float32"}, {"name": "BatchNormalization_372/mul", "shape": [1, 128, 1, 1], "dtype": "float32"}, {"name": "BatchNormalization_369/mul", "shape": [1, 768, 1, 1], "dtype": "float32"}, {"name": "BatchNormalization_365/mul", "shape": [1, 128, 1, 1], "dtype": "float32"}, {"name": "BatchNormalization_362/mul", "shape": [1, 736, 1, 1], "dtype": "float32"}, {"name": "BatchNormalization_358/mul", "shape": [1, 128, 1, 1], "dtype": "float32"}, {"name": "BatchNormalization_355/mul", "shape": [1, 704, 1, 1], "dtype": "float32"}, {"name": "BatchNormalization_351/mul", "shape": [1, 128, 1, 1], "dtype": "float32"}, {"name": "BatchNormalization_348/mul", "shape": [1, 672, 1, 1], "dtype": "float32"}, {"name": "BatchNormalization_344/mul", "shape": [1, 128, 1, 1], "dtype": "float32"}, {"name": "BatchNormalization_341/mul", "shape": [1, 640, 1, 1], "dtype": "float32"}, {"name": "BatchNormalization_337/mul", "shape": [1, 128, 1, 1], "dtype": "float32"}, {"name": "BatchNormalization_334/mul", "shape": [1, 608, 1, 1], "dtype": "float32"}, {"name": "BatchNormalization_330/mul", "shape": [1, 128, 1, 1], "dtype": "float32"}, {"name": "BatchNormalization_327/mul", "shape": [1, 576, 1, 1], "dtype": "float32"}, {"name": "BatchNormalization_323/mul", "shape": [1, 128, 1, 1], "dtype": "float32"}, {"name": "BatchNormalization_320/mul", "shape": [1, 544, 1, 1], "dtype": "float32"}, {"name": "BatchNormalization_316/mul", "shape": [1, 128, 1, 1], "dtype": "float32"}, {"name": "BatchNormalization_313/mul", "shape": [1, 512, 1, 1], "dtype": "float32"}, {"name": "BatchNormalization_308/mul", "shape": [1, 1024, 1, 1], "dtype": "float32"}, {"name": "BatchNormalization_304/mul", "shape": [1, 128, 1, 1], "dtype": "float32"}, {"name": "BatchNormalization_301/mul", "shape": [1, 992, 1, 1], "dtype": "float32"}, {"name": "BatchNormalization_297/mul", "shape": [1, 128, 1, 1], "dtype": "float32"}, {"name": "BatchNormalization_294/mul", "shape": [1, 960, 1, 1], "dtype": "float32"}, {"name": "BatchNormalization_290/mul", "shape": [1, 128, 1, 1], "dtype": "float32"}, {"name": "BatchNormalization_287/mul", "shape": [1, 928, 1, 1], "dtype": "float32"}, {"name": "BatchNormalization_283/mul", "shape": [1, 128, 1, 1], "dtype": "float32"}, {"name": "BatchNormalization_280/mul", "shape": [1, 896, 1, 1], "dtype": "float32"}, {"name": "BatchNormalization_276/mul", "shape": [1, 128, 1, 1], "dtype": "float32"}, {"name": "BatchNormalization_273/mul", "shape": [1, 864, 1, 1], "dtype": "float32"}, {"name": "BatchNormalization_269/mul", "shape": [1, 128, 1, 1], "dtype": "float32"}, {"name": "BatchNormalization_266/mul", "shape": [1, 832, 1, 1], "dtype": "float32"}, {"name": "BatchNormalization_262/mul", "shape": [1, 128, 1, 1], "dtype": "float32"}, {"name": "BatchNormalization_259/mul", "shape": [1, 800, 1, 1], "dtype": "float32"}, {"name": "BatchNormalization_255/mul", "shape": [1, 128, 1, 1], "dtype": "float32"}, {"name": "BatchNormalization_252/mul", "shape": [1, 768, 1, 1], "dtype": "float32"}, {"name": "BatchNormalization_248/mul", "shape": [1, 128, 1, 1], "dtype": "float32"}, {"name": "BatchNormalization_245/mul", "shape": [1, 736, 1, 1], "dtype": "float32"}, {"name": "BatchNormalization_241/mul", "shape": [1, 128, 1, 1], "dtype": "float32"}, {"name": "BatchNormalization_238/mul", "shape": [1, 704, 1, 1], "dtype": "float32"}, {"name": "BatchNormalization_234/mul", "shape": [1, 128, 1, 1], "dtype": "float32"}, {"name": "BatchNormalization_231/mul", "shape": [1, 672, 1, 1], "dtype": "float32"}, {"name": "BatchNormalization_227/mul", "shape": [1, 128, 1, 1], "dtype": "float32"}, {"name": "BatchNormalization_224/mul", "shape": [1, 640, 1, 1], "dtype": "float32"}, {"name": "BatchNormalization_220/mul", "shape": [1, 128, 1, 1], "dtype": "float32"}, {"name": "BatchNormalization_217/mul", "shape": [1, 608, 1, 1], "dtype": "float32"}, {"name": "BatchNormalization_213/mul", "shape": [1, 128, 1, 1], "dtype": "float32"}, {"name": "BatchNormalization_210/mul", "shape": [1, 576, 1, 1], "dtype": "float32"}, {"name": "BatchNormalization_206/mul", "shape": [1, 128, 1, 1], "dtype": "float32"}, {"name": "BatchNormalization_203/mul", "shape": [1, 544, 1, 1], "dtype": "float32"}, {"name": "BatchNormalization_199/mul", "shape": [1, 128, 1, 1], "dtype": "float32"}, {"name": "BatchNormalization_196/mul", "shape": [1, 512, 1, 1], "dtype": "float32"}, {"name": "BatchNormalization_192/mul", "shape": [1, 128, 1, 1], "dtype": "float32"}, {"name": "BatchNormalization_189/mul", "shape": [1, 480, 1, 1], "dtype": "float32"}, {"name": "BatchNormalization_185/mul", "shape": [1, 128, 1, 1], "dtype": "float32"}, {"name": "BatchNormalization_182/mul", "shape": [1, 448, 1, 1], "dtype": "float32"}, {"name": "BatchNormalization_178/mul", "shape": [1, 128, 1, 1], "dtype": "float32"}, {"name": "BatchNormalization_175/mul", "shape": [1, 416, 1, 1], "dtype": "float32"}, {"name": "BatchNormalization_171/mul", "shape": [1, 128, 1, 1], "dtype": "float32"}, {"name": "BatchNormalization_168/mul", "shape": [1, 384, 1, 1], "dtype": "float32"}, {"name": "BatchNormalization_164/mul", "shape": [1, 128, 1, 1], "dtype": "float32"}, {"name": "BatchNormalization_161/mul", "shape": [1, 352, 1, 1], "dtype": "float32"}, {"name": "BatchNormalization_157/mul", "shape": [1, 128, 1, 1], "dtype": "float32"}, {"name": "BatchNormalization_154/mul", "shape": [1, 320, 1, 1], "dtype": "float32"}, {"name": "BatchNormalization_150/mul", "shape": [1, 128, 1, 1], "dtype": "float32"}, {"name": "BatchNormalization_147/mul", "shape": [1, 288, 1, 1], "dtype": "float32"}, {"name": "BatchNormalization_143/mul", "shape": [1, 128, 1, 1], "dtype": "float32"}, {"name": "BatchNormalization_140/mul", "shape": [1, 256, 1, 1], "dtype": "float32"}, {"name": "BatchNormalization_135/mul", "shape": [1, 512, 1, 1], "dtype": "float32"}, {"name": "BatchNormalization_131/mul", "shape": [1, 128, 1, 1], "dtype": "float32"}, {"name": "BatchNormalization_128/mul", "shape": [1, 480, 1, 1], "dtype": "float32"}, {"name": "BatchNormalization_124/mul", "shape": [1, 128, 1, 1], "dtype": "float32"}, {"name": "BatchNormalization_121/mul", "shape": [1, 448, 1, 1], "dtype": "float32"}, {"name": "BatchNormalization_117/mul", "shape": [1, 128, 1, 1], "dtype": "float32"}, {"name": "BatchNormalization_114/mul", "shape": [1, 416, 1, 1], "dtype": "float32"}, {"name": "BatchNormalization_110/mul", "shape": [1, 128, 1, 1], "dtype": "float32"}, {"name": "BatchNormalization_107/mul", "shape": [1, 384, 1, 1], "dtype": "float32"}, {"name": "BatchNormalization_103/mul", "shape": [1, 128, 1, 1], "dtype": "float32"}, {"name": "BatchNormalization_100/mul", "shape": [1, 352, 1, 1], "dtype": "float32"}, {"name": "BatchNormalization_96/mul", "shape": [1, 128, 1, 1], "dtype": "float32"}, {"name": "BatchNormalization_93/mul", "shape": [1, 320, 1, 1], "dtype": "float32"}, {"name": "BatchNormalization_89/mul", "shape": [1, 128, 1, 1], "dtype": "float32"}, {"name": "BatchNormalization_86/mul", "shape": [1, 288, 1, 1], "dtype": "float32"}, {"name": "BatchNormalization_82/mul", "shape": [1, 128, 1, 1], "dtype": "float32"}, {"name": "BatchNormalization_79/mul", "shape": [1, 256, 1, 1], "dtype": "float32"}, {"name": "BatchNormalization_75/mul", "shape": [1, 128, 1, 1], "dtype": "float32"}, {"name": "BatchNormalization_72/mul", "shape": [1, 224, 1, 1], "dtype": "float32"}, {"name": "BatchNormalization_68/mul", "shape": [1, 128, 1, 1], "dtype": "float32"}, {"name": "BatchNormalization_65/mul", "shape": [1, 192, 1, 1], "dtype": "float32"}, {"name": "BatchNormalization_61/mul", "shape": [1, 128, 1, 1], "dtype": "float32"}, {"name": "BatchNormalization_58/mul", "shape": [1, 160, 1, 1], "dtype": "float32"}, {"name": "BatchNormalization_54/mul", "shape": [1, 128, 1, 1], "dtype": "float32"}, {"name": "BatchNormalization_51/mul", "shape": [1, 128, 1, 1], "dtype": "float32"}, {"name": "BatchNormalization_46/mul", "shape": [1, 256, 1, 1], "dtype": "float32"}, {"name": "BatchNormalization_42/mul", "shape": [1, 128, 1, 1], "dtype": "float32"}, {"name": "BatchNormalization_39/mul", "shape": [1, 224, 1, 1], "dtype": "float32"}, {"name": "BatchNormalization_35/mul", "shape": [1, 128, 1, 1], "dtype": "float32"}, {"name": "BatchNormalization_32/mul", "shape": [1, 192, 1, 1], "dtype": "float32"}, {"name": "BatchNormalization_28/mul", "shape": [1, 128, 1, 1], "dtype": "float32"}, {"name": "BatchNormalization_25/mul", "shape": [1, 160, 1, 1], "dtype": "float32"}, {"name": "BatchNormalization_21/mul", "shape": [1, 128, 1, 1], "dtype": "float32"}, {"name": "BatchNormalization_18/mul", "shape": [1, 128, 1, 1], "dtype": "float32"}, {"name": "BatchNormalization_14/mul", "shape": [1, 128, 1, 1], "dtype": "float32"}, {"name": "BatchNormalization_11/mul", "shape": [1, 96, 1, 1], "dtype": "float32"}, {"name": "BatchNormalization_7/mul", "shape": [1, 128, 1, 1], "dtype": "float32"}, {"name": "BatchNormalization_4/mul", "shape": [1, 64, 1, 1], "dtype": "float32"}, {"name": "BatchNormalization_1/mul", "shape": [1, 64, 1, 1], "dtype": "float32"}, {"name": "Const_607", "shape": [4, 2], "dtype": "int32"}, {"name": "split", "shape": [7, 7, 1, 64], "dtype": "float32"}, {"name": "BatchNormalization_1/sub", "shape": [1, 64, 1, 1], "dtype": "float32"}, {"name": "BatchNormalization_4/sub", "shape": [1, 64, 1, 1], "dtype": "float32"}, {"name": "split_2", "shape": [1, 1, 64, 128], "dtype": "float32"}, {"name": "BatchNormalization_7/sub", "shape": [1, 128, 1, 1], "dtype": "float32"}, {"name": "split_4", "shape": [3, 3, 128, 32], "dtype": "float32"}, {"name": "BatchNormalization_11/sub", "shape": [1, 96, 1, 1], "dtype": "float32"}, {"name": "split_6", "shape": [1, 1, 96, 128], "dtype": "float32"}, {"name": "BatchNormalization_14/sub", "shape": [1, 128, 1, 1], "dtype": "float32"}, {"name": "split_8", "shape": [3, 3, 128, 32], "dtype": "float32"}, {"name": "BatchNormalization_18/sub", "shape": [1, 128, 1, 1], "dtype": "float32"}, {"name": "split_10", "shape": [1, 1, 128, 128], "dtype": "float32"}, {"name": "BatchNormalization_21/sub", "shape": [1, 128, 1, 1], "dtype": "float32"}, {"name": "split_12", "shape": [3, 3, 128, 32], "dtype": "float32"}, {"name": "BatchNormalization_25/sub", "shape": [1, 160, 1, 1], "dtype": "float32"}, {"name": "split_14", "shape": [1, 1, 160, 128], "dtype": "float32"}, {"name": "BatchNormalization_28/sub", "shape": [1, 128, 1, 1], "dtype": "float32"}, {"name": "split_16", "shape": [3, 3, 128, 32], "dtype": "float32"}, {"name": "BatchNormalization_32/sub", "shape": [1, 192, 1, 1], "dtype": "float32"}, {"name": "split_18", "shape": [1, 1, 192, 128], "dtype": "float32"}, {"name": "BatchNormalization_35/sub", "shape": [1, 128, 1, 1], "dtype": "float32"}, {"name": "split_20", "shape": [3, 3, 128, 32], "dtype": "float32"}, {"name": "BatchNormalization_39/sub", "shape": [1, 224, 1, 1], "dtype": "float32"}, {"name": "split_22", "shape": [1, 1, 224, 128], "dtype": "float32"}, {"name": "BatchNormalization_42/sub", "shape": [1, 128, 1, 1], "dtype": "float32"}, {"name": "split_24", "shape": [3, 3, 128, 32], "dtype": "float32"}, {"name": "BatchNormalization_46/sub", "shape": [1, 256, 1, 1], "dtype": "float32"}, {"name": "split_26", "shape": [1, 1, 256, 128], "dtype": "float32"}, {"name": "BatchNormalization_51/sub", "shape": [1, 128, 1, 1], "dtype": "float32"}, {"name": "split_28", "shape": [1, 1, 128, 128], "dtype": "float32"}, {"name": "BatchNormalization_54/sub", "shape": [1, 128, 1, 1], "dtype": "float32"}, {"name": "split_30", "shape": [3, 3, 128, 32], "dtype": "float32"}, {"name": "BatchNormalization_58/sub", "shape": [1, 160, 1, 1], "dtype": "float32"}, {"name": "split_32", "shape": [1, 1, 160, 128], "dtype": "float32"}, {"name": "BatchNormalization_61/sub", "shape": [1, 128, 1, 1], "dtype": "float32"}, {"name": "split_34", "shape": [3, 3, 128, 32], "dtype": "float32"}, {"name": "BatchNormalization_65/sub", "shape": [1, 192, 1, 1], "dtype": "float32"}, {"name": "split_36", "shape": [1, 1, 192, 128], "dtype": "float32"}, {"name": "BatchNormalization_68/sub", "shape": [1, 128, 1, 1], "dtype": "float32"}, {"name": "split_38", "shape": [3, 3, 128, 32], "dtype": "float32"}, {"name": "BatchNormalization_72/sub", "shape": [1, 224, 1, 1], "dtype": "float32"}, {"name": "split_40", "shape": [1, 1, 224, 128], "dtype": "float32"}, {"name": "BatchNormalization_75/sub", "shape": [1, 128, 1, 1], "dtype": "float32"}, {"name": "split_42", "shape": [3, 3, 128, 32], "dtype": "float32"}, {"name": "BatchNormalization_79/sub", "shape": [1, 256, 1, 1], "dtype": "float32"}, {"name": "split_44", "shape": [1, 1, 256, 128], "dtype": "float32"}, {"name": "BatchNormalization_82/sub", "shape": [1, 128, 1, 1], "dtype": "float32"}, {"name": "split_46", "shape": [3, 3, 128, 32], "dtype": "float32"}, {"name": "BatchNormalization_86/sub", "shape": [1, 288, 1, 1], "dtype": "float32"}, {"name": "split_48", "shape": [1, 1, 288, 128], "dtype": "float32"}, {"name": "BatchNormalization_89/sub", "shape": [1, 128, 1, 1], "dtype": "float32"}, {"name": "split_50", "shape": [3, 3, 128, 32], "dtype": "float32"}, {"name": "BatchNormalization_93/sub", "shape": [1, 320, 1, 1], "dtype": "float32"}, {"name": "split_52", "shape": [1, 1, 320, 128], "dtype": "float32"}, {"name": "BatchNormalization_96/sub", "shape": [1, 128, 1, 1], "dtype": "float32"}, {"name": "split_54", "shape": [3, 3, 128, 32], "dtype": "float32"}, {"name": "BatchNormalization_100/sub", "shape": [1, 352, 1, 1], "dtype": "float32"}, {"name": "split_56", "shape": [1, 1, 352, 128], "dtype": "float32"}, {"name": "BatchNormalization_103/sub", "shape": [1, 128, 1, 1], "dtype": "float32"}, {"name": "split_58", "shape": [3, 3, 128, 32], "dtype": "float32"}, {"name": "BatchNormalization_107/sub", "shape": [1, 384, 1, 1], "dtype": "float32"}, {"name": "split_60", "shape": [1, 1, 384, 128], "dtype": "float32"}, {"name": "BatchNormalization_110/sub", "shape": [1, 128, 1, 1], "dtype": "float32"}, {"name": "split_62", "shape": [3, 3, 128, 32], "dtype": "float32"}, {"name": "BatchNormalization_114/sub", "shape": [1, 416, 1, 1], "dtype": "float32"}, {"name": "split_64", "shape": [1, 1, 416, 128], "dtype": "float32"}, {"name": "BatchNormalization_117/sub", "shape": [1, 128, 1, 1], "dtype": "float32"}, {"name": "split_66", "shape": [3, 3, 128, 32], "dtype": "float32"}, {"name": "BatchNormalization_121/sub", "shape": [1, 448, 1, 1], "dtype": "float32"}, {"name": "split_68", "shape": [1, 1, 448, 128], "dtype": "float32"}, {"name": "BatchNormalization_124/sub", "shape": [1, 128, 1, 1], "dtype": "float32"}, {"name": "split_70", "shape": [3, 3, 128, 32], "dtype": "float32"}, {"name": "BatchNormalization_128/sub", "shape": [1, 480, 1, 1], "dtype": "float32"}, {"name": "split_72", "shape": [1, 1, 480, 128], "dtype": "float32"}, {"name": "BatchNormalization_131/sub", "shape": [1, 128, 1, 1], "dtype": "float32"}, {"name": "split_74", "shape": [3, 3, 128, 32], "dtype": "float32"}, {"name": "BatchNormalization_135/sub", "shape": [1, 512, 1, 1], "dtype": "float32"}, {"name": "split_76", "shape": [1, 1, 512, 256], "dtype": "float32"}, {"name": "BatchNormalization_140/sub", "shape": [1, 256, 1, 1], "dtype": "float32"}, {"name": "split_78", "shape": [1, 1, 256, 128], "dtype": "float32"}, {"name": "BatchNormalization_143/sub", "shape": [1, 128, 1, 1], "dtype": "float32"}, {"name": "split_80", "shape": [3, 3, 128, 32], "dtype": "float32"}, {"name": "BatchNormalization_147/sub", "shape": [1, 288, 1, 1], "dtype": "float32"}, {"name": "split_82", "shape": [1, 1, 288, 128], "dtype": "float32"}, {"name": "BatchNormalization_150/sub", "shape": [1, 128, 1, 1], "dtype": "float32"}, {"name": "split_84", "shape": [3, 3, 128, 32], "dtype": "float32"}, {"name": "BatchNormalization_154/sub", "shape": [1, 320, 1, 1], "dtype": "float32"}, {"name": "split_86", "shape": [1, 1, 320, 128], "dtype": "float32"}, {"name": "BatchNormalization_157/sub", "shape": [1, 128, 1, 1], "dtype": "float32"}, {"name": "split_88", "shape": [3, 3, 128, 32], "dtype": "float32"}, {"name": "BatchNormalization_161/sub", "shape": [1, 352, 1, 1], "dtype": "float32"}, {"name": "split_90", "shape": [1, 1, 352, 128], "dtype": "float32"}, {"name": "BatchNormalization_164/sub", "shape": [1, 128, 1, 1], "dtype": "float32"}, {"name": "split_92", "shape": [3, 3, 128, 32], "dtype": "float32"}, {"name": "BatchNormalization_168/sub", "shape": [1, 384, 1, 1], "dtype": "float32"}, {"name": "split_94", "shape": [1, 1, 384, 128], "dtype": "float32"}, {"name": "BatchNormalization_171/sub", "shape": [1, 128, 1, 1], "dtype": "float32"}, {"name": "split_96", "shape": [3, 3, 128, 32], "dtype": "float32"}, {"name": "BatchNormalization_175/sub", "shape": [1, 416, 1, 1], "dtype": "float32"}, {"name": "split_98", "shape": [1, 1, 416, 128], "dtype": "float32"}, {"name": "BatchNormalization_178/sub", "shape": [1, 128, 1, 1], "dtype": "float32"}, {"name": "split_100", "shape": [3, 3, 128, 32], "dtype": "float32"}, {"name": "BatchNormalization_182/sub", "shape": [1, 448, 1, 1], "dtype": "float32"}, {"name": "split_102", "shape": [1, 1, 448, 128], "dtype": "float32"}, {"name": "BatchNormalization_185/sub", "shape": [1, 128, 1, 1], "dtype": "float32"}, {"name": "split_104", "shape": [3, 3, 128, 32], "dtype": "float32"}, {"name": "BatchNormalization_189/sub", "shape": [1, 480, 1, 1], "dtype": "float32"}, {"name": "split_106", "shape": [1, 1, 480, 128], "dtype": "float32"}, {"name": "BatchNormalization_192/sub", "shape": [1, 128, 1, 1], "dtype": "float32"}, {"name": "split_108", "shape": [3, 3, 128, 32], "dtype": "float32"}, {"name": "BatchNormalization_196/sub", "shape": [1, 512, 1, 1], "dtype": "float32"}, {"name": "split_110", "shape": [1, 1, 512, 128], "dtype": "float32"}, {"name": "BatchNormalization_199/sub", "shape": [1, 128, 1, 1], "dtype": "float32"}, {"name": "split_112", "shape": [3, 3, 128, 32], "dtype": "float32"}, {"name": "BatchNormalization_203/sub", "shape": [1, 544, 1, 1], "dtype": "float32"}, {"name": "split_114", "shape": [1, 1, 544, 128], "dtype": "float32"}, {"name": "BatchNormalization_206/sub", "shape": [1, 128, 1, 1], "dtype": "float32"}, {"name": "split_116", "shape": [3, 3, 128, 32], "dtype": "float32"}, {"name": "BatchNormalization_210/sub", "shape": [1, 576, 1, 1], "dtype": "float32"}, {"name": "split_118", "shape": [1, 1, 576, 128], "dtype": "float32"}, {"name": "BatchNormalization_213/sub", "shape": [1, 128, 1, 1], "dtype": "float32"}, {"name": "split_120", "shape": [3, 3, 128, 32], "dtype": "float32"}, {"name": "BatchNormalization_217/sub", "shape": [1, 608, 1, 1], "dtype": "float32"}, {"name": "split_122", "shape": [1, 1, 608, 128], "dtype": "float32"}, {"name": "BatchNormalization_220/sub", "shape": [1, 128, 1, 1], "dtype": "float32"}, {"name": "split_124", "shape": [3, 3, 128, 32], "dtype": "float32"}, {"name": "BatchNormalization_224/sub", "shape": [1, 640, 1, 1], "dtype": "float32"}, {"name": "split_126", "shape": [1, 1, 640, 128], "dtype": "float32"}, {"name": "BatchNormalization_227/sub", "shape": [1, 128, 1, 1], "dtype": "float32"}, {"name": "split_128", "shape": [3, 3, 128, 32], "dtype": "float32"}, {"name": "BatchNormalization_231/sub", "shape": [1, 672, 1, 1], "dtype": "float32"}, {"name": "split_130", "shape": [1, 1, 672, 128], "dtype": "float32"}, {"name": "BatchNormalization_234/sub", "shape": [1, 128, 1, 1], "dtype": "float32"}, {"name": "split_132", "shape": [3, 3, 128, 32], "dtype": "float32"}, {"name": "BatchNormalization_238/sub", "shape": [1, 704, 1, 1], "dtype": "float32"}, {"name": "split_134", "shape": [1, 1, 704, 128], "dtype": "float32"}, {"name": "BatchNormalization_241/sub", "shape": [1, 128, 1, 1], "dtype": "float32"}, {"name": "split_136", "shape": [3, 3, 128, 32], "dtype": "float32"}, {"name": "BatchNormalization_245/sub", "shape": [1, 736, 1, 1], "dtype": "float32"}, {"name": "split_138", "shape": [1, 1, 736, 128], "dtype": "float32"}, {"name": "BatchNormalization_248/sub", "shape": [1, 128, 1, 1], "dtype": "float32"}, {"name": "split_140", "shape": [3, 3, 128, 32], "dtype": "float32"}, {"name": "BatchNormalization_252/sub", "shape": [1, 768, 1, 1], "dtype": "float32"}, {"name": "split_142", "shape": [1, 1, 768, 128], "dtype": "float32"}, {"name": "BatchNormalization_255/sub", "shape": [1, 128, 1, 1], "dtype": "float32"}, {"name": "split_144", "shape": [3, 3, 128, 32], "dtype": "float32"}, {"name": "BatchNormalization_259/sub", "shape": [1, 800, 1, 1], "dtype": "float32"}, {"name": "split_146", "shape": [1, 1, 800, 128], "dtype": "float32"}, {"name": "BatchNormalization_262/sub", "shape": [1, 128, 1, 1], "dtype": "float32"}, {"name": "split_148", "shape": [3, 3, 128, 32], "dtype": "float32"}, {"name": "BatchNormalization_266/sub", "shape": [1, 832, 1, 1], "dtype": "float32"}, {"name": "split_150", "shape": [1, 1, 832, 128], "dtype": "float32"}, {"name": "BatchNormalization_269/sub", "shape": [1, 128, 1, 1], "dtype": "float32"}, {"name": "split_152", "shape": [3, 3, 128, 32], "dtype": "float32"}, {"name": "BatchNormalization_273/sub", "shape": [1, 864, 1, 1], "dtype": "float32"}, {"name": "split_154", "shape": [1, 1, 864, 128], "dtype": "float32"}, {"name": "BatchNormalization_276/sub", "shape": [1, 128, 1, 1], "dtype": "float32"}, {"name": "split_156", "shape": [3, 3, 128, 32], "dtype": "float32"}, {"name": "BatchNormalization_280/sub", "shape": [1, 896, 1, 1], "dtype": "float32"}, {"name": "split_158", "shape": [1, 1, 896, 128], "dtype": "float32"}, {"name": "BatchNormalization_283/sub", "shape": [1, 128, 1, 1], "dtype": "float32"}, {"name": "split_160", "shape": [3, 3, 128, 32], "dtype": "float32"}, {"name": "BatchNormalization_287/sub", "shape": [1, 928, 1, 1], "dtype": "float32"}, {"name": "split_162", "shape": [1, 1, 928, 128], "dtype": "float32"}, {"name": "BatchNormalization_290/sub", "shape": [1, 128, 1, 1], "dtype": "float32"}, {"name": "split_164", "shape": [3, 3, 128, 32], "dtype": "float32"}, {"name": "BatchNormalization_294/sub", "shape": [1, 960, 1, 1], "dtype": "float32"}, {"name": "split_166", "shape": [1, 1, 960, 128], "dtype": "float32"}, {"name": "BatchNormalization_297/sub", "shape": [1, 128, 1, 1], "dtype": "float32"}, {"name": "split_168", "shape": [3, 3, 128, 32], "dtype": "float32"}, {"name": "BatchNormalization_301/sub", "shape": [1, 992, 1, 1], "dtype": "float32"}, {"name": "split_170", "shape": [1, 1, 992, 128], "dtype": "float32"}, {"name": "BatchNormalization_304/sub", "shape": [1, 128, 1, 1], "dtype": "float32"}, {"name": "split_172", "shape": [3, 3, 128, 32], "dtype": "float32"}, {"name": "BatchNormalization_308/sub", "shape": [1, 1024, 1, 1], "dtype": "float32"}, {"name": "split_174", "shape": [1, 1, 1024, 512], "dtype": "float32"}, {"name": "BatchNormalization_313/sub", "shape": [1, 512, 1, 1], "dtype": "float32"}, {"name": "split_176", "shape": [1, 1, 512, 128], "dtype": "float32"}, {"name": "BatchNormalization_316/sub", "shape": [1, 128, 1, 1], "dtype": "float32"}, {"name": "split_178", "shape": [3, 3, 128, 32], "dtype": "float32"}, {"name": "BatchNormalization_320/sub", "shape": [1, 544, 1, 1], "dtype": "float32"}, {"name": "split_180", "shape": [1, 1, 544, 128], "dtype": "float32"}, {"name": "BatchNormalization_323/sub", "shape": [1, 128, 1, 1], "dtype": "float32"}, {"name": "split_182", "shape": [3, 3, 128, 32], "dtype": "float32"}, {"name": "BatchNormalization_327/sub", "shape": [1, 576, 1, 1], "dtype": "float32"}, {"name": "split_184", "shape": [1, 1, 576, 128], "dtype": "float32"}, {"name": "BatchNormalization_330/sub", "shape": [1, 128, 1, 1], "dtype": "float32"}, {"name": "split_186", "shape": [3, 3, 128, 32], "dtype": "float32"}, {"name": "BatchNormalization_334/sub", "shape": [1, 608, 1, 1], "dtype": "float32"}, {"name": "split_188", "shape": [1, 1, 608, 128], "dtype": "float32"}, {"name": "BatchNormalization_337/sub", "shape": [1, 128, 1, 1], "dtype": "float32"}, {"name": "split_190", "shape": [3, 3, 128, 32], "dtype": "float32"}, {"name": "BatchNormalization_341/sub", "shape": [1, 640, 1, 1], "dtype": "float32"}, {"name": "split_192", "shape": [1, 1, 640, 128], "dtype": "float32"}, {"name": "BatchNormalization_344/sub", "shape": [1, 128, 1, 1], "dtype": "float32"}, {"name": "split_194", "shape": [3, 3, 128, 32], "dtype": "float32"}, {"name": "BatchNormalization_348/sub", "shape": [1, 672, 1, 1], "dtype": "float32"}, {"name": "split_196", "shape": [1, 1, 672, 128], "dtype": "float32"}, {"name": "BatchNormalization_351/sub", "shape": [1, 128, 1, 1], "dtype": "float32"}, {"name": "split_198", "shape": [3, 3, 128, 32], "dtype": "float32"}, {"name": "BatchNormalization_355/sub", "shape": [1, 704, 1, 1], "dtype": "float32"}, {"name": "split_200", "shape": [1, 1, 704, 128], "dtype": "float32"}, {"name": "BatchNormalization_358/sub", "shape": [1, 128, 1, 1], "dtype": "float32"}, {"name": "split_202", "shape": [3, 3, 128, 32], "dtype": "float32"}, {"name": "BatchNormalization_362/sub", "shape": [1, 736, 1, 1], "dtype": "float32"}, {"name": "split_204", "shape": [1, 1, 736, 128], "dtype": "float32"}, {"name": "BatchNormalization_365/sub", "shape": [1, 128, 1, 1], "dtype": "float32"}, {"name": "split_206", "shape": [3, 3, 128, 32], "dtype": "float32"}, {"name": "BatchNormalization_369/sub", "shape": [1, 768, 1, 1], "dtype": "float32"}, {"name": "split_208", "shape": [1, 1, 768, 128], "dtype": "float32"}, {"name": "BatchNormalization_372/sub", "shape": [1, 128, 1, 1], "dtype": "float32"}, {"name": "split_210", "shape": [3, 3, 128, 32], "dtype": "float32"}, {"name": "BatchNormalization_376/sub", "shape": [1, 800, 1, 1], "dtype": "float32"}, {"name": "split_212", "shape": [1, 1, 800, 128], "dtype": "float32"}, {"name": "BatchNormalization_379/sub", "shape": [1, 128, 1, 1], "dtype": "float32"}, {"name": "split_214", "shape": [3, 3, 128, 32], "dtype": "float32"}, {"name": "BatchNormalization_383/sub", "shape": [1, 832, 1, 1], "dtype": "float32"}, {"name": "split_216", "shape": [1, 1, 832, 128], "dtype": "float32"}, {"name": "BatchNormalization_386/sub", "shape": [1, 128, 1, 1], "dtype": "float32"}, {"name": "split_218", "shape": [3, 3, 128, 32], "dtype": "float32"}, {"name": "BatchNormalization_390/sub", "shape": [1, 864, 1, 1], "dtype": "float32"}, {"name": "split_220", "shape": [1, 1, 864, 128], "dtype": "float32"}, {"name": "BatchNormalization_393/sub", "shape": [1, 128, 1, 1], "dtype": "float32"}, {"name": "split_222", "shape": [3, 3, 128, 32], "dtype": "float32"}, {"name": "BatchNormalization_397/sub", "shape": [1, 896, 1, 1], "dtype": "float32"}, {"name": "split_224", "shape": [1, 1, 896, 128], "dtype": "float32"}, {"name": "BatchNormalization_400/sub", "shape": [1, 128, 1, 1], "dtype": "float32"}, {"name": "split_226", "shape": [3, 3, 128, 32], "dtype": "float32"}, {"name": "BatchNormalization_404/sub", "shape": [1, 928, 1, 1], "dtype": "float32"}, {"name": "split_228", "shape": [1, 1, 928, 128], "dtype": "float32"}, {"name": "BatchNormalization_407/sub", "shape": [1, 128, 1, 1], "dtype": "float32"}, {"name": "split_230", "shape": [3, 3, 128, 32], "dtype": "float32"}, {"name": "BatchNormalization_411/sub", "shape": [1, 960, 1, 1], "dtype": "float32"}, {"name": "split_232", "shape": [1, 1, 960, 128], "dtype": "float32"}, {"name": "BatchNormalization_414/sub", "shape": [1, 128, 1, 1], "dtype": "float32"}, {"name": "split_234", "shape": [3, 3, 128, 32], "dtype": "float32"}, {"name": "BatchNormalization_418/sub", "shape": [1, 992, 1, 1], "dtype": "float32"}, {"name": "split_236", "shape": [1, 1, 992, 128], "dtype": "float32"}, {"name": "BatchNormalization_421/sub", "shape": [1, 128, 1, 1], "dtype": "float32"}, {"name": "Const_610", "shape": [4, 2], "dtype": "int32"}, {"name": "transpose_1/perm", "shape": [4], "dtype": "int32"}, {"name": "split_238", "shape": [3, 3, 128, 32], "dtype": "float32"}, {"name": "transpose_2/perm", "shape": [4], "dtype": "int32"}, {"name": "Concat_10/axis", "shape": [], "dtype": "int32"}, {"name": "BatchNormalization_425/sub", "shape": [1, 1024, 1, 1], "dtype": "float32"}, {"name": "ConstantFolding/split_240-folded-1", "shape": [2], "dtype": "int32"}, {"name": "flatten/Reshape/shape", "shape": [2], "dtype": "int32"}, {"name": "transpose_368", "shape": [1024, 18], "dtype": "float32"}, {"name": "mul_1", "shape": [18], "dtype": "float32"}]}]}